new_ver1/model_parameter_consist/batch128_epoch10000.pth (torch, 20800 bytes, 5 tensors)

MLP.0.weight f4 [64, 3]
000000 03 f2 35 3e c7 3d 8a bd 3f a1 17 3e 4c d6 22 3e
       0.17768101 -0.06750064 0.14807604 0.1590206
000010 23 7a ad bd 73 43 c8 3d f6 3f 8c 3c 60 81 45 be
       -0.08470561 0.0977849 0.017120343 -0.19287634
000020 eb 09 00 be a2 c7 6e ba ca 50 0d be d5 9d 8d bd
       -0.12503783 -0.0009108727 -0.1380035 -0.0691487
000030 17 d6 37 be 8e 21 a4 3b 4e 49 80 3d 38 2e 91 bc
       -0.17952763 0.005008883 0.06263982 -0.017722234
000040 9e c3 29 be fb de dd bd 4e d3 29 be b8 96 a5 3c
       -0.16578528 -0.10833546 -0.16584513 0.02021347
000050 c7 d6 0c 3c 5e e4 26 be a8 0f 5b bc a6 e1 9f bd
       0.008596129 -0.16298053 -0.013370432 -0.07806711
000060 a7 ff 42 be 35 01 41 3d df d6 a7 3c e1 47 38 3c
       -0.19042836 0.04712029 0.0204882 0.011247606
000070 bf cf bf 3b cf 2a 29 3c 79 40 40 be a3 a1 25 3c
       0.0058536227 0.010325148 -0.18774594 0.010109338
000080 93 83 c0 3d 22 95 a1 3c 15 57 29 be dc d1 85 bd
       0.09400096 0.019724432 -0.16537125 -0.06534168
000090 bf 7e cd 3d a7 13 a7 bd 43 e9 da 3d de 39 63 3d
       0.100339405 -0.08158045 0.106890224 0.05547511
0000a0 e2 f2 38 3e 08 ad 89 bd ad fc eb bb 47 d9 71 3d
       0.18061402 -0.06722456 -0.007201752 0.059045102
0000b0 8a 94 a4 3d 2a d2 ae 3c e6 1d 1e be 4a b5 26 bd
       0.08036144 0.021340448 -0.15441093 -0.040700234
0000c0 32 9b 2b bd a6 92 cc bb df 4a 58 be 7c 24 73 b9
       -0.041896053 -0.006243068 -0.21122311 -0.00023187877
0000d0 8e 40 d5 3c 9f aa 09 3d 01 c8 03 3e e5 96 44 3e
       0.026031759 0.033609983 0.12869264 0.19198187
0000e0 b7 0e ac 3d 30 8c 33 3e f0 63 b2 bd 1b 9d c0 3d
       0.08401244 0.17533946 -0.08710468 0.094049655
0000f0 35 17 80 bd 01 47 d7 bd ba 09 b5 bc 69 ea ec bc
       -0.062544264 -0.1051159 -0.022099365 -0.02892037
000100 c3 d8 54 bd 8f 8a 01 3e 59 53 dd 3d 51 6a b5 bd
       -0.051964533 0.12650512 0.10806913 -0.08858169
000110 5c 1e 77 3d b3 23 3e be c5 14 52 3c 1b b4 86 bd
       0.060331687 -0.18568306 0.012822335 -0.06577321
000120 17 ec 23 be aa 1c e2 bc 8a 0d 59 3d a0 a8 83 3e
       -0.1600803 -0.027601559 0.052991427 0.25714588
000130 5f 91 2d be 2c 26 f9 3d bf 5c f0 bc 39 74 be bd
       -0.16949986 0.12165484 -0.0293411 -0.092995115
000140 e1 ce 27 bd 66 f1 29 3e 2b 1a a9 bd 28 b1 f1 3b
       -0.04096878 0.16595992 -0.08256944 0.007375855
000150 2a 85 5b be 42 66 27 3d f7 f6 75 bd 9c 9d e8 bc
       -0.21437517 0.040869005 -0.060049977 -0.028395467
000160 30 25 3a 3e 4a b5 0a be 2e c4 39 be fc 9b c8 bc
       0.18178248 -0.13545719 -0.18141243 -0.024488442
000170 e0 75 6f bc 4c 40 85 3b f3 2b f8 3d 3f 61 02 3e
       -0.014615506 0.0040665027 0.12117758 0.12732409
000180 e9 9d b2 bd 3d 42 1c 3d 22 77 a4 3d 88 4b fa 3d
       -0.08721525 0.038149107 0.08030535 0.12221438
000190 2f c9 c9 3d 0d d2 86 bd 2a 68 85 3e 25 77 cb bd
       0.09852826 -0.06583033 0.26056033 -0.099348344
0001a0 d4 1f 03 3d 41 42 32 be a4 67 e3 bc 90 15 75 3d
       0.032012776 -0.17408086 -0.02775938 0.059835017
0001b0 8b c5 d7 bd f8 d6 f6 bc ca 98 70 3c ac 15 77 3e
       -0.10535725 -0.030131802 0.014684865 0.24129361
0001c0 0e bf b3 bd 53 26 11 bd 2d b1 29 3e f1 16 43 bc
       -0.08776675 -0.03543694 0.16571493 -0.011907325
0001d0 57 e9 bc 3d ac d8 89 be ef db 8f bc e2 45 72 3d
       0.092241935 -0.2692312 -0.017560927 0.059148677
0001e0 d2 78 61 bd 2d aa 92 bd ec 7d 1b 3c df 92 a1 3d
       -0.055046864 -0.07161365 0.009490471 0.078893416
0001f0 f0 27 5a 3d 91 ad 81 3d 05 52 3c be 62 ef 13 3d
       0.053260744 0.06331933 -0.18390663 0.036116965
000200 d7 ee d8 bb 90 23 63 3e 2d c2 62 bd e7 5d 2c 3d
       -0.006620269 0.22181535 -0.05536096 0.04208174
000210 a9 35 11 bd b7 6e 03 bd 8a 8c 1b bc 96 a2 e8 3d
       -0.035451565 -0.032088008 -0.009493956 0.11359136
000220 72 58 59 bd af 44 cc 3d 28 69 17 be 4b 7f a4 bd
       -0.053062864 0.09974038 -0.14786208 -0.08032092
000230 c5 8c 0d 3c e9 f7 06 bd 74 1f 9f bc 9b 97 3b be
       0.008639519 -0.03295127 -0.019424178 -0.18319552
000240 92 1c ae 3e 0f c4 44 3e 02 8a 93 3d 4e f3 1c 3e
       0.34006172 0.19215415 0.07204057 0.15327188
000250 61 ba a4 bd 53 30 28 bd 0a a3 03 bd 86 60 1c bd
       -0.080433615 -0.04106171 -0.032137908 -0.03817799
000260 78 50 a1 3b a0 ce 07 be 9a ba 12 bd 26 8f 22 bd
       0.0049229227 -0.13262415 -0.03582249 -0.0396873
000270 c7 db 5a 3e cb d5 4a bd 0f e9 35 3e 79 8f fc bd
       0.21372901 -0.049520295 0.17764686 -0.12332053
000280 0f a2 f2 bd d2 74 32 be 58 ab 30 3e 17 69 7e bd
       -0.118473165 -0.17427376 0.17252862 -0.06211194
000290 bd a5 b0 3d f7 5e f2 3c 02 e4 1c 3d c1 0f 17 3c
       0.08625362 0.029586298 0.038303383 0.009220065
0002a0 de b9 b0 bd 82 a1 77 bd d6 cf cc bd 88 0c 3e 3e
       -0.08629201 -0.06045676 -0.10000579 0.18559468
0002b0 5e cf e3 3d bc 6e f9 3c dc 84 c3 bd dc a4 52 3c
       0.111235365 0.03044831 -0.09546825 0.012856688
0002c0 d5 3f 45 bd f5 2d 74 3e 34 d7 70 3d 1a c4 8f bc
       -0.048156578 0.23845656 0.058798984 -0.017549563
0002d0 20 0f bd bc 0f 08 09 3e ba d3 71 bc d4 84 0e bd
       -0.023078501 0.1338198 -0.014759952 -0.034794644
0002e0 6b 67 28 3e 2f 67 10 be dc 10 ed bd 35 2e 30 3e
       0.16445701 -0.14101861 -0.11575481 0.17205127
0002f0 73 ce 19 bd c6 29 73 3e 6d 32 91 3d 14 45 1f 3d
       -0.0375504 0.23746404 0.07089696 0.038884237

MLP.0.bias f4 [64]
000000 1f 03 14 be b7 9c a5 bd cd e6 fd bd 0f 17 49 bd
       -0.14454316 -0.080865316 -0.123975374 -0.049094256
000010 a6 5d f4 3d 9e 5d b6 bd 37 66 93 bd c4 f9 31 bd
       0.119319245 -0.08904575 -0.0719723 -0.043451086
000020 89 84 50 bd 4a 93 87 3c 4c e7 10 3e 05 74 ad bd
       -0.050907645 0.016549725 0.14150733 -0.084693946
000030 d0 cd ba bd 0d 81 e0 3b 07 11 41 bd 5a cf 0a bd
       -0.09121287 0.0068513216 -0.04713538 -0.033889152
000040 35 cd b7 bd 0b 84 16 3d d5 01 9e 3c ac 46 77 bd
       -0.08974687 0.03674702 0.019287983 -0.060370132
000050 32 8b ba 3a cf 14 06 be 4c 3b 5e bc a8 c9 00 bd
       0.0014232157 -0.13093875 -0.013563942 -0.031442314
000060 23 c9 6a 3d a8 be 86 bc 9d a7 81 bd e1 33 a9 3c
       0.057320725 -0.016448334 -0.06330798 0.02065462
000070 1c cf 83 bc 4e 7c 18 3e c0 88 67 bd aa 51 76 3c
       -0.016089968 0.14891168 -0.0565269 0.015034119
000080 6a 0b 17 bc 6e cb 06 3d b6 b1 d9 3c 96 d1 36 bd
       -0.00921903 0.03290885 0.026573997 -0.04463347
000090 e3 b3 bd 3d 81 58 c7 3c cf eb 3f bd 69 99 0e 3e
       0.09262826 0.024334194 -0.046855744 0.13925709
0000a0 76 4c 39 bd 1f 66 89 3c 30 c2 93 bd 42 26 76 3c
       -0.045238934 0.016772328 -0.07214773 0.01502377
0000b0 87 9f be bd a4 fd 9c bd 70 10 72 bc 47 89 bb bd
       -0.09307771 -0.076655656 -0.014774427 -0.09157043
0000c0 2e da fb 3c 60 85 d4 3c b2 d8 c1 bd 40 60 f4 3a
       0.030743685 0.025942504 -0.094651595 0.0018644407
0000d0 6c 81 e9 3c b0 7b 21 bb d3 6e 27 3d ae ff 0e bc
       0.028504096 -0.0024640374 0.040877175 -0.008727951
0000e0 3b bc ef bc 5b df b8 3c 3d 99 76 bd 9e ab 94 bc
       -0.02926456 0.022567442 -0.060204733 -0.01814824
0000f0 1d 5e c6 3c 7d 4f b5 3d 25 47 e6 3d 20 fe 6f bc
       0.024214799 0.08853052 0.112440385 -0.01464799

MLP.2.weight f4 [64, 64]
000000 3a 23 7d 3e ab e8 3e 3e a8 c6 0f 3d d5 91 d1 bd
       0.24720469 0.18643443 0.035101563 -0.102328934
000010 fb 06 19 be 82 36 ca 3d fd 5b ef 3d 08 85 0c 3c
       -0.14944069 0.09873678 0.11687467 0.008576639
000020 e2 18 05 be 3c ea 0c be 4a 89 1b be 97 05 ad 3d
       -0.12997773 -0.13761228 -0.1518909 0.08448332
000030 cd 94 75 3d a0 2b 73 bc 29 82 73 3d ba 52 64 bd
       0.05995636 -0.014841944 0.059450302 -0.055742957
000040 30 7c 4e bd ee cf 75 be da ed 29 3e 24 7e 2a be
       -0.050411403 -0.240051 0.1659464 -0.16649681
000050 c8 93 07 bc f4 0e 2c bc bf 27 4c be 11 d4 2d 3b
       -0.00827498 -0.010501612 -0.19937037 0.0026524107
000060 80 fb 0e 3d 84 37 da 3d 3a 0a 24 3e aa 16 a1 3d
       0.034907818 0.1065512 0.16019526 0.07865651
000070 cf b9 ae bd c6 ba d7 3d 1c f4 8a 3d b7 25 ea bc
       -0.08531534 0.10533671 0.067848414 -0.028582437
000080 d0 a3 9a 3d 28 1d be bc 9f b9 04 3e 5e f1 92 bd
       0.07550776 -0.023207262 0.12961434 -0.071749434
000090 0a e0 ba bc 5f 74 67 bd 93 61 96 bd c1 06 82 bd
       -0.022811908 -0.056507464 -0.073428296 -0.063489445
0000a0 49 a1 7d bd 40 60 86 bc 86 f8 27 3e 72 b3 dc 3c
       -0.06192139 -0.016403317 0.16403398 0.026941035
0000b0 86 6a 06 3c a0 31 54 3e 05 ea fb bb a7 90 d4 3b
       0.008204108 0.20722055 -0.0076878094 0.0064869705
0000c0 6e 15 29 bb 4f a1 5c bc a9 8d 02 3e c3 ff 57 3c
       -0.0025800127 -0.013466193 0.12749352 0.013183537
0000d0 6e 7d 23 3e e9 a2 44 bd 0a df 5e 3d e2 29 ac bd
       0.15965816 -0.048006926 0.054411925 -0.08406426
0000e0 b8 74 80 3c 20 59 a0 bd cc ba 8d bd d0 ae c0 3d
       0.015680656 -0.07829499 -0.06920394 0.09408343
0000f0 33 28 82 be 7e 5b 6e bc 4e 41 f7 bd b7 fb 31 3e
       -0.25421295 -0.014548181 -0.12073003 0.17381178
000100 6e 5e 9d ba 33 54 b0 3c c9 4a 81 bd 5d 2a cc bd
       -0.0012006292 0.021524524 -0.06313092 -0.09969018
000110 26 ee 6d 3c c9 5c ab bd ab 52 a2 be d5 d6 00 be
       0.014522111 -0.08367307 -0.31703696 -0.12581952
000120 76 87 da bc d4 68 36 3e 2c 45 a5 bd 69 5a e0 bd
       -0.026675921 0.17813426 -0.08069834 -0.10954744
000130 38 6d a3 bd 78 9f 89 be af dc 15 be d4 5d 37 be
       -0.07979816 -0.26879478 -0.14634965 -0.17906886
000140 40 d4 78 be 4e 39 c6 3d eb 62 0b be 23 e8 52 be
       -0.24299717 0.09678899 -0.13611953 -0.20596366
000150 6e 25 8a bc a2 97 27 bd 77 68 ac bd a2 91 7e 3e
       -0.016863551 -0.040916093 -0.084183626 0.24860242
000160 64 18 b0 bd 05 b6 a2 38 1f 90 92 3d 5f 04 15 be
       -0.08598402 7.758666e-05 0.07156395 -0.14552449
000170 b9 bf 26 bd 87 ff 68 3d 92 dd 04 3e d2 9e a8 bd
       -0.040710185 0.056884315 0.12975147 -0.082334176
000180 d0 1f 29 3d ec 36 59 bd d5 d3 2d be 0f 6e 33 bc
       0.041290104 -0.053030893 -0.16975339 -0.010951533
000190 48 aa ea 3d ed 08 d8 3d e7 9c 70 3b 71 07 45 3e
       0.1145826 0.105485775 0.0036714615 0.1924112
0001a0 eb 8e 96 3d f5 7e fd bc e2 a4 ef bd 7d 2e ef 3c
       0.07351478 -0.030944327 -0.11701371 0.029196972
0001b0 7b 77 ce bb 42 30 ca 3d 34 b8 b8 3c ea e0 e4 bd
       -0.0063008643 0.09872486 0.022548772 -0.111757115
0001c0 77 c3 b6 bd 74 18 63 bc b9 02 f6 bd ff 61 69 bb
       -0.08924001 -0.013860811 -0.12012238 -0.0035611389
0001d0 8d 80 60 3d 29 b2 1a 3e 4d 90 30 be 9f e7 61 3d
       0.054810096 0.15107025 -0.17242546 0.05515253
0001e0 40 13 18 3e bb be ff bc ce 6e c6 bd 15 b8 eb bc
       0.14851093 -0.031218877 -0.09689103 -0.0287743
0001f0 a5 35 80 3d 8f 9d ab 3b 35 62 cc 3c 8c fd a3 bd
       0.06260232 0.0052372883 0.024949173 -0.080073446
000200 bf 5f 63 bc e9 13 22 be fd cb 70 bc a0 f0 52 bd
       -0.013877808 -0.15827908 -0.014697072 -0.05149901
000210 83 53 47 bd 8a 35 6b bd a9 ed 16 3e 10 bd e7 bd
       -0.048663627 -0.057424106 0.14739098 -0.11315358
000220 ce f3 a3 bd 2d 2a c3 bd 18 4f d7 bd f3 76 0d 3d
       -0.080054864 -0.09529529 -0.10513133 0.034537267
000230 ef 32 04 bd b7 03 86 3d 99 29 cb 3c 55 1f 90 3d
       -0.032275137 0.06543677 0.024800109 0.07037226
000240 eb 54 a5 bd 35 a4 84 3d bf bc b1 3d 3e 6e 32 3e
       -0.080728374 0.064766325 0.086785786 0.17424867
000250 f7 7d 8e 3c 20 54 31 3d be 3f 68 3d 37 ff 13 bd
       0.01739405 0.04329312 0.056701414 -0.036132064
000260 42 78 cb bc da 9c 37 3d 2e 2c f8 3d d5 0e 79 3e
       -0.024837617 0.04482732 0.121178016 0.24322064
000270 56 6d 6d bd fe 21 e7 3c c8 d4 14 bb d0 ab f6 3d
       -0.0579656 0.02821445 -0.0022709835 0.120444894
000280 71 6b 58 bd 66 35 d7 bd 8e 47 9f 3d 1c 02 43 be
       -0.05283684 -0.10508232 0.0777732 -0.19043773
000290 2d 4c c2 3c 85 65 36 3e 83 4a a0 3e de 90 9b 3d
       0.023717964 0.17812164 0.31306848 0.075959906
0002a0 ab 66 20 be f6 7e 70 3d 59 6d 59 bd 74 97 15 3e
       -0.15664165 0.05871483 -0.053082798 0.14608556
0002b0 9b a4 29 bd aa 89 d7 3d 7f f1 a4 bd f6 b8 cf bd
       -0.041416746 0.10524304 -0.08053874 -0.101427004
0002c0 97 b0 1d 3e a1 71 d0 3d 89 a2 56 3d 95 1c 6e be
       0.15399395 0.10177923 0.0524011 -0.2325309
0002d0 da 31 ae 3e 0f da e4 bd 1d b5 8d 3e 56 49 82 3d
       0.3402241 -0.11174404 0.2767724 0.06361644
0002e0 b3 59 2f 3e ea 70 e3 3d 91 6d 1e be 17 02 93 3e
       0.17124061 0.11105521 -0.15471484 0.28712532
0002f0 09 a9 bf bd 25 c0 4a be 92 e8 8f be a1 89 22 3e
       -0.09358413 -0.1979986 -0.28107125 0.15872814
000300 f3 52 3c bd f8 74 a3 bd 1e d7 d1 3c bb 40 ad bd
       -0.045977544 -0.079812944 0.025615271 -0.08459612
000310 43 ec 0b 3e 8d 24 6c bc 87 b1 3c 3c ff 09 05 3d
       0.13664345 -0.014413011 0.011516935 0.032480236
000320 7b a5 64 3e 39 e9 9b bd c6 89 07 be 88 1c 27 be
       0.22328751 -0.07612843 -0.1323615 -0.16319478
000330 43 e5 70 bc 3c e7 f6 3d 4b bd cc 3d 85 3f 98 3d
       -0.014703098 0.12055823 0.09997042 0.074339904
000340 b7 07 f2 bd 2a 53 1c be e2 32 88 be 14 02 03 be
       -0.11817878 -0.152661 -0.2660132 -0.12793761
000350 4d 03 96 bd ea a5 81 bc 73 0d b4 3d ad 31 e4 3c
       -0.07324848 -0.015826184 0.08791628 0.027855719
000360 73 51 1b 3e 9e 53 85 bd c2 a7 06 bb f0 b7 9c bd
       0.15167789 -0.06510089 -0.0020546769 -0.07652271
000370 05 22 d4 bd 5b 87 7a 3d 5b c2 95 bc ae 6e 44 be
       -0.10358051 0.06116424 -0.018281152 -0.19182846
000380 46 48 d7 3d 94 ca 1d 3e 1f da a5 bd 63 2e ed bd
       0.10511832 0.15409309 -0.08098244 -0.11581113
000390 a0 ea 05 3e ad 5a f1 bd 79 3d 28 be 96 a5 44 3e
       0.13077784 -0.11784873 -0.164297 0.19203791
0003a0 60 43 15 3d d3 d6 04 be 97 cb b6 bd 2c 4e 90 3d
       0.036441207 -0.12972574 -0.089255504 0.0704616
0003b0 92 e2 00 be f1 70 cd bd 5b 8d 7e 3e 58 1f 54 bc
       -0.1258643 -0.100313075 0.2485861 -0.012946926
0003c0 a6 91 2d be 02 3f 92 3a f4 7c ca 3d df 4f c1 bc
       -0.16950092 0.0011157694 0.09887114 -0.023597656
0003d0 28 56 ca 3d 7c 7d a3 ba bb 1c 92 3b 7f 5d 83 ba
       0.09879714 -0.001247331 0.0044589913 -0.0010022371
0003e0 35 73 5e be 0e 5f 09 be 57 ed 75 bd e0 bb 3c be
       -0.21723635 -0.13415167 -0.060040798 -0.18431044
0003f0 92 fd 56 bd 12 70 54 3d 6f 4c a6 3e 5e 3a 01 be
       -0.052487917 0.05186469 0.3248019 -0.12619922

MLP.2.bias f4 [64]
000000 a4 6d 00 3d 70 c9 79 bd ec 16 82 3d 95 90 83 bd
       0.03135456 -0.06098312 0.06352028 -0.06424061
000010 05 0d 44 3d 9c 01 2d 3d 41 13 7f bd a0 25 96 bd
       0.04786398 0.042237863 -0.06227422 -0.07331395
000020 30 52 92 bd ad c6 99 bd ef cb 90 bd 37 e4 71 bd
       -0.07144582 -0.075085975 -0.07070147 -0.059055533
000030 1a 08 30 3d b1 73 c9 bd 04 55 89 3d 27 7a 73 3d
       0.042976476 -0.098365195 0.067056686 0.059442665
000040 1f a2 80 bd 53 61 78 bd 1b 05 06 3d d8 3e 71 bd
       -0.06280922 -0.06063969 0.032719713 -0.058897823
000050 45 8e 54 3d 32 b0 bd bd 9d 57 81 bd 36 73 8d 3d
       0.05189349 -0.09262122 -0.06315539 0.0690674
000060 74 88 70 bd 15 3d 19 3d cb 62 69 3d a8 1f 97 bd
       -0.05872388 0.037411768 0.056978982 -0.07379085
000070 0c 1a ac bd 4a c5 78 bd a8 e7 94 bd 81 87 25 be
       -0.084034055 -0.060735025 -0.072707474 -0.16164972
000080 d1 ea 5a bd 2e 47 85 bd 81 63 81 3d 43 21 95 bd
       -0.053446595 -0.06507717 0.06317807 -0.07281735
000090 ba 4b 4b bd a3 54 8a bd ec d4 8e 3d 8d 2c d3 3c
       -0.049632765 -0.067544244 0.069742054 0.02577808
0000a0 f4 35 a8 bd c3 a2 06 3d 67 1d 85 bd db e0 43 3b
       -0.08213416 0.032870065 -0.06499749 0.0029888663
0000b0 80 19 4d 3d e4 8d 7f 3d 4b 6e 09 3d 56 bd 40 3d
       0.050073147 0.062391177 0.03355245 0.047055565
0000c0 e1 ef 30 bc 1a 0f 9f bd e7 e6 87 bd 73 51 35 3d
       -0.010799379 -0.07766552 -0.06635838 0.04426713
0000d0 1e 0f 81 bd a9 8d 3a bb a6 12 e0 3b 9d 3d 2b 3d
       -0.063017115 -0.0028465784 0.0068381606 0.041806806
0000e0 43 52 85 bd 59 e6 a0 bd de 72 1d be d0 10 7d bd
       -0.06509831 -0.07856435 -0.1537585 -0.06178361
0000f0 af 3d 77 3d 0c 1e c6 bc d9 97 4d bd 8a bc ac 3a
       0.06036156 -0.02418425 -0.05019364 0.0013178748

MLP.4.weight f4 [1, 64]
000000 eb ef 4b 3d 5f 7b c9 bd b3 7a 1b 3e ef c2 eb bd
       0.04978935 -0.09837984 0.15183525 -0.1151179
000010 f5 a5 b9 3d a0 48 f8 3c a3 c0 0b be 0c 94 11 3d
       0.09064857 0.030308068 -0.13647704 0.03554158
000020 80 77 9a 3d bb c2 98 3c 58 1f 9c be 2b 71 13 3d
       0.07542324 0.018647542 -0.30492663 0.035996597
000030 ee 6a 27 3e d1 34 d2 bd 9f cf 5b 3e ca 63 d6 3d
       0.16349384 -0.1026398 0.2146592 0.10468252
000040 61 e0 4d 3d 3e fa 2f 3d 51 4b 43 3e 3b 47 c4 3b
       0.050262813 0.04296326 0.190717 0.0059899366
000050 8e 7a 89 3d 45 bb 27 3d ea c9 a1 bc 20 32 79 3e
       0.067128286 0.04095008 -0.0197496 0.24335527
000060 be a8 bd bd 79 6f 07 be e2 f1 14 3e 14 58 d0 bd
       -0.09260701 -0.13226117 0.14545396 -0.101730496
000070 76 d6 59 3c 0f dd e2 bd 61 6f 31 be 49 40 5b bc
       0.01329576 -0.1107732 -0.17327644 -0.013382026
000080 13 39 9d bd 68 59 53 bd a6 89 23 3e ab 3c 3e be
       -0.07676902 -0.051598936 0.15970477 -0.1857783
000090 48 f1 a7 bd 56 cf 92 3d b8 f6 85 3e 57 61 59 3d
       -0.082003176 0.071684524 0.26164794 0.053071346
0000a0 67 1e 53 bd a7 ea f4 bc 55 58 27 be 25 7b c3 3d
       -0.051542666 -0.029897047 -0.1634229 0.09544972
0000b0 be f8 13 3e bc 40 f2 3d d8 e7 38 be 03 e6 06 3e
       0.14450356 0.11828753 -0.18057191 0.1317368
0000c0 fb e0 7d bb 47 49 c7 bd b8 11 22 be 1a 67 59 3d
       -0.0038738835 -0.097307734 -0.15827072 0.05307684
0000d0 7e 70 08 be c2 da 83 3d 85 74 51 3d 65 61 00 3e
       -0.13324162 0.06438209 0.051136512 0.12537153
0000e0 e5 be 85 3d e6 ba cc bd 66 06 4b be 8f dd 76 bd
       0.06530551 -0.099965855 -0.1982666 -0.06026989
0000f0 b9 15 e0 3d 3c aa c7 3c 7e 5c 83 bd 04 03 70 bc
       0.10941643 0.024373166 -0.06414126 -0.0146491565
