new_ver1/test_7_8_3.pth (torch, 20646 bytes, 5 tensors)

MLP.0.weight f4 [64, 3]
00000000: f526 38be dade 9cb9 4d05 b83e 6285 fa3d
00000010: dd7a 243a 33ef fd3d 6f00 eebc 5a38 893b
00000020: a9dd b3bd c640 c8bd ca07 a03b 3fae fcbd
00000030: 5c1c 763e 9821 41bd 6c42 403e c03f 5ebd
00000040: becb ef3d e71f f0bd ef97 4bbe 1f86 82bd
00000050: 454d 37bd 28dc 103d fc97 27be 81c3 d0bd
00000060: 6a2f f63c 71e4 90bd e3bf 0b3e 98b6 80bd
00000070: b7d6 3ebd 2999 66bd 0eff 81be c6b8 a13b
00000080: 6c00 aa3c dadc c6bd 8e27 b7bd 8f16 0dbe
00000090: b1ac 813c 89b6 59bd 89b0 1abb 9d28 0ebe
000000a0: 180c 2b3a e45b afbd 71d5 7fbd 92ea a6bd
000000b0: 0667 edbd ae45 67be 808f d43b 244d ad3c
000000c0: aaa4 abbd 2cf2 6a3e 3769 663d dffa 6fbe
000000d0: 92c0 6abc 66a9 01be 027a 113e 3dfd 423d
000000e0: f93f 123b 68c4 0fbe c9a5 4e3c b195 513c
000000f0: bf8a 513c e2ab 72be 3fa7 0a3e b59f 52be
00000100: 66fe 98bc 876a 23be 07dc ecbd 9962 f3bb
00000110: 4445 9c3d a898 28bd 817e 72bd db76 d5bd
00000120: 42ea 153e c6bf a5bd 62fc 4e3d 9d56 bfbd
00000130: d24b 923d da39 353e 373a dd3d 8528 373e
00000140: 6ab2 103e 059a 53be 610b a33d ba93 3b3d
00000150: e754 763e 5ec3 1dbe 324e 1b3d eaab f3bd
00000160: 3150 173d afbd 2bbe 47d2 dcbd fa60 9a3c
00000170: eafd 573e fefe b7bd db90 94bc 8d56 033e
00000180: aa0e 09be fa7d 3c3e 216e 023c ab01 66be
00000190: 7306 d33a b0b7 d0bc 8701 653a db1c 03be
000001a0: 00c8 dc3c 9e63 b6be a0c4 243e 4e50 b23c
000001b0: 8b80 20be 3312 8bbd a214 13be 4d1a 9a3e
000001c0: 24ce 58bd ff1d 293e f8b2 12be d866 1b3d
000001d0: be69 57be 186e 553e 8fc5 833d b650 013e
000001e0: fb91 063e d041 9c3b 6c37 ed3d 176e 98be
000001f0: 6324 73bd d386 f8bc ada6 da3d 24a7 4a3c
00000200: 4f2a 3b3e 3ceb 873d 6718 853d f9ed f93d
00000210: 38be d5bc 6352 6ebd e8e3 3bbe 5f0b 63bd
00000220: 93ac 153d 0fc1 113e a793 07be 5d59 4abb
00000230: c7d5 f73d 2ea3 c9bc ec23 0dbc c438 1a3e
00000240: 9eb4 183e c6d4 fe3d 8844 373e 5694 b6bc
00000250: 5acd 413b f961 32be 22ef 163e ec7b 013e
00000260: c8d7 49bd c0f4 41be 5a0a 96bd abab e6bd
00000270: 5f67 0e3e ed76 173d a801 1d3e a52a 78bd
00000280: 591c f93d 2e28 c93a 0252 673d 8f78 dcbd
00000290: ad1a 1f3e 1510 963e 3b51 f1bd 7763 0d3c
000002a0: e11a 953e bb88 fc3c d285 113e 7e70 9d3d
000002b0: 4872 363d 9600 893d 446b 243d cf03 80be
000002c0: 9e38 d33d 0d17 f3bd 9e1c 07bd 305a 5b3d
000002d0: 9db4 cb3d e9db dabb 215e 063e 1266 043e
000002e0: fc65 003e c4f0 04bd b7c2 5cbd af3c 3bbd
000002f0: 451a bc3c d81e d9bc b138 04be e036 7f3e
-0.17983611 -0.00029920676 0.35941544 0.12232472 0.00062744116 0.12399139 -0.029052941 0.004187626
-0.08782513 -0.097779796 0.004883741 -0.12337922 0.24034256 -0.047151178 0.18775338 -0.054260015
0.117087826 -0.11724835 -0.19882177 -0.06373238 -0.044751424 0.035366207 -0.16366571 -0.101935394
0.030051906 -0.07074822 0.13647418 -0.06284827 -0.046591487 -0.05629841 -0.25389904 0.004935357
0.020752154 -0.09710093 -0.08943091 -0.13778137 0.015829416 -0.053152595 -0.0023603758 -0.1388268
0.00065249344 -0.085624486 -0.062459413 -0.081502095 -0.11591916 -0.22585174 0.006486833 0.021154948
-0.083810166 0.22943944 0.056252684 -0.23435543 -0.014328139 -0.12662277 0.14206699 0.047604788
0.0022315963 -0.14039767 0.012612768 0.012792037 0.012789427 -0.2369838 0.13540362 -0.20568736
-0.018675994 -0.15958606 -0.115654044 -0.0074275252 0.07630399 -0.04116121 -0.059202675 -0.104230605
0.14640144 -0.080932185 0.05053366 -0.09342692 0.07143368 0.1769785 0.10802119 0.1788655
0.1413056 -0.20664223 0.07961155 0.04579518 0.24055825 -0.15406558 0.03791637 -0.118980244
0.03694171 -0.16771577 -0.10782295 0.01884507 0.21092954 -0.08984183 -0.018135479 0.12825985
-0.133845 0.18407431 0.007960827 -0.22461574 0.0016099944 -0.025478214 0.00087358843 -0.12803976
0.026950836 -0.35622877 0.16090631 0.021766808 -0.15674035 -0.067905806 -0.1436334 0.3009819
-0.052930966 0.16515349 -0.14326084 0.037939876 -0.21036431 0.20842779 0.06434166 0.12628445
0.13141625 0.0047685876 0.115828365 -0.29771492 -0.059360873 -0.030337727 0.10676322 0.012368951
0.18277858 0.06636664 0.06498795 0.12203593 -0.02609168 -0.05818404 -0.18348658 -0.055430766
0.036541533 0.14233802 -0.13239919 -0.0030876019 0.12101322 -0.024613943 -0.0086145215 0.15060717
0.1491265 0.12442927 0.17897236 -0.022287529 0.0029571862 -0.17420186 0.1473966 0.12644929
-0.04927805 -0.18941021 -0.07326193 -0.11263212 0.1390662 0.03697865 0.15332663 -0.060587544
0.1216361 0.0015347057 0.056474693 -0.10765182 0.1553752 0.29309145 -0.117830716 0.008629671
0.2912207 0.030826917 0.14211205 0.07687472 0.04454258 0.06689565 0.04014136 -0.25002906
0.10313533 -0.11869631 -0.032986276 0.053552806 0.099465586 -0.0066790474 0.13121845 0.12929562
0.12538904 -0.032456174 -0.053896632 -0.04571217 0.022961745 -0.026503965 -0.12912251 0.24923277

MLP.0.bias f4 [64]
00000000: 59ed e23d 7ce9 85bd dfee 10bd a446 5abc
00000010: 73ce b23c 3b1b fc3c a9e5 25bb 1cb8 90bd
00000020: 0481 50bd 5ce6 acbd 9c00 06bb d974 6bbb
00000030: bc1b fcbc 307d 37bb 28d2 e339 050a afbb
00000040: 56fd 85bc 39ca 84bc 3f4f 3abc 85c0 c9bc
00000050: a889 abbd 5a22 503c 7343 c73d 056b 47bd
00000060: 6a2b 4fbd e68f 063e 30db d33c 062d 6bbd
00000070: e471 d4bd 5f41 b1bd 9f7b 90bd bd7d 03bd
00000080: 275e 053e 4c99 fc3d 9357 72bd 197d a43c
00000090: 96fc 433c c71c ce3c a08d 87bd 98ab 803c
000000a0: f42e 71bd b00b 6ebd 09f9 a3bd 244f 673b
000000b0: d3ff 89bd f304 be3c 4d50 c73d 50d6 abbd
000000c0: 4c0c c3bb d3b4 d6bd f8bd da3b aa38 a23a
000000d0: 9a00 82bc a962 babd a632 0ebd e4bb a9bc
000000e0: 0631 003d 8a72 9bbd 14cc 82bd a345 56bd
000000f0: 7b8b acbd 9fd8 8ebb 6ce4 9fbd 993a 21bd
0.11080427 -0.06538674 -0.035384055 -0.013322506 0.021826958 0.030774703 -0.002531389 -0.07066366
-0.05090429 -0.08442375 -0.002044714 -0.00359278 -0.030774944 -0.0027998202 0.00043453393 -0.0053417706
-0.016356152 -0.016209709 -0.011371433 -0.024627933 -0.08375865 0.012703503 0.09729662 -0.048686046
-0.050578512 0.1314083 0.025861353 -0.057415985 -0.103732854 -0.08655047 -0.07054829 -0.032102335
0.13024198 0.123339266 -0.05916555 0.020079182 0.011962077 0.025160206 -0.0661881 0.015706822
-0.05888267 -0.058116615 -0.08006484 0.0035294974 -0.06738248 0.02319572 0.09732113 -0.08390486
-0.0059523936 -0.10483708 0.006675478 0.0012376506 -0.015869427 -0.09100849 -0.03471627 -0.020719476
0.031296752 -0.07590206 -0.06386581 -0.052312505 -0.08425041 -0.0043593193 -0.0780724 -0.039362524

MLP.2.weight f4 [64, 64]
00000000: b3cf 533d 95d9 dabd c7c9 e6bd 2421 f5bd
00000010: fb6b 19be 2d9f 813e 8c21 333e e81b 8bbe
00000020: 63fb c2bd 35c9 41bd 9ad1 d23d 0cb8 823d
00000030: 4837 80bd 9514 8d3e f9b7 253e 47fa f83d
00000040: 6283 55be 44bf c1bd ecc4 43be ea24 d3bc
00000050: 9ae0 5ebe 1370 41bc 16e5 663d f53b c3bd
00000060: 4696 35be 7c0c 423e c1c3 363c 6ea9 81bd
00000070: aed0 98be 35ec 6ebe 8840 19be 9337 39bd
00000080: 9b4c b03b 1cf2 aa3d 1fd0 9bbd ccf2 6e3e
00000090: 4863 323d e621 b6bd c0c3 29bc c1de 49bd
000000a0: 6816 943d 30ee b5bd c00a c3bd a5e4 663b
000000b0: 7d43 6ebe 2ce9 303d a513 423d d425 113e
000000c0: 7a96 7ebd c595 fb3d c5fa e8bd 60d8 dbbc
000000d0: 0829 e4bd 3684 30be 26a1 e43b fee6 443d
000000e0: ad60 87be c072 13bd bd11 a9bd 03c7 79be
000000f0: 85b8 253d b5fc 21bd 5982 9ebd 6a85 9bbd
00000100: ec41 a23e 3da2 16be 9051 e23c 576c b53c
00000110: e3df 293d bafd d7bd 227c 2c3e b58b d1bd
00000120: 0956 bd3b 7bf9 48be 5816 37bd 3ede f2bc
00000130: 2f28 4fbe 1adb b1bc a823 833e 5c65 d9bc
00000140: 68d9 703d dc43 873d 42a8 623b a4fd 90bc
00000150: b679 333c 348b 89bc 9afb 2e3e 5e53 473d
00000160: cc00 56bd dddb 063e f33a 0fbd b2a0 70bc
00000170: 5a24 9ebd 2a06 e9bd b799 a4bd 4956 693d
00000180: 06e0 083e e37e 6cbd 4f50 12be ba94 353e
00000190: a0a6 05be 3635 573c 9f40 38ba 34a0 c9bd
000001a0: 51e3 47be c1a8 61bb 466d 1dbd dffb 1dbe
000001b0: 7232 39be 93f4 33be 73d8 be3d 7f3e 1bbe
000001c0: e5a4 4bbe bb7d c23d f954 88be cfb9 393e
000001d0: ff28 e13c b581 88be 3d8c aabc b914 9f3d
000001e0: e3db 8cbc 1ac3 98bd e1e3 5dbe 54a1 ed3d
000001f0: 495f a4bd 85af 9f3d 2c72 0bbe 8a68 933d
00000200: a570 ccbd 4a84 4e3d 6c34 df3b d393 8b3d
00000210: f132 e33d 5722 263e 8471 8fba f9ec 82bd
00000220: dd99 a33d 5c55 213e 5186 99be 7a8d 25be
00000230: 94ec 9f3d 4670 2abe e6ca 5bbd 8f2a 1c3e
00000240: ad6f 693d 7207 a6be 4501 153e 72bc a53c
00000250: aa26 fdbd 1414 41bd 7b2c e53d cdc4 5a3b
00000260: f678 adbd abd5 bdbd 8143 94bd 3d71 a23d
00000270: 8f3c 433e 792b 5c3c ce71 013e ad39 24be
00000280: 4289 9f3b 9800 babd bb22 c53d b793 ecbc
00000290: 8510 53be 0098 283e 0a64 98bd dd0f 1d3d
000002a0: f786 8a3c 2965 fe3d b387 353e 4332 3b3d
000002b0: f863 083d 71a7 d23c 15d7 9ebd 8d6c 8ebd
000002c0: 87af 10be ce53 be3d b417 e03d c6d6 32be
000002d0: 8dbd 983a 8341 123e 193b 0fbe c35e 223d
000002e0: 803c 6d3d d92d e13d d7ef 753e d953 f9bb
000002f0: 9f7d 4c3d ad6f 833e 284a a8bc b317 82bd
00000300: 1edc 6f3d 3260 493d c38a 103e 6604 393c
00000310: 77f4 88bd ed10 ddbd d374 163e de53 f8bd
00000320: f43c 4ebe a8d1 1dbe d4b7 b73c 5264 db3b
00000330: f4b9 f33d ce86 0f3e 43f9 1d3d dee2 d03d
00000340: 0043 00be 3496 003e 4beb 5c3d e4e1 0f3d
00000350: 9c73 08bd 5a84 ed3d ba95 36bd 2d06 14be
00000360: 72e8 84be 079d 01bc 1173 d8bd bf92 f7bd
00000370: be45 40be 199d 2b3e 1971 613b 10cd c73d
00000380: 8c17 c83d 7914 a43e 60f6 bdbd e308 03be
00000390: d7ff ad3d 9d05 153c 5f34 063d 2d10 d9bc
000003a0: f06c e6bd 0de0 c73d e18b 793d 1f0a e1bd
000003b0: 5815 aa3d 118c 6d3d a347 6b3d 5ba6 4fbd
000003c0: d10f 353b e2d6 a9bd eeba 69bd dc23 473d
000003d0: bb98 08be 7f0c e2bd c23a 44bc 4154 0dbe
000003e0: 5a6e 5bbd 764c f3bd ec1c 8abd 3c01 d4bd
000003f0: d3de 12bc e264 0ebe a8c6 4abd 5d13 b4bd
0.05171175 -0.10686032 -0.11268955 -0.11969212 -0.14982598 0.25316754 0.17493266 -0.27169728
-0.095206045 -0.047311027 0.102938846 0.063827604 -0.06260544 0.27554765 0.16183461 0.121571116
-0.208509 -0.09460309 -0.19118088 -0.025774438 -0.21765366 -0.011806506 0.056370817 -0.0953292
-0.17733106 0.18950075 0.01115507 -0.06331144 -0.2984671 -0.23332293 -0.14966023 -0.045219015
0.005380226 0.0834696 -0.07608055 0.23334807 0.043551713 -0.08893184 -0.010361612 -0.0492847
0.07230836 -0.08883321 -0.09523535 0.0035231498 -0.23267932 0.04319112 0.047382016 0.14174587
-0.062155224 0.12284426 -0.113759555 -0.026836574 -0.111406386 -0.17237934 0.006977218 0.048071854
-0.26440945 -0.035998106 -0.082553364 -0.24392323 0.040459175 -0.03954764 -0.077397056 -0.07593806
0.3169092 -0.14710326 0.027626783 0.022146387 0.04147328 -0.105464414 0.16844228 -0.10231725
0.0057780785 -0.19626419 -0.044699043 -0.029646989 -0.20230173 -0.021710921 0.2561314 -0.02653759
0.058801085 0.0660474 0.0034585153 -0.01769907 0.010954311 -0.01679001 0.17088166 0.04866349
-0.052246854 0.13169809 -0.034968328 -0.01468675 -0.07721777 -0.11378129 -0.08037131 0.056967054
0.13366708 -0.057738196 -0.14288448 0.17732516 -0.13051844 0.013135245 -0.0007028672 -0.098450094
-0.19520308 -0.003443286 -0.03843429 -0.15428112 -0.1808565 -0.17573766 0.09318628 -0.15160559
-0.19887121 0.094966374 -0.2662733 0.18137287 0.027485369 -0.2666146 -0.020818824 0.077676244
-0.017194694 -0.07459088 -0.2166896 0.116030365 -0.08025987 0.077971496 -0.13617772 0.071976736
-0.09982423 0.05041913 0.006811669 0.068153046 0.11093701 0.16224037 -0.0010943864 -0.06392855
0.079883315 0.15755218 -0.29985288 -0.1616725 0.078087956 -0.16644391 -0.053660296 0.1525061
0.056991268 -0.32427555 0.14551266 0.02023146 -0.1236089 -0.04713829 0.111901246 0.0033381463
-0.08470337 -0.092692696 -0.07239438 0.07931755 0.1906607 0.013438099 0.1264107 -0.16037627
0.0048686573 -0.090821445 0.09625765 -0.02887903 -0.2061177 0.16464233 -0.07440956 0.038345207
0.01691006 0.124216385 0.17727546 0.04570223 0.033298463 0.025714608 -0.077558674 -0.06954298
-0.14129458 0.09293328 0.10942021 -0.17464742 0.001165317 0.14282803 -0.13987388 0.039641153
0.057919025 0.10995073 0.24017273 -0.0076088724 0.04992449 0.2567114 -0.020543173 -0.063521765
0.05855953 0.049164005 0.14115433 0.011292553 -0.06687253 -0.10794244 0.14693002 -0.121253714
-0.2014044 -0.15412009 0.022426523 0.0066953087 0.11900702 0.14016268 0.038567793 0.101995215
-0.12525558 0.12557298 0.05393533 0.035127535 -0.03331338 0.1159751 -0.044576384 -0.14455481
-0.25958592 -0.007910973 -0.10568822 -0.120885365 -0.18776605 0.16759147 0.0034399687 0.097559094
0.09770116 0.3204687 -0.09275508 -0.12796359 0.08496063 0.009095577 0.03276479 -0.026496971
-0.11251247 0.09759531 0.060924415 -0.109882586 0.08304852 0.057994906 0.057441365 -0.05069576
0.0027627836 -0.08292939 -0.057063036 0.048618183 -0.13339512 -0.1103754 -0.0119769 -0.13801672
-0.053572036 -0.11879818 -0.06743798 -0.10351798 -0.008964258 -0.13905671 -0.04950586 -0.08792756

MLP.2.bias f4 [64]
00000000: 9c41 8ebd 0236 8ebd 30de 573d 7edb 7abd
00000010: 361d c43b 042a 88bd ea21 8bbb 60ee 7cbd
00000020: bb92 a5bd a055 3ebd b40d 6b3a ac9d ad3b
00000030: f949 713d 2745 6b3d 8692 513d 8d9f 84bd
00000040: dd47 82bd 6827 883c 27ee a6bd 99ea 55bd
00000050: 0c0a be3c 98f5 debc 2525 78bd 0d64 2b3d
00000060: c6a3 6d3d f89a 6b3d 51ce f63c 7c0b 883d
00000070: dfb8 b9bd 6a6b e9bc a80e 87bd 99a2 d5bd
00000080: f813 39bd e056 bd3c a481 a7bd ae83 183c
00000090: a9b6 0f3d c10c d0bd 8444 173c 9d10 2e3d
000000a0: f67d e43c 0f51 393d 4cf8 803d 9204 763d
000000b0: 3563 b83c 7aed 673d a9b1 79bd 170b 0c3d
000000c0: 5e29 6e3d b8ad 1f3d 0100 7ebd 868e 723d
000000d0: 319e b3bd 4fb6 dbbb ecaa 6b3d 7e6a d6bd
000000e0: 4993 a7bd 1e28 78bd 71f3 babd 4888 77bd
000000f0: ba26 78bd c2f7 923a 4314 8cbd 738b 3cbd
-0.06946108 -0.06943895 0.05270213 -0.06124448 0.0059849275 -0.06648639 -0.004245986 -0.06175077
-0.08084627 -0.046468377 0.00089665805 0.005298337 0.058908436 0.057438996 0.051165126 -0.064757444
-0.06361363 0.016620353 -0.08150893 -0.052225683 0.02319815 -0.027216718 -0.0605823 0.041843463
0.058017515 0.057520837 0.030127676 0.066428155 -0.090684645 -0.028493602 -0.06594592 -0.10431404
-0.04518506 0.023112714 -0.08179024 0.009308739 0.035086308 -0.101586826 0.009232644 0.042496312
0.027892094 0.04524332 0.06297359 0.060062952 0.022508243 0.05662296 -0.060960446 0.034190264
0.05814492 0.03898403 -0.062011722 0.059217952 -0.08770407 -0.0067050825 0.05753605 -0.104695305
-0.08182389 -0.060585134 -0.09128464 -0.060432702 -0.060583808 0.0011212754 -0.06839802 -0.046031427

MLP.4.weight f4 [1, 64]
00000000: 07e5 8cbe 42df d63c 8d0a ce3d 911b c4bd
00000010: 6190 4b3e 62be 85be de00 8e3c 8c9b 8bbd
00000020: ae40 db3c aadf 833d 8e41 d03c 8585 f13b
00000030: 3853 183e d390 043e 6f6f 113e e7be 4e3c
00000040: 2326 45be 0ca3 1a3e 7b5d 55bd 94e5 c1bd
00000050: 0c43 413d d376 78bd 2a43 aabd 694a bf3d
00000060: 0277 763e f06d 0f3e e13f 2fbe 55db 843e
00000070: d0af 323c c0a9 843d c658 233c 0caf b8bd
00000080: 924c c03a acf2 8d3d bb7e 02bd 87ac 733d
00000090: 81c8 043e 1b78 54bc 5f5f 4c3d 4f08 bc3d
000000a0: b736 ab3d d29b 0a3e 3499 713e 0f15 143e
000000b0: f763 b13c f234 443e 69db 3cbe a14d 8d3d
000000c0: fc9d 083e 6034 703d 320a fbbd 760c d33d
000000d0: b60a 203d 4e04 7cbc 191b c13d 4ca9 18be
000000e0: c7df e5bd d941 18be 3630 793c f64a 9ebd
000000f0: 08d3 d1bd ae02 0a3d d11f 3dbc 9907 77bd
-0.27518484 0.026229504 0.10060606 -0.095755704 0.19879295 -0.26121813 0.017334398 -0.068167776
0.02676424 0.06439145 0.025421884 0.007370653 0.14875495 0.12945871 0.14202665 0.012618757
-0.19252829 0.1510126 -0.052091103 -0.09467617 0.04718308 -0.060660195 -0.08313592 0.093403645
0.24068835 0.14006782 -0.17114212 0.25948587 0.010906175 0.0647769 0.009969896 -0.090177625
0.0014671257 0.069310516 -0.03185914 0.059490707 0.12967111 -0.0129680885 0.04989564 0.09181272
0.083600454 0.13536003 0.23593599 0.14461158 0.021654112 0.19160822 -0.18443073 0.06899572
0.13341516 0.0586437 -0.12257804 0.10305111 0.039072715 -0.015381886 0.094289966 -0.14908332
-0.11224323 -0.14868869 0.015209248 -0.077291414 -0.10245329 0.03369396 -0.01154323 -0.06030998
