new_ver1/test_7_8_3_standard.pth (torch, 20646 bytes, 5 tensors)

MLP.0.weight f4 [64, 3]
0	0x3ec7d101	0.39026645
1	0x3e81ec01	0.2537537
2	0x3e9d68b6	0.3074395
3	0x3f0ca175	0.54933864
4	0x3de253e8	0.1105116
5	0x3e9acf9c	0.30236518
6	0x3dec1059	0.115265556
7	0x3e144162	0.14478067
8	0xbe77811a	-0.24170342
9	0x3d16acc9	0.036785875
10	0xbdb0c7f3	-0.08631887
11	0xbdb8e288	-0.090275824
12	0xbb8dff35	-0.0043334016
13	0x3ec96f30	0.39342642
14	0xbf4a164c	-0.7894027
15	0x3f07ba55	0.53018695
16	0xbc034238	-0.008011393
17	0x3f032189	0.51223046
18	0x3e980b77	0.29696247
19	0x3ee0b12e	0.43885177
20	0xbf2f8b2d	-0.6857174
21	0xbefbb4a5	-0.49161258
22	0xbe191a88	-0.14951527
23	0xbf24625e	-0.64212596
24	0x3f13a2a2	0.5767003
25	0xbcb7632c	-0.022386156
26	0x3e745103	0.23859029
27	0x3ed53e71	0.41649202
28	0xbeb6d5a0	-0.35709858
29	0x3e760002	0.2402344
30	0x3e173f79	0.14770307
31	0xbe11897d	-0.14212604
32	0xbe867bfd	-0.2626647
33	0xbeaf85c6	-0.3428175
34	0x3ed583ab	0.41702017
35	0x3ee4bbcb	0.44674525
36	0x3eeb49fd	0.45954886
37	0xbea5e939	-0.32404497
38	0xbebf15d8	-0.37321353
39	0x3ef82275	0.4846379
40	0xbd8557f4	-0.06510916
41	0x3cbdc1a1	0.023163619
42	0xbe18c1f7	-0.14917742
43	0xbeb00a75	-0.34382978
44	0x3f2cbbb2	0.674739
45	0x3f102d24	0.5631888
46	0xbce39135	-0.027779201
47	0x3e973bd8	0.29537845
48	0x3c466cfd	0.012110946
49	0xbe01c3c5	-0.12672336
50	0xbe5af900	-0.21384048
51	0xbed1ad3b	-0.40952477
52	0x3eff4b1d	0.49861994
53	0xbd9e2a8a	-0.077229574
54	0xbd46a15e	-0.048493735
55	0x3c0d526e	0.00862561
56	0x3e436c4c	0.1908428
57	0x3e8df79b	0.2772797
58	0x3d40634f	0.046969708
59	0xbe86df3b	-0.26342186
60	0x3f17abed	0.5924671
61	0xbced3cdd	-0.028959686
62	0x3e00f3ff	0.12593077
63	0x3e235b9a	0.15952912
64	0xbd8dc2b3	-0.069219016
65	0xbf0ffaf2	-0.5624229
66	0x3d9c4973	0.07631197
67	0xbe935bb6	-0.28780907
68	0x3d74a8c1	0.05973125
69	0xbee8ca7a	-0.45466977
70	0x3cc840fc	0.02444505
71	0x3df5a38d	0.119940855
72	0xbf07c055	-0.5302785
73	0x3edcbdfb	0.43113694
74	0x3e132546	0.14369687
75	0xbf08b85c	-0.5340631
76	0x3dd76594	0.10517421
77	0x3ed63be1	0.4184256
78	0xbf12f26b	-0.5740115
79	0xbee97e14	-0.45604002
80	0x3e85b385	0.26113525
81	0x3f1800ed	0.5937641
82	0xbd21fc8b	-0.039547484
83	0x3eff2e8e	0.49840206
84	0x3eb5d902	0.35517126
85	0x3edc6381	0.43044665
86	0x3dedcf95	0.11611859
87	0x3eb4eb9b	0.35336003
88	0x3d496df1	0.049177114
89	0xbf26d98c	-0.651757
90	0xbf0a9d11	-0.54145914
91	0x3eabbfb5	0.33544698
92	0x3e955ff1	0.2917476
93	0x3ee65801	0.44989017
94	0xbed22b7d	-0.41048804
95	0x3d26b022	0.040695317
96	0x3d3c0cb5	0.045910556
97	0xbe87d425	-0.2652904
98	0x3ec4ec55	0.38461557
99	0x3e942a84	0.28938687
100	0x3dacf44c	0.084450334
101	0xbe81be67	-0.25340578
102	0x3e787b7f	0.2426586
103	0x3e67ce3a	0.22637263
104	0x3ed23161	0.41053298
105	0xbe99aa38	-0.3001268
106	0xbaf906fb	-0.0018999273
107	0x3ee41427	0.44546625
108	0x3ee13c3a	0.43991262
109	0x398f0f1c	0.00027286343
110	0x3d51deae	0.051237755
111	0x3df81919	0.12114162
112	0x3c96dc43	0.018415576
113	0xbf6ef4b5	-0.93342143
114	0xbe809dd7	-0.25120422
115	0x3e2f84de	0.17140529
116	0xbe838138	-0.25684524
117	0x3e8aa517	0.2707908
118	0x3d8f646c	0.07001576
119	0x3e9886e5	0.29790416
120	0x3f4ceff9	0.8005367
121	0xbd213b28	-0.039363056
122	0x3ecca3dc	0.39968765
123	0x3be4ca63	0.006982134
124	0x3ef65e89	0.48119
125	0xbf01bca2	-0.50678456
126	0x3e49bd96	0.19701228
127	0x3ea1fff2	0.31640583
128	0x3db49446	0.088173434
129	0x3ef037ae	0.4691748
130	0x3d4644d4	0.048405483
131	0xbdbcaac7	-0.09212261
132	0x3f193f4b	0.598622
133	0xbec618d7	-0.38690826
134	0x3ed93e27	0.4243023
135	0xbee6f24c	-0.45106733
136	0x3dab078c	0.08351049
137	0xbf1aa94c	-0.60414577
138	0x3f2e05fc	0.6797788
139	0xbe80c116	-0.25147313
140	0xbd6ccb78	-0.05781123
141	0xbf3c8f5c	-0.7365625
142	0x3e402776	0.18765053
143	0xbe7e1768	-0.24813616
144	0xbe57da10	-0.21079278
145	0xbde2d691	-0.110760815
146	0xbeb9bed8	-0.36278415
147	0xbeb51a78	-0.35371757
148	0x3da83cc5	0.08214716
149	0xbe3c3629	-0.18380035
150	0xbeb0f248	-0.34559846
151	0x3ed608f0	0.41803694
152	0x3d9ebb71	0.07750595
153	0x3eab1b88	0.33419442
154	0xbe633123	-0.22186713
155	0x3f4af84e	0.7928513
156	0xbb83df31	-0.004024409
157	0xb8addc53	-8.2903214e-05
158	0x3f026207	0.5093083
159	0x3dd312dc	0.103063315
160	0xbeb1c194	-0.34718
161	0xbf160e4d	-0.5861557
162	0x3f3077c7	0.68932766
163	0x3ecc9974	0.39960825
164	0xbdf709b9	-0.12062401
165	0xbeeea3bd	-0.46609297
166	0x3dac9196	0.08426206
167	0xbe54242a	-0.2071692
168	0x3eee9112	0.46595055
169	0x3e17d78a	0.14828315
170	0x3e901022	0.28137308
171	0x3dd09a06	0.10185628
172	0x3c695686	0.01424182
173	0x3e5f3bb3	0.21800117
174	0xbee862ee	-0.45387977
175	0xbcfc1141	-0.030769946
176	0x3e883396	0.26601857
177	0xbee0df6b	-0.43920454
178	0x3ec49061	0.38391402
179	0x3e551146	0.2080737
180	0x3ef29f9e	0.47387403
181	0x3da35e31	0.0797695
182	0x3dcbd2b8	0.09952301
183	0xbe9e1a2b	-0.3087934
184	0x3d9474d5	0.072488464
185	0xbd8977f3	-0.067123316
186	0x3eefbfc6	0.46826
187	0x3e898b9d	0.2686433
188	0xbf0f804b	-0.56055135
189	0xbf208213	-0.6269848
190	0xbcf83809	-0.030300157
191	0xbe413bbd	-0.18870445

MLP.0.bias f4 [64]
0	0xbe41056e	-0.18849728
1	0xbebea250	-0.3723321
2	0xbe85965e	-0.26091284
3	0xbdcad14e	-0.09903203
4	0x3e6296d1	0.22127844
5	0xbd4967f7	-0.049171414
6	0xbf1059eb	-0.56387204
7	0x3efdc722	0.4956599
8	0xbf00b780	-0.5028
9	0xbe684f41	-0.22686483
10	0x3eba8e4e	0.36436695
11	0x3eaea2b3	0.34108505
12	0x3e8fab43	0.2806035
13	0xbd4a8cae	-0.04945057
14	0xbe8a29c7	-0.26985
15	0xbe00f26b	-0.12592475
16	0xbd8eaf8f	-0.06967079
17	0xbe881a72	-0.26582676
18	0xbcf09c16	-0.029371303
19	0x3eb6d24a	0.35707313
20	0xbdec1ce7	-0.1152895
21	0x3e6c984a	0.23104969
22	0xbd8aa8e0	-0.067704916
23	0xbe19bb51	-0.15012862
24	0xbdcb3a0a	-0.099231794
25	0xbe4ee970	-0.20206237
26	0xbd7238f9	-0.059136365
27	0xbc63cb8e	-0.013903512
28	0x3dddfe64	0.10839537
29	0xbefad6eb	-0.48992094
30	0x3e92a5b9	0.2864206
31	0xbe878129	-0.2646573
32	0xbdcca948	-0.09993225
33	0xbed4988e	-0.4152264
34	0x3e998866	0.29986876
35	0xbe938dd1	-0.28819135
36	0x3daf64c2	0.0856414
37	0x3d3e4a47	0.046457555
38	0x3ed3d678	0.41374564
39	0xbed3babc	-0.41353405
40	0xbe470d1b	-0.19438593
41	0xbefffb55	-0.4999644
42	0x3dbc18dd	0.0918443
43	0xbd2625fc	-0.04056357
44	0xbefe4da7	-0.4966862
45	0x3eb9eda6	0.36314124
46	0x3d5471cd	0.05186634
47	0xbc638af9	-0.013888114
48	0x3e533096	0.20624003
49	0x3e44c3f7	0.1921538
50	0x3ebd3f25	0.36962238
51	0xbeb51467	-0.35367128
52	0xbc59b893	-0.013288635
53	0x3eab7aec	0.3349222
54	0x3e3aa582	0.18227199
55	0x3e8ed7ef	0.2789912
56	0x3e92dd04	0.28684247
57	0x3d43174e	0.047629647
58	0x3eaeba79	0.34126642
59	0x3dfaf47b	0.12253662
60	0x3c8aadb6	0.016928535
61	0x3d8c8f1a	0.06863232
62	0x3dcfbe1c	0.10143682
63	0x3ef90485	0.4863626

MLP.2.weight f4 [64, 64]
0	0x3d434607	0.047674205
1	0xbdeacde8	-0.11465055
2	0x3d9fe66d	0.07807622
3	0x3e0fc03e	0.14038178
4	0x3cf75d39	0.03019582
5	0x3ed5ac4a	0.4173301
6	0xbe217d29	-0.15770401
7	0xbc476ab2	-0.012171434
8	0xbdc5470d	-0.096326925
9	0xbd2f13e6	-0.042743586
10	0xbd75695d	-0.059914935
11	0x3d6c5805	0.05770113
12	0xbd50c689	-0.050970588
13	0xbc908999	-0.017643737
14	0x3d130605	0.035894413
15	0xbd901685	-0.07035545
16	0xbd8d9cc0	-0.06914663
17	0xbd0d40ac	-0.034485504
18	0xbd4ddfe1	-0.050262336
19	0x3c8cdb0f	0.017194299
20	0x3eaacb79	0.33358362
21	0xbdc26f1c	-0.09493849
22	0x3d3e3c82	0.046444423
23	0xbc96e380	-0.018419027
24	0x3d86ab04	0.065755874
25	0xbd6e5da0	-0.058194757
26	0xbdb3ad47	-0.087732844
27	0xbda9c30e	-0.08289157
28	0xbe054dc4	-0.13017946
29	0x3cd40389	0.025880592
30	0x3c1e17cf	0.009649231
31	0x3cf0ef0f	0.029410867
32	0x3e173322	0.147656
33	0xbd2bcd41	-0.041943792
34	0xbde28027	-0.11059599
35	0x3cf69c7d	0.030103916
36	0xbdef2ff0	-0.11679065
37	0xbd75762a	-0.059927143
38	0xbda62f6c	-0.08114514
39	0x3c1b0cfd	0.009463546
40	0x3eb6e52c	0.3572172
41	0xbdcd0246	-0.10010199
42	0x3d900970	0.0703305
43	0x3d9a369d	0.07529948
44	0xbd11aad9	-0.035563324
45	0xbcd0f593	-0.025507724
46	0x3d7a645f	0.061130878
47	0x3d93cd8b	0.072169386
48	0x3c4346c5	0.011918728
49	0xbe1b3358	-0.15156305
50	0xbe00797f	-0.12546347
51	0xbcb6572d	-0.022258366
52	0x3ccb9f74	0.024856307
53	0xbdc58c1b	-0.096458636
54	0x3daeba90	0.08531678
55	0x3d80fd60	0.062983274
56	0xbdeed060	-0.11660838
57	0x3c7fd074	0.015613664
58	0x3d729e32	0.059232898
59	0xbd4fd9ec	-0.050744936
60	0xbdfeeb50	-0.12447226
61	0xbe0bf8e0	-0.13669157
62	0xbdad2dea	-0.08456023
63	0x3da4d055	0.08047549
64	0xbc7cd940	-0.015432656
65	0x3db8117b	0.08987709
66	0xbc47dca2	-0.012198599
67	0x3d5fb340	0.054614305
68	0xbcb7ddb8	-0.02244459
69	0x3e9a0e6a	0.30089122
70	0xbd0b8c5c	-0.034069404
71	0xbca53d07	-0.020170702
72	0x3e371876	0.17880425
73	0x3cc84c75	0.02445052
74	0xbd1c2491	-0.03812081
75	0xbdb2d9fb	-0.08732983
76	0x3e3a1b67	0.18174516
77	0x3e2d13dd	0.16902108
78	0xbd3bf63c	-0.045889124
79	0x3e82670b	0.2546924
80	0xbdb4b1ed	-0.08822999
81	0xbddf2c72	-0.10897149
82	0xbdcb3cd6	-0.09923713
83	0x3cfc8450	0.03082481
84	0x3e77910a	0.24176422
85	0xbd1795b2	-0.037007995
86	0x3cbb63e5	0.022874782
87	0x3c8bfe74	0.017089106
88	0xbd884a3a	-0.066547826
89	0xbc9d29e3	-0.019185012
90	0x3cb4e568	0.022082046
91	0x3dbbc493	0.09168353
92	0x3dfe91a9	0.12430126
93	0x3e1805d9	0.1484598
94	0xbe9c739d	-0.30556956
95	0x3d2f1233	0.042741966
96	0x3c147f17	0.009063504
97	0x3c9b14a1	0.018930735
98	0x3dc702d4	0.09717336
99	0xbe0f27bc	-0.13980001
100	0x3e1f916f	0.15582822
101	0x3d9037e4	0.0704191
102	0x3cd7b08c	0.026329301
103	0x3d968909	0.07350356
104	0x3e8dd6bc	0.27702892
105	0x3d98dcc5	0.074639834
106	0x3d325e22	0.043546803
107	0x3da49f3a	0.080381826
108	0x3c63041b	0.013855959
109	0x3d756cb6	0.059918128
110	0x3e9a4806	0.30133075
111	0xbd339341	-0.043841604
112	0x3d89d162	0.0672939
113	0xbe4d741c	-0.20063823
114	0x3d350262	0.044191726
115	0x3d7a45e4	0.06110181
116	0x3bddfd57	0.006774585
117	0x3cbc3385	0.022973785
118	0x3e423ac5	0.18967731
119	0xbd1ef7cc	-0.038810536
120	0x3e311126	0.17291698
121	0x3db05a86	0.08611016
122	0xbdeaada4	-0.114589006
123	0xbd34299a	-0.043984987
124	0x3de1848f	0.11011612
125	0x3c9bdfbd	0.019027585
126	0x3e259339	0.16169442
127	0xbe8837cd	-0.26605073
128	0x3dc5b9a7	0.09654551
129	0x3e5156a9	0.20443214
130	0x3c3416eb	0.010991792
131	0x3d6be6a2	0.057592995
132	0x3cce5153	0.025185263
133	0x3ec2cbc9	0.380461
134	0xbda2b026	-0.07943754
135	0xbe6707cf	-0.22561572
136	0x3dcd6704	0.10029414
137	0xbc96e306	-0.0184188
138	0x3c8b953e	0.017038938
139	0x3d3de95c	0.046365127
140	0x3d132eb7	0.035933223
141	0xbc4ae22a	-0.012383023
142	0xbdabf658	-0.08396596
143	0x3e105391	0.14094378
144	0xbd736bc8	-0.05942896
145	0xbddcfea7	-0.107907586
146	0x3d544cad	0.051830936
147	0xbdd181aa	-0.102298096
148	0x3b3d712c	0.0028906567
149	0xbdfbfbe4	-0.12303904
150	0xbdc0f3ef	-0.09421527
151	0x3da1de97	0.07903784
152	0xbde9d30a	-0.11417206
153	0xbd2d571e	-0.04231941
154	0x3caab267	0.020837022
155	0x3dbc339f	0.091895334
156	0x3c36f4c6	0.011166757
157	0xbe093000	-0.13397217
158	0xbd5a485d	-0.053291667
159	0x3dda457f	0.106577866
160	0x3d9dd89c	0.077073306
161	0xbd0bd044	-0.034134164
162	0x3dd65ec5	0.104672946
163	0x3e0566ee	0.13027546
164	0x3ba4ecd2	0.005033114
165	0xbe9afdbf	-0.30271718
166	0xbdf0af74	-0.11752215
167	0x3e0f82b4	0.14014703
168	0x3e8c8b5d	0.27450076
169	0xbc86d7fe	-0.016460415
170	0xbcf6c906	-0.030125152
171	0xbdf5cc4d	-0.12001858
172	0x3d1f1575	0.038838822
173	0xbbee2aa1	-0.0072682654
174	0x3dea4f67	0.11440926
175	0xbe0c172c	-0.13680714
176	0xbea78559	-0.32718924
177	0xbe5101b2	-0.20410803
178	0xbbf767b7	-0.0075502056
179	0x3deb0025	0.11474637
180	0x3e0f8f06	0.14019403
181	0x3dd185d9	0.102306075
182	0xbde55c46	-0.111992404
183	0xbe03b8f0	-0.12863517
184	0x3dc5daa1	0.09660841
185	0x3dba9de7	0.09112149
186	0xbaac941d	-0.00131667
187	0xbd21d5e5	-0.039510626
188	0x3cf899db	0.030346802
189	0x3e66c948	0.2253772
190	0x3d9562b9	0.072942205
191	0xbebb1ad9	-0.3654392
192	0x3c0fdd75	0.008780827
193	0xbdc1ec73	-0.09468927
194	0xbd1741b7	-0.036927905
195	0x3ccdb1cc	0.025109194
196	0xbddf9434	-0.109169394
197	0xbe83c502	-0.25736243
198	0x3e0d6b7b	0.13810532
199	0x3dbbf29c	0.091771334
200	0xbe3a73a2	-0.18208173
201	0x3c610d94	0.013736147
202	0x3d0c7419	0.034290407
203	0xbd80e4f0	-0.06293666
204	0xbe551e54	-0.2081235
205	0xbe9e8bf3	-0.30966148
206	0xbd683ac3	-0.056696665
207	0xbe4405f7	-0.191429
208	0x3d281bc2	0.041042097
209	0x3de330c8	0.11093289
210	0x3dd353d7	0.103187256
211	0x3d6824f7	0.056675877
212	0xbe09ce5f	-0.1345763
213	0xbe2418c2	-0.1602507
214	0x3dc83652	0.09775986
215	0x3dc8b5ba	0.098002866
216	0x3dab170f	0.083540075
217	0x3d29ab60	0.0414232
218	0x3d87c28e	0.06628905
219	0xbe3c95ab	-0.18416469
220	0xbe3c6d27	-0.18401013
221	0x3e0aa6b3	0.13540153
222	0x3c65a31b	0.014015938
223	0x3d97ba17	0.07408541
224	0x3df0b5fc	0.11753461
225	0x3da24395	0.079230465
226	0xbe0f5643	-0.1399775
227	0x3caf2e4d	0.021384383
228	0xbd94b550	-0.07261145
229	0x3cd3563c	0.025797956
230	0x3dd188c8	0.10231167
231	0x3dcc7b8d	0.09984503
232	0xbe83bdb5	-0.25730672
233	0xbabd715e	-0.0014453342
234	0xbe108acc	-0.14115447
235	0xbe5cdf44	-0.21569544
236	0xbdabfbb5	-0.08397619
237	0x3df151bf	0.1178317
238	0xbea1bb1a	-0.3158806
239	0x3dba0463	0.09082868
240	0xbc8280d6	-0.015930574
241	0xbc190acd	-0.009340954
242	0xba410cfc	-0.00073643005
243	0xbdd68bd1	-0.104758866
244	0xbdb2e4e5	-0.087350644
245	0xbd5e6371	-0.054294053
246	0xbd0e3701	-0.034720425
247	0x3dce1d8b	0.100642286
248	0xbde11e9d	-0.10992167
249	0xbd58299e	-0.052774064
250	0xbd41ff6a	-0.047362722
251	0x3dda8b9c	0.106711596
252	0xbdeb7e38	-0.11498684
253	0x3de428b7	0.11140578
254	0xbc11d558	-0.008900963
255	0x3e8ce190	0.2751584

MLP.2.bias f4 [64]
0	0xbe12de75	-0.14342673
1	0xbce0482c	-0.027378164
2	0x3cde52a3	0.027139014
3	0xbd7fca5a	-0.062448837
4	0xbd0e58cb	-0.03475265
5	0xbc3a518d	-0.011371982
6	0xbc0c1f48	-0.00855238
7	0xbc7a9083	-0.015293243
8	0xbd76f19d	-0.060289014
9	0x3d1622c7	0.03665426
10	0x3d616807	0.05503085
11	0x3d79c873	0.06098218
12	0x3da9ff05	0.08300594
13	0xbd348767	-0.044074442
14	0x3bbcfc85	0.0057674074
15	0xbd83710d	-0.06418047
16	0xbdebc976	-0.11513035
17	0xbd881fe3	-0.06646707
18	0xbe15056b	-0.14552848
19	0xbdba3ae0	-0.09093261
20	0x3bfc4c11	0.0076994975
21	0xbd4c3931	-0.04985923
22	0x3deb9726	0.11503439
23	0x3c9a1673	0.018809533
24	0xbe22c1b4	-0.15894204
25	0xbca715fe	-0.020396229
26	0xbd5307da	-0.05152116
27	0x3d64d085	0.055862922
28	0x3d8dd6e3	0.06925752
29	0x3d6e79ae	0.05822151
30	0xbe1b0dc9	-0.15141977
31	0x3d96f60a	0.07371147
32	0xbd9bcdde	-0.076076254
33	0xbe066dc5	-0.13127811
34	0x3d0a18e4	0.033715144
35	0xbda3cb46	-0.07997756
36	0xbc7c373e	-0.01539403
37	0x3d93b4d2	0.07212223
38	0xbd684086	-0.05670216
39	0xbdd3416d	-0.10315213
40	0x3d5b0af9	0.05347726
41	0xbd076be4	-0.033061877
42	0xbdc2a777	-0.09504598
43	0xbde326ad	-0.11091361
44	0xbda4a20a	-0.08038719
45	0xbce6c008	-0.02816774
46	0x3d2dec8e	0.042461924
47	0x3df88e7a	0.1213655
48	0xbdb09f52	-0.08624138
49	0xbd49b468	-0.049244314
50	0xbde8bd1d	-0.113641955
51	0xbc324d7f	-0.010882734
52	0xbd505f49	-0.05087212
53	0xbd361346	-0.044451974
54	0xbdc03f2f	-0.09387051
55	0xbd564768	-0.052314192
56	0x3d4540d8	0.048157543
57	0x3d179d59	0.037015293
58	0x3d3b69d7	0.045755234
59	0x3da07940	0.078356266
60	0xbd8608fe	-0.06544684
61	0x3cf11474	0.029428698
62	0xbdb11058	-0.086456954
63	0x3cb115a7	0.02161677

MLP.4.weight f4 [1, 64]
0	0xbbbee9b0	-0.0058261976
1	0x3de0c58b	0.10975178
2	0x3c4ef3b8	0.012631349
3	0xbe2f6e82	-0.17131999
4	0xbd1f5d57	-0.038907375
5	0x3d869c8d	0.065728284
6	0xbcb61291	-0.02222565
7	0xbdd8f6a9	-0.10593922
8	0xbd9c0984	-0.076190025
9	0x3ce4eb90	0.027944356
10	0x3c827daa	0.015929062
11	0x3d49ac16	0.04923638
12	0x3cebaaca	0.028767962
13	0xbb86a866	-0.00410943
14	0x3ca9c6ef	0.020724742
15	0xbd6629fe	-0.05619239
16	0x3d0e6833	0.03476734
17	0x3c16f484	0.0092135705
18	0x3d484846	0.04889705
19	0x3b11ba38	0.002223624
20	0xbd7901e3	-0.060792815
21	0x3c872f66	0.016502094
22	0x3df0896b	0.117449604
23	0xbd02760d	-0.031850863
24	0xbcc21f6c	-0.023696624
25	0xbd217e03	-0.039426815
26	0x3cb1d962	0.021710102
27	0xbc8cc347	-0.01718296
28	0x3cb2858e	0.0217922
29	0xbd903577	-0.070414476
30	0xbd5cb36c	-0.053882048
31	0x3d0bf65f	0.034170505
32	0xbd96e934	-0.07368699
33	0x3cdad876	0.026714545
34	0xbc67d373	-0.0141495345
35	0x3c6081e2	0.0137028415
36	0x3c198db4	0.009372164
37	0x3e0056da	0.12533131
38	0xbce229b3	-0.027607774
39	0xbdc67ff3	-0.09692373
40	0xbd2e47b6	-0.042548858
41	0x3c7086c5	0.014680569
42	0x3d3f224b	0.046663564
43	0xbc6fa1dc	-0.014625993
44	0xbd7b6fb7	-0.061385836
45	0xbd9b6933	-0.075884245
46	0xbc6fb0e9	-0.014629581
47	0x3db987fc	0.0905914
48	0xbe263c09	-0.16233839
49	0x3dadab64	0.08479956
50	0x3ab57fa9	0.001384725
51	0x3cf93b94	0.030423917
52	0x3d5097e2	0.050926097
53	0x3d3183a2	0.043338425
54	0xbd5f411b	-0.05450545
55	0x3b00c82c	0.0019650562
56	0x3d1e02ad	0.03857677
57	0xbded0d90	-0.115748525
58	0x3c858176	0.016297083
59	0x3c72c3db	0.014817203
60	0xbd4dbab7	-0.050226893
61	0xbcd49251	-0.025948675
62	0xbddb4007	-0.107055716
63	0x3c87f47a	0.016596068
