new_ver1/test_7_8_6_standard.pth (torch, 20646 bytes, 5 tensors)

MLP.0.weight f4 [64, 3]
000000 70 b2 ef bd a2 ff cd 3e aa 59 e0 3e dd 98 16 3f
       -0.11703956 0.40234095 0.43818408 0.58827
000010 6c 05 50 bd f9 74 f1 3d e3 92 20 bf 43 33 b7 bd
       -0.05078642 0.11789889 -0.6272413 -0.08945324
000020 69 e4 63 3e f5 7b b6 3e 2c d1 67 3c cb 33 c7 3d
       0.222551 0.35641447 0.014148992 0.097266756
000030 4e 63 95 3e 2b 4c e2 be d9 a5 08 3f f2 e5 cf 3e
       0.29177326 -0.44198737 0.53378063 0.40605122
000040 5d 59 dd be 3e e7 d9 3e b4 02 b6 3d be 2a 40 3e
       -0.4323224 0.42559236 0.08887234 0.18766305
000050 e9 08 db bd 53 af 4d be 99 21 b6 3e 19 7b 16 bc
       -0.10695059 -0.20086412 0.35572508 -0.009184622
000060 fe 6c 86 3e 71 27 db be 50 b7 09 3e 67 82 ec 3e
       0.2625503 -0.4280353 0.13448834 0.4619324
000070 f6 73 df be 28 a3 9a 3b 9b 0a ef be 0b 4a 47 bd
       -0.4364316 0.004719157 -0.4668778 -0.048654597
000080 78 a5 2e 3a 3b 4b 20 3f 80 45 88 3e 29 08 d3 3e
       0.000666223 0.6261479 0.26615524 0.41217163
000090 aa 9d 55 bd 17 53 ee 3c fe b5 7e be 20 a8 dd be
       -0.052152313 0.029092355 -0.24874112 -0.43292332
0000a0 b2 ae ef 3d c1 df b4 3d bf 5c 05 3f d8 c6 56 bc
       0.11703242 0.0883174 0.52094644 -0.0131089315
0000b0 ef 7d c0 3e e2 5a 7f 3d 12 d8 83 3e d4 68 11 be
       0.3759608 0.062342532 0.25750786 -0.14200145
0000c0 11 8f 18 3f 65 9c b3 bd 01 80 9d 3d a3 7b 86 be
       0.595933 -0.08770064 0.076904304 -0.26266202
0000d0 9a b8 20 3c f8 6d 80 3c 03 d3 06 3f 41 0d 3b 3e
       0.009809637 0.015677437 0.5266573 0.18266775
0000e0 d4 55 22 3f b2 4f dc be fd 97 ba 3d f8 c8 dc be
       0.63412213 -0.43029553 0.09111021 -0.43122077
0000f0 97 eb ac be a8 93 34 bd 4e ea c4 3e ef d6 fa 3d
       -0.3377349 -0.04408613 0.3846001 0.122480266
000100 ca 5a cb bd 85 72 d7 be f6 86 c7 3e 05 ad 17 be
       -0.09929426 -0.4207956 0.38970155 -0.14812095
000110 22 e3 0b 3e d6 5e bb be 66 a2 ce 3e 8b c3 a1 3e
       0.13660863 -0.36595792 0.40358275 0.315945
000120 d7 99 82 bb 3c 97 f0 3d ea de 47 3e d4 9b 97 3e
       -0.0039856243 0.11747596 0.19518629 0.29611075
000130 f9 0f a7 3d 89 a9 40 be 05 05 b4 bd 6d e7 e6 3e
       0.081573434 -0.18814673 -0.0879002 0.4509844
000140 94 c1 ee bd 9c cc 16 be 05 ca 4c be 4b 40 68 3e
       -0.11658016 -0.1472649 -0.1999894 0.22680776
000150 94 02 df be 5f 8e 36 bd fd 9d 09 3f 77 a1 8e be
       -0.43556654 -0.04456937 0.53756696 -0.27857563
000160 c3 dc 15 bd 68 f0 3c 3f ab f5 bc 3e 77 a4 ad be
       -0.036587488 0.7380433 0.3690618 -0.3391454
000170 7d 14 72 3c d5 c6 1d bf 45 fc f5 3d 78 c8 6a bd
       0.014775393 -0.6163152 0.12011007 -0.05732009
000180 74 c8 bb 3e 31 e1 13 3d 0b fa c8 3e 17 48 c0 3e
       0.3667637 0.03610343 0.39253268 0.37555
000190 0d 93 00 be 57 e1 03 3f 50 56 1e 3f 3c 8e 32 be
       -0.12556095 0.51515716 0.6185045 -0.1743707
0001a0 8b c1 e4 bc a6 6c e7 3d a0 51 a3 3e 2c b8 fc 3e
       -0.02792432 0.1130002 0.31898212 0.49359262
0001b0 31 23 3d be 19 3a ad 3d a5 a2 b3 3e 0e 82 91 bc
       -0.18470456 0.08458347 0.35085025 -0.01776221
0001c0 fa 95 63 3e f0 3e c4 be 0f 2b 44 be 8f 52 a4 3e
       0.2222518 -0.38329268 -0.1915705 0.32094237
0001d0 c1 9d 95 3c 14 a6 fc 3d b4 ee 90 bc b9 b6 23 3e
       0.0182637 0.123363644 -0.017691948 0.15987672
0001e0 f6 c3 0a be e3 7c 02 be 54 87 14 3e 3b 74 c5 be
       -0.13551316 -0.12742953 0.14504749 -0.3856524
0001f0 aa d5 d1 3e d3 2e c6 be 29 be b3 be b0 b7 a0 3e
       0.40983325 -0.387076 -0.35106018 0.31390142
000200 d5 8c ac bd 67 50 07 3e 46 75 0a bd 3e 57 ce 3e
       -0.08425299 0.13214265 -0.033803247 0.40300936
000210 75 a3 aa 3e 4d 9f 46 3e 60 51 dc be 3b ee c3 3e
       0.33327833 0.19396706 -0.43030834 0.38267693
000220 a8 ce c0 bd 2b 2f c5 3e 0d 7f 6e 3d bc b5 60 3d
       -0.094144166 0.3851255 0.058226634 0.054860815
000230 8d 3f 88 3e 1c 8e 1b bf 8c cb 68 bd a2 28 f1 3e
       0.26610985 -0.60763717 -0.056834742 0.47101313
000240 db 86 9b 3e 0b 3c 0a bf e2 52 8d be 8d 40 4a 3e
       0.30376324 -0.5399787 -0.27602297 0.19751187
000250 3a 16 0e 3e c2 69 c2 bd ab fc 2e 3e b7 33 cf bc
       0.13875666 -0.09492828 0.17088573 -0.025293214
000260 98 51 ae be 78 38 ed 3e e5 cc 5c 3d 23 5a 98 3e
       -0.34046626 0.46332145 0.05390634 0.2975627
000270 6f 02 1b 3f 7b 41 b4 3d af 73 07 be e9 a1 f4 bb
       0.6055059 0.08801552 -0.13227724 -0.0074655903
000280 9c 7a 3c be b6 4c db 3e 6b 35 b5 be 86 5b 5f 3e
       -0.18406147 0.42831963 -0.35392317 0.21812257
000290 20 ff ad be 9a 10 07 3f 3a cb 97 3d e1 bc b9 3e
       -0.33983707 0.52759707 0.07411809 0.36276916
0002a0 43 43 24 3d 70 14 eb bd af 3a df be e1 15 69 be
       0.04010321 -0.114785075 -0.4359946 -0.22762252
0002b0 00 44 52 3e 94 d6 c4 bd be 08 80 bd 03 32 8a 3e
       0.20533752 -0.0961124 -0.062516674 0.2699128
0002c0 3d d1 50 be b5 bc 47 3e 54 26 5e be e5 c0 d5 3e
       -0.20392318 0.1950558 -0.21694309 0.4174873
0002d0 26 00 57 3e 07 b7 f3 bd 19 54 02 be 1d d7 c4 3e
       0.2099615 -0.11900144 -0.12727393 0.38445368
0002e0 03 2a 7b 3d 71 f2 83 be fd 92 b2 be d7 b3 15 3e
       0.061319362 -0.25770906 -0.34877768 0.14619385
0002f0 e9 67 c2 be e1 db cc be 8a d6 68 3e 62 c5 33 3e
       -0.37969902 -0.40011504 0.2273809 0.17555764

MLP.0.bias f4 [64]
000000 2d ca d6 be 8c 9d 78 be 1e 30 2f 3e 0b 75 ac be
       -0.41951123 -0.2427885 0.17108199 -0.33683047
000010 c6 3e a1 be ff e1 73 be 20 46 22 bd 97 39 99 be
       -0.31493205 -0.2381668 -0.039617658 -0.2992675
000020 4a 2a ec be a6 04 e4 3d 54 a7 9a 3e 40 57 83 be
       -0.46126014 0.11133699 0.30205786 -0.25652504
000030 37 8c c4 be 8a db b4 be 72 fa ee be 19 68 b5 3d
       -0.38388225 -0.35323745 -0.4667545 0.08857746
000040 3b 40 ab bd 76 e9 23 3c c6 1d 0e bd db 3f 8e 3e
       -0.0836186 0.010004392 -0.034696363 0.27783093
000050 3c b8 73 3e 83 4e 4f be 01 87 45 3e 49 e5 a8 be
       0.23800749 -0.20244794 0.19289781 -0.3298743
000060 5f f6 01 be 9d e1 98 bc 37 ed 7d be 6a a2 97 3e
       -0.1269164 -0.018662268 -0.24797522 0.296161
000070 32 73 5d 3e 47 07 d5 3d f1 14 0b bf 37 b8 d0 3e
       0.21625975 0.10401779 -0.5432883 0.40765545
000080 77 69 0a 3c 87 33 17 be 1a a0 63 bb 57 2b d0 bc
       0.008447996 -0.1476575 -0.003473288 -0.025411291
000090 c2 b3 c9 be ef 06 8f be 1a 6a c2 be f8 46 47 bd
       -0.39394957 -0.27934977 -0.37971574 -0.048651665
0000a0 79 d2 50 3e 2d 2b 67 3e b1 46 99 be ec 9e e9 bd
       0.20392789 0.22575064 -0.29936746 -0.11407265
0000b0 ce 9b 66 3e 6a 75 68 be 0d 90 7f 3e 68 de b0 3e
       0.22520372 -0.2270104 0.24957295 0.34544683
0000c0 00 a2 db 3e 8f 70 de be 84 62 35 3e 99 e5 a5 be
       0.42897034 -0.4344525 0.17713362 -0.32401732
0000d0 d0 bb 2c be 9e 89 c7 bd 33 2f c9 3e c2 4b ea 3e
       -0.1686852 -0.09743045 0.39293823 0.45760924
0000e0 cb 28 d4 3d 09 48 a2 3e 24 b3 07 be f0 ff 71 be
       0.10359343 0.31695583 -0.1325193 -0.23632789
0000f0 af 61 ba be c9 27 76 bb d1 6b ae 3e 42 52 f6 3e
       -0.36402652 -0.0037560335 0.34066632 0.48109633

MLP.2.weight f4 [64, 64]
000000 6b 44 67 3d 79 ff 46 bd 9d 99 09 be 08 78 8d 3d
       0.056461733 -0.04858348 -0.13437505 0.0690766
000010 39 e2 2f 3d 52 33 bf 3c 51 1c d8 bc cb 80 24 bd
       0.042940352 0.023339901 -0.02638069 -0.04016189
000020 e0 93 a2 3c c9 34 48 3e 05 c8 53 be 90 d3 38 3e
       0.019845903 0.19551386 -0.2068177 0.18049455
000030 1d c3 97 3d 86 8f 6a 3d c3 73 88 bc d0 89 88 bd
       0.07410262 0.05726578 -0.016656762 -0.06666911
000040 5c 31 13 be 4a 59 1a 3e 43 b3 97 bd dd f2 3e be
       -0.14374298 0.15073124 -0.07407238 -0.18647332
000050 01 f2 4e 3e be fb 0e be 05 78 de bd 0e 70 f7 3d
       0.20209505 -0.1396322 -0.10862736 0.120819196
000060 10 99 0f bc be e8 ad bd bf 92 b2 3c e8 b7 9f 3b
       -0.00876452 -0.08491658 0.02179849 0.0048742183
000070 ab 89 5c 3b 79 99 96 bc 3f c7 0f 3c 78 ef 89 bd
       0.0033651392 -0.018383728 0.008775531 -0.06735128
000080 83 d3 d3 3d 8e 82 ce 3d 11 50 2e be 68 19 59 3c
       0.10343077 0.10083495 -0.1702273 0.013250686
000090 ac 7e ac bd 65 26 26 be 49 78 b7 3d a6 60 10 be
       -0.08422598 -0.16225584 0.089584894 -0.14099368
0000a0 68 2b 15 3e 40 a5 2f bd d2 b7 59 3c 6c b9 02 bc
       0.1456734 -0.042882204 0.013288455 -0.007978778
0000b0 58 a4 c7 bd 5f 01 11 3e f5 4d 0c bb ce dc 0a be
       -0.09748143 0.1416068 -0.002140877 -0.13560793
0000c0 bc 68 2b 3c cf 50 fe bc f3 d7 16 3b 3b 54 8b 3e
       0.010461982 -0.031044392 0.00230169 0.272127
0000d0 44 8f 3c bd fa 54 35 3e 99 af fb 3d f6 49 85 bd
       -0.046035066 0.17708197 0.12289352 -0.065082476
0000e0 8c e5 71 bb 4e 75 83 3d e9 a5 ce bc ea 54 2a bd
       -0.0036910502 0.064188585 -0.025225597 -0.041584887
0000f0 17 34 c9 bd 2c c4 0a be 3f 35 be 3d 3f a0 21 3e
       -0.098243885 -0.13551396 0.092875 0.15783785
000100 c6 68 f5 3d 16 05 00 bd 81 ed e1 3d d7 f1 f2 3c
       0.119828746 -0.03125485 0.110316284 0.029656334
000110 3c 54 10 3e 74 be 94 3d 1f c1 42 be e5 f7 83 3d
       0.14094633 0.072628886 -0.19018982 0.064437665
000120 29 0e ee 3d c0 39 0b 3d 86 2a 39 be 92 e5 17 3e
       0.116237946 0.03399062 -0.18082628 0.14833668
000130 f7 30 ff 3c 9d d8 05 3d 88 e9 43 3e b1 d1 df bb
       0.031151278 0.03267728 0.19132054 -0.006830417
000140 60 22 28 be ac 7b c5 bc e3 ea 95 3d 10 2f 3c 3d
       -0.16419363 -0.024106823 0.07320192 0.04594332
000150 44 49 4f bd d9 bb de bd 9d 9a 3c 3d a8 1a 91 3d
       -0.05060698 -0.10875673 0.04604589 0.070851624
000160 8e 14 89 bc d7 d2 91 bd b9 0e 5a bc 07 df d2 3d
       -0.016733434 -0.07120293 -0.013309174 0.10296445
000170 94 91 0a 3d 19 d1 83 bd 1a 68 30 3d ee 70 c9 bd
       0.03383024 -0.064363666 0.04306803 -0.09835993
000180 c5 2c 5c bb 01 e9 03 3e 67 20 65 bd 3c f2 e2 bc
       -0.003359602 0.12881853 -0.055939104 -0.027703397
000190 5b 46 51 3c f0 81 00 ba ad aa 9c bd e2 2b e9 3d
       0.012773122 -0.00049021747 -0.07649741 0.11385323
0001a0 d9 96 c5 3b 8c df 12 bc 6f 8d 3d 3d 6f f3 00 3d
       0.0060299453 -0.008964431 0.04627746 0.031482156
0001b0 b3 0f 13 3d 74 95 1d 3e e1 dc 09 3d be 5c 0c bd
       0.035903644 0.15389043 0.033657912 -0.034268133
0001c0 47 7b 03 3b be 5f ad 3d bb ee 6f 3d 14 5b 44 3e
       0.0020062493 0.08465527 0.05857728 0.19175369
0001d0 78 09 65 3c 6d 25 44 3d 8c c7 05 bd 92 ca 40 3d
       0.013979308 0.047887255 -0.032661006 0.047068186
0001e0 ae 17 14 be f8 83 cf bd 75 b1 24 3d 4e 60 15 3e
       -0.14462158 -0.10132593 0.0402083 0.14587519
0001f0 35 c9 ca ba 9d 2a 36 bd 68 ae 32 be ca 0e a7 3d
       -0.0015471341 -0.044474233 -0.17449343 0.08157118
000200 81 d1 8a 3d 4d 68 f1 3a 76 23 3a 3d 05 50 63 bd
       0.06778241 0.0018417925 0.045443974 -0.055496234
000210 8b 3a 8d 3d 61 7b 1f 3d 7b a8 5c bd 61 2b d5 3d
       0.06895932 0.038936023 -0.053871613 0.104086645
000220 fb 46 52 bd 82 dd 94 bc 16 e2 96 3d e8 18 33 bd
       -0.051337224 -0.01817203 0.07367341 -0.043724924
000230 8f 6f 33 3d 9d fd 22 3e c0 9f 8f bd 23 5c 36 be
       0.043807562 0.15917058 -0.07012892 -0.17808585
000240 5b aa 87 bd 09 53 c3 3d 7c 17 2b bd 75 94 87 bc
       -0.066242896 0.09537322 -0.041770443 -0.016550282
000250 1f 27 0e 3d 2e 11 57 3d 43 04 a9 3c ec bd 3a 3e
       0.034705278 0.05250662 0.020631915 0.18236512
000260 07 17 7d 3d bc 64 68 3d ef 74 ce 3c 22 e3 a5 bc
       0.06178954 0.056736693 0.025202243 -0.020249907
000270 1f cf 21 bd bc 9e 1f 3d e7 02 29 3e 58 16 26 3d
       -0.039504167 0.03896974 0.16505013 0.040548652
000280 c4 f5 1a be 42 6e d4 bd 5c b9 b4 be 01 3d 44 3c
       -0.15132815 -0.103725925 -0.35297668 0.011977435
000290 33 57 f3 bc a9 e5 01 bd 0d 39 f2 3d f3 66 ac bd
       -0.029704666 -0.03171316 0.11827288 -0.084180735
0002a0 8a 69 48 bc 22 a7 94 3c bc 84 17 3e 18 c9 78 bd
       -0.012232194 0.018146101 0.14796728 -0.060738653
0002b0 70 2f 02 be ec 19 c0 39 da fb ec bc 9d 53 4e 3c
       -0.12713408 0.00036640407 -0.028928686 0.012593177
0002c0 3a 1e 7d bd 6a 10 25 bd 8e 26 18 3d b1 aa 0e bd
       -0.061796404 -0.040298857 0.037146144 -0.034830753
0002d0 28 a5 2b be 09 02 b7 3c 8d c1 39 be da 5b 48 bd
       -0.16762221 0.022339838 -0.1814024 -0.04891572
0002e0 c6 1e bf 3c 99 3a 03 be d8 6f ac 3c 6b db 21 3d
       0.023330104 -0.12815322 0.021049425 0.039515894
0002f0 2c 49 57 3d 49 2a da bd 66 62 08 3b 5f 08 25 bb
       0.052560017 -0.106525965 0.0020810603 -0.0025181992
000300 da 5b 49 bd fb 5e 3d be ae d2 be bc 18 d3 05 bd
       -0.049159862 -0.18493263 -0.02329382 -0.032672018
000310 02 24 08 3e 7e 10 75 3d 8e 64 00 bc 90 3f 12 3e
       0.13294986 0.05983018 -0.007836474 0.1428206
000320 81 0e 83 bd 1d b1 ec 3c 95 f3 35 3e af 5c 4d bd
       -0.06399251 0.028893048 0.177687 -0.050137218
000330 39 f2 0e bd 88 d2 ef bc 24 df ff bd 4a cb ae bd
       -0.03489897 -0.029275194 -0.124937326 -0.08534868
000340 e9 67 02 3b 60 79 b7 bb ba 4a 8e bc e1 92 fa bd
       0.001989836 -0.005599186 -0.017369617 -0.12235046
000350 cc 66 ac bd 9f 0e bd bc eb 7d f0 bd b7 cf 1f 3e
       -0.084180444 -0.023078261 -0.11742767 0.1560658
000360 41 cb 2c 3c c8 26 d9 bd b1 36 3a 3d 4c ef 13 3d
       0.010546506 -0.106031 0.045462314 0.036116883
000370 4b d9 84 3d a0 5b 01 3e 66 1c 31 3e 13 76 2d bc
       0.06486758 0.12632608 0.1729599 -0.010587233
000380 aa 7d a0 bc 67 f1 79 bd 23 16 8a be 79 87 e3 bc
       -0.019591171 -0.061021235 -0.26970014 -0.02777456
000390 ec c4 f1 3d 12 e1 2b bd 83 01 54 bb c3 4c d9 bc
       0.11805138 -0.04196269 -0.0032349534 -0.02652586
0003a0 eb d2 2e be 3d c0 c6 3d 74 dc c8 3d e5 98 84 bd
       -0.17072646 0.09704635 0.09807673 -0.06474475
0003b0 45 f6 32 3d 5d ab 0e 3d ef 4a a5 bc c4 77 65 3c
       0.043691892 0.034831394 -0.020177333 0.014005605
0003c0 94 ad 1b be 7b 4d 33 3e 18 b8 16 be 82 94 2d 3e
       -0.15202934 0.17510025 -0.14718664 0.16951182
0003d0 63 77 3d 3d 87 e7 a5 3c c8 af be bd ad 1b 99 bb
       0.046256434 0.020252002 -0.09310871 -0.0046724887
0003e0 c4 0e 2e be 95 ca 15 be a5 8a 39 bc b3 85 62 bd
       -0.1699782 -0.1462806 -0.011324559 -0.055303287
0003f0 7e bf 1a bd a4 e2 e1 bd e7 05 9c bd 1f a3 83 bd
       -0.037780277 -0.110295564 -0.07618313 -0.06427597

MLP.2.bias f4 [64]
000000 ac 9b 08 3e 5d 6d a0 bd 8f cc ef bd 1c 4c 2e bd
       0.13340634 -0.078333594 -0.11708938 -0.042553052
000010 87 89 95 bd 04 f9 05 3d 13 da 1d bd da 0b a3 bd
       -0.07301622 0.032708183 -0.03853805 -0.07961245
000020 c3 e4 c1 3d 0a 3b d4 3d b7 a8 a3 39 12 45 36 be
       0.09467461 0.10362823 0.00031215485 -0.17799786
000030 6a 6d ee bd e9 e3 1e be 27 a4 ca 3d 08 a3 e2 3c
       -0.11641963 -0.15516628 0.09894591 0.02766563
000040 f5 93 f3 3c 2f 47 af bd 51 74 30 3d 51 e9 a2 bd
       0.029733637 -0.08558499 0.043079678 -0.07954658
000050 17 90 81 3d 34 b5 f0 3c 4a 2d 77 bd ce 6d 55 3c
       0.06326311 0.02938328 -0.060345925 0.013026668
000060 e8 f9 d6 3d ec 0f 54 bd 12 91 1a be e6 66 c2 3c
       0.104968846 -0.051772997 -0.15094402 0.023730706
000070 16 7f 8a bc ee ed ed bd 98 de 0b 3e ec f4 1c bd
       -0.016906302 -0.11617647 0.13659132 -0.038319513
000080 a6 c5 9b 3d 28 96 54 3d 4d 37 62 bd b9 42 f7 3c
       0.07606058 0.051901013 -0.05522852 0.030183183
000090 31 f0 87 bb 7f 6f 9e bd 87 ed 82 bd 68 d4 0b 3d
       -0.004148506 -0.0773611 -0.06392961 0.034138113
0000a0 b7 fe 15 be d3 77 f7 bc 9f ff a3 bc f8 10 74 3d
       -0.14647947 -0.030208504 -0.02001935 0.059586495
0000b0 02 90 a1 3c ee cd 3f 3b 50 5b 17 bd d9 d8 00 bd
       0.019721989 0.002926703 -0.036952317 -0.031456802
0000c0 7c 1c 1a bc 6f ba 07 bb 71 9f 22 be ae 17 39 3d
       -0.009406205 -0.0020710488 -0.15881135 0.0451886
0000d0 04 2e 42 bd 1c ad a7 bd ee c5 b4 bd ff 2f 06 be
       -0.047407165 -0.08187315 -0.088268146 -0.13104247
0000e0 96 6a e2 bd 29 85 0f be 08 e6 fb bd a3 8e 48 3c
       -0.11055486 -0.1401564 -0.12299734 0.0122410385
0000f0 38 47 43 3d 69 26 dd bd 46 29 31 bd 54 10 00 bd
       0.04767534 -0.10798342 -0.043252252 -0.03126557

MLP.4.weight f4 [1, 64]
000000 c6 3b 52 bd 06 82 04 3d bb 7b 39 bd 01 ab c1 bc
       -0.051326536 0.032350563 -0.045284014 -0.023641111
000010 bf 89 c8 3c 50 c0 17 3d b5 b8 be 3c f4 e5 a4 bd
       0.024479745 0.037048638 0.023281435 -0.080516726
000020 e5 98 de 3d 50 36 d5 3d 64 f8 14 3d fc 24 aa bd
       0.10869006 0.1041075 0.036369696 -0.083078355
000030 05 38 a1 3c 13 62 b4 ba 77 db 98 3c 6c 47 13 3d
       0.019680033 -0.0013762139 0.018659336 0.035956785
000040 88 9a 67 3c be 49 a6 bd ae 9a e7 3d 63 80 f2 bc
       0.014135964 -0.08119534 0.113088 -0.029602235
000050 9d f1 6c bd db 87 8a bc a4 0c 28 3d 47 02 9b bc
       -0.057847608 -0.016910484 0.04102768 -0.018921984
000060 c0 24 95 3d bd 71 08 3d cc 6c 14 bd 48 4d 21 3d
       0.072824 0.033311594 -0.03623657 0.03938034
000070 5a 48 11 3d d7 17 2a bd 2c d6 b1 3d 23 33 dd bd
       0.03546939 -0.04152664 0.08683428 -0.10800769
000080 8c e2 64 3d 33 2b 53 bd d1 95 1b 3d f7 73 59 3d
       0.055880114 -0.05155487 0.037984673 0.05308911
000090 6f c2 1a 3d 4f 98 28 bb 59 41 84 bd ef 48 47 bd
       0.037783083 -0.0025725549 -0.064577766 -0.04865354
0000a0 ec 91 91 3b 56 49 9a bd 13 1e 1a 3d 7d 19 e4 3b
       0.004442444 -0.07533519 0.037626337 0.0069610463
0000b0 ef d4 65 bc aa 2b f9 3c e6 58 8c 3b 4d c8 0f 3e
       -0.014027818 0.030416328 0.0042830585 0.14041252
0000c0 e7 16 df 3c ac 6d 81 bc 69 cd 1b 3c 88 10 74 bd
       0.0272326 -0.015799366 0.009509423 -0.059586078
0000d0 26 b1 05 3d 73 c9 96 bd 89 d6 80 3d ae b3 8f 3b
       0.032639645 -0.07362642 0.06290919 0.004385433
0000e0 33 0f 90 3d bf 64 95 bd 53 13 c9 3c 77 50 b6 bd
       0.07034149 -0.072946064 0.024545347 -0.08902066
0000f0 a7 ea 36 bd f6 57 ff bd 00 4b 6d bd 6a c0 4c bd
       -0.044657376 -0.12467949 -0.057932854 -0.049988188
