model_parameter/model_para_batch512_epoch10000_consist_depth5.pth (torch, 8068 bytes, 5 tensors)

MLP.0.weight f4 [32, 3]
00000000: 6c53 fdbd ea51 31be 12e7 81be 965d 063d
00000010: 196a afbc 5d8a 533e e822 853e b0e7 f03d
00000020: c0cb 3b3d 8a62 44be d116 183e 7f09 5cbd
00000030: caa8 f8bd 6ae7 bcbe 95b4 013d a70c 92be
00000040: 52cf 9ebe 69bf 223e d806 803b 24c5 5d3e
00000050: 496a c03c 2c55 633e 53a6 6f3d bea5 ad3d
00000060: b8c5 883e bf75 223e c968 013e 21ca dc3a
00000070: af7a 123e 2ef5 da3d 401d 8cbe bc8a 203d
00000080: e097 3bbd 7412 5cbe 842e ae3d 3f5d 8c3d
00000090: 08d2 5bbe 6980 8a3d c9e1 b73d d15b aebc
000000a0: 98ec 6e39 1c10 61bc d7d6 3c3e ff44 443b
000000b0: 187a 593a edd3 9cbb 4fd5 d13d 5fbf c43c
000000c0: 0eac a03e b8ff debc b2a2 9a3d 0abb 7f3e
000000d0: effc 02bc 4d82 c33a 9bf4 8a3e a1d7 09be
000000e0: 7a02 573e c39b f0bd 372a 08bd 598b 08bd
000000f0: 785f 6e3e 1fac 24be d2f8 2f3d 2c2f 7b3e
00000100: fcc5 89be a73f ca3d d25e 48be 3552 223e
00000110: 7c9f 4dbd fe01 583e 4130 87bd 5d2e 943d
00000120: 003f 4a3e 48aa 003c 23a8 f53d 54a3 c8bd
00000130: 8503 803e 5058 21be 5337 11be 38ab 413e
00000140: 7cf9 a93d 2c01 80be 1edd c53c 9b3b 52be
00000150: d106 de3d 061e 0fbc 97ad 33be 6e0f 7cbe
00000160: 4181 fc3d 9536 263d 04a6 8d3e 33d4 24be
00000170: 377f d7bb 2e51 8e3e c35e 32be e1e9 95bd
-0.12369427 -0.17316404 -0.25371605 0.032804094 -0.021412896 0.2065825 0.26003194 0.11762941
0.045848608 -0.19178215 0.14852454 -0.053719994 -0.12141569 -0.36895305 0.031666357 -0.28525278
-0.31017548 0.1589333 0.003907066 0.21657234 0.02348818 0.22200459 0.05850823 0.084788784
0.26713347 0.15865229 0.12637629 0.0016844907 0.14304613 0.106912956 -0.27366066 0.039194807
-0.045799136 -0.21491414 0.08504966 0.06853723 -0.2146684 0.067627735 0.08978612 -0.021284016
0.00022785587 -0.013736751 0.1844133 0.0029948351 0.00082960865 -0.0047860057 0.102457635 0.024017034
0.31381267 -0.027221546 0.07550563 0.24973693 -0.007994874 0.0014916152 0.27139744 -0.13461162
0.20997038 -0.11748459 -0.033243384 -0.033336017 0.23278606 -0.16081284 0.042961903 0.24529713
-0.26908863 0.09875422 -0.19567421 0.15851672 -0.050200924 0.2109451 -0.066010006 0.072354056
0.19750595 0.007853098 0.1199496 -0.09796777 0.25002685 -0.15756345 -0.14181261 0.18912971
0.082995385 -0.25000894 0.024153288 -0.2053055 0.10841144 -0.0087351855 -0.17546688 -0.24615261
0.12329341 0.040579397 0.27665722 -0.16096573 -0.0065764445 0.2779631 -0.17418961 -0.073199995

MLP.0.bias f4 [32]
00000000: c01a d13d 9bda a13c 6616 5f3c 60ae 2d3e
00000010: c508 733d 3cb6 773d b19a bd3c 1d02 113c
00000020: 84ce 3f3b 6ff1 293d 4cda 05bd a2f1 123e
00000030: 0d97 fd3d e9c5 d1bb acab 58bd 3e35 9c3c
00000040: 6df5 be3b 4acb a1bb ae3b 29bc c86c 84bc
00000050: c027 1abe 6b6c cfbd 9fd4 2d3e fe74 8bbc
00000060: 0045 983c 47ed 3f3e 6cfc 1b3e 6750 a0bb
00000070: ad87 2abd 0626 373e 9121 82bc 54b9 1bbd
0.1021018 0.01975756 0.01361618 0.1696105 0.059334535 0.060476527 0.023145052 0.0088506015
0.002926738 0.041490015 -0.032678887 0.14349988 0.12382326 -0.0064017666 -0.052898094 0.019068357
0.005827597 -0.004937564 -0.01032917 -0.016165152 -0.15054226 -0.10128101 0.1697564 -0.01702356
0.01858759 0.18742858 0.1523301 -0.004892397 -0.041633297 0.17885599 -0.015885146 -0.03801854

MLP.2.weight f4 [32, 32]
00000000: f94a 9d3c 4021 bb3d 00c0 48be 4f4c 773d
00000010: 26bc 27be 50b7 e13d 04c4 3d3e 5b6d 13be
00000020: e073 6fbe 86a0 09be e0ae dd3d 5771 fa3d
00000030: 2223 433d 6120 cebd 2919 0f3e cf0c c6bb
00000040: e6e6 b8bd 168a 03bd b13d f7bd 21ac 743e
00000050: 5dfa a2bc b279 13be a07e 023d 5358 44bd
00000060: ff1f 23be 2b88 dcbc db79 05be 9df9 113e
00000070: 9c18 17be 3e7f 6d3c e26f 58be 7052 72be
00000080: 041a 8b3d bf77 54bd 08c3 0a3e ed4c e03b
00000090: 8012 053e c805 753e 3519 4c3d c3d7 c6bd
000000a0: bab4 703d 637d 003e b3fc 4f3c 6297 6e3e
000000b0: f69f 81bc 708d dc3c c3eb 563d 723a 2ebe
000000c0: 561a c6bc 964c 68bc a23c 26be 333f c2bd
000000d0: 8c91 f23d 40ed 83bd 4cde 8e3e c4c6 b9bd
000000e0: 0db5 71bd 8629 ce3c 9c55 883e f6f9 3dbe
000000f0: 8df0 a6bd d226 303e 100e 3dba 4c8d fabd
00000100: 00d5 713c 92d2 873d d9d1 593e aa64 24be
00000110: b6c6 7ebd 2236 b43d e89e 63bd be59 f03d
00000120: dc4c 04be dfeb 933e d58c 7ebe 15fd b4bd
00000130: e9ef 21bc 29a5 01bd a7d5 cf3d 952d 193e
00000140: 90cc 853d 14e1 46ba 45b5 b13d 51f2 993c
00000150: 1677 a23e 15d4 8f3d 90dc 963c 2d82 c1bb
00000160: 8a54 443e d08c af3c e167 0b3e 4e99 2fbd
00000170: 6077 1cbc 8708 9c3c 3af8 5a3e 9e92 4f3e
00000180: 869d 8fbe 3210 043c 22b8 043e 8ee8 d2bd
00000190: 5683 fc3b 8523 f7bc 1837 b33d 4593 57be
000001a0: 65ed b0bd 8585 b13d 6eb5 c3bd f439 5cbe
000001b0: 5691 0f3e 5321 50bd 5e0d b2bd 6b4b 843a
000001c0: 0ea9 8ebd 8195 eebd fb15 313a 89b2 62bd
000001d0: 3f30 0e3e 0f2b 293e 7d61 f3bd 809e b4bc
000001e0: c15d 433d 8090 e63b 512a 3d3d 4a93 f03b
000001f0: e8f7 a3bd b530 8bbd 3af4 21be 4858 96bc
00000200: 3859 2f3e c574 e6bc 11df d83d d424 f33d
00000210: d8a6 51be ddb5 ab3d 00f7 c8bd 78d8 4b3d
00000220: a67d 4d3e bb3b 883e 4239 e6bd 4d56 f1bd
00000230: 231b 1cbe 971e 81bd 5554 04be 421f 7c3c
00000240: 83cd 193e 6f83 523e 0789 993d 082b 81bd
00000250: c7f5 7a3e 0804 133e b7d1 ebbd 279f 7e3e
00000260: f49c 343d 7ae0 4f3d 2625 ff3d 21ed 0cbd
00000270: ced8 2fbc 6584 a5bd a2cb 81bc 0deb d83e
00000280: 4105 283d d3a8 9cba e935 b8bd 34c6 0a3e
00000290: d72b c6bd 65b5 983d b3e6 e5bc c425 b33d
000002a0: b5de 813c 65f2 f43d 833b ffbd caf9 2ebe
000002b0: c9d8 f2bd c286 62bd 351d adbd 3bfe 83bd
000002c0: b4b6 6a3c 50e5 ebbd de2b e8bd 0729 f6bd
000002d0: 2061 333e 7b72 85bd 1b00 3cbe 7fe1 cf3c
000002e0: 624e d2bd b653 ca3d bb65 77bc 7e2c 8cbd
000002f0: 1f69 103c bb9b 003b a8c6 a1bd 754d 003e
00000300: e75a 9cbd ee7a 50bb e68f 143e 587e 6d3e
00000310: cc16 ac3e 3ac2 b63e 0cf1 243d 8bfb 113c
00000320: abef 38bd 87ea 093e 0513 07be f949 3b3e
00000330: 2f84 0e3e 6e8d e33c 2ea6 833d 1355 9bbc
00000340: bdfa 25be 98ff d4bd fce4 adbd 109f 96bb
00000350: 1782 94be cdd8 5fbe cbc9 56bd c480 1fbd
00000360: 03d8 293e 5cb7 07be 5268 123e 6f9c c7bd
00000370: 0095 8b3d bd05 143e a818 aebd 4799 3c3c
00000380: a06b f33d 3974 103e d4d5 fb3d a55a ab3d
00000390: c7ed 713c bd0f 63bb bf03 aabe 8eb8 eabd
000003a0: 66e1 273d d3c2 163e f656 1b3e 1737 49bd
000003b0: b63d 463e 54da 34be 5ee4 fb3d dc9c a8bb
000003c0: 7f6c efbd 5d78 4fbb abc1 883d 2d14 c63d
000003d0: e53b 90bd 1d59 ebbd 04a4 f13b 9d7c e23c
000003e0: d445 9b3d 58fc eb3b c1d2 a53d 909b f03d
000003f0: 9a44 b6bd 1524 183d d762 aebd 7421 143d
0.019200789 0.09137201 -0.19604492 0.060375508 -0.16380367 0.11021292 0.18531805 -0.14397185
-0.23384047 -0.13440141 0.108243704 0.12228649 0.047640927 -0.100647695 0.13974442 -0.0060440074
-0.090284154 -0.03211411 -0.120723136 0.23893787 -0.019894773 -0.14401892 0.03185904 -0.047935795
-0.15930174 -0.026920399 -0.13034765 0.14255376 -0.14755481 0.014495669 -0.2113643 -0.2366426
0.067920715 -0.05187201 0.13550961 0.006845108 0.12995338 0.23927987 0.049828727 -0.09709122
0.058766104 0.12547831 0.0126945255 0.23299935 -0.015823346 0.026922911 0.052470934 -0.17014483
-0.02418248 -0.014178416 -0.16234067 -0.094847105 0.11844167 -0.06441736 0.27903974 -0.09071115
-0.059010554 0.025166284 0.26627815 -0.18552384 -0.0815135 0.17202309 -0.00072118733 -0.122339815
0.014760256 0.0663196 0.21271457 -0.16054025 -0.062201224 0.087993875 -0.055571467 0.11735867
-0.12919945 0.28890893 -0.2485841 -0.08837334 -0.009883859 -0.03165165 0.10148173 0.14958794
0.06533158 -0.000758664 0.086771525 0.018792303 0.3173148 0.07022873 0.01841572 -0.0059054107
0.19172874 0.02142945 0.13613845 -0.042870812 -0.009549946 0.019047035 0.21383753 0.20270774
-0.28049868 0.008060502 0.12960866 -0.102982625 0.007706086 -0.030168304 0.08750743 -0.21052273
-0.086390294 0.08668045 -0.09556089 -0.21506482 0.14020285 -0.05081303 -0.08693956 0.0010093277
-0.069658384 -0.11649609 0.00067552895 -0.055346046 0.13885592 0.16520332 -0.11883829 -0.022048235
0.047696833 0.0070362687 0.046182934 0.007341777 -0.08006269 -0.067963995 -0.15815821 -0.018352643
0.17123878 -0.028131852 0.105894215 0.11872259 -0.20473802 0.08384297 -0.098127365 0.049766988
0.20067462 0.2660807 -0.1124139 -0.11784039 -0.15244727 -0.06304663 -0.12922795 0.015388312
0.15019803 0.2055795 0.07496839 -0.06307036 0.24507819 0.14357007 -0.11514609 0.248654
0.044094995 0.050751187 0.124582574 -0.03440583 -0.010732843 -0.08081893 -0.01584417 0.4236683
0.041020636 -0.0011952169 -0.089946575 0.13552171 -0.096763305 0.07456473 -0.028064108 0.087474376
0.015853265 0.119602956 -0.12462523 -0.17087474 -0.11857755 -0.055304296 -0.084528364 -0.06444975
0.014325786 -0.11518347 -0.11336492 -0.12019544 0.17517519 -0.06515976 -0.18359415 0.02537608
-0.102688566 0.09879248 -0.015099938 -0.06844424 0.008814125 0.0019624073 -0.07899219 0.12529548
-0.07634526 -0.0031811553 0.14508018 0.23192728 0.33611143 0.35695058 0.040268943 0.00891007
-0.04515044 0.13468371 -0.13190849 0.18289937 0.13917612 0.0277774 0.06428181 -0.018961465
-0.1620893 -0.10400313 -0.08490941 -0.0045965984 -0.290055 -0.21860047 -0.05243854 -0.03894116
0.16586308 -0.1325354 0.14297608 -0.09746634 0.06815529 0.14455314 -0.085007966 0.011511154
0.11885762 0.14106835 0.12296644 0.083668984 0.014766163 -0.0034646832 -0.33205983 -0.11460982
0.04098644 0.14722757 0.15169892 -0.049124803 0.19359478 -0.1766141 0.12299417 -0.005145652
-0.11690616 -0.0031657435 0.06677564 0.09671817 -0.07042674 -0.114916064 0.0073742885 0.02764731
0.07581678 0.0072017126 0.08096839 0.11748421 -0.088998035 0.037143786 -0.08514946 0.036164716

MLP.2.bias f4 [32]
00000000: 0247 09bd cbf9 c33b 9e6c eb3c 110c 63bc
00000010: 5370 e23c 387f 863c 080f bd3c 7947 18bd
00000020: 6479 e33c 395a 7c3d b703 64bd 5535 d23b
00000030: 6513 a0bc 7bb5 e2bc b17a 8fbc 047d aa3c
00000040: 4e72 d53d 1179 9cbd 5c08 603d e3aa 58bd
00000050: f0ea 563c 790e 703c 4b82 df3c 2d07 e2bc
00000060: 76d9 8d3c ae17 96bc ad9b c73b 5a1f 6abd
00000070: 6a99 f43c a8fb 65bc acb6 0a3c 2408 693b
-0.033514984 0.0059807054 0.028738316 -0.013857857 0.027641451 0.016418085 0.023078457 -0.037177537
0.027767844 0.06160948 -0.055667605 0.006415049 -0.019540498 -0.027674427 -0.017514559 0.020811565
0.104221925 -0.07640279 0.054695472 -0.052897345 0.013117537 0.014651888 0.027283808 -0.027591312
0.017315608 -0.018321838 0.006091556 -0.057158805 0.02985831 -0.01403705 0.008466404 0.003555783

MLP.4.weight f4 [1, 32]
00000000: 190c 86be e25e 5cbb b113 883e b12b 1abe
00000010: 3587 733e 5085 863c 2274 90be 3e8e 6ebd
00000020: 1cd9 463e e404 37be 07a8 06be 7805 7a3e
00000030: 24a8 52bd c3e5 ebbd df78 673e a85f 903e
00000040: 194b 10be 147c a23e 7cdf 42be fd5e 7cbe
00000050: 0272 263e b4aa cebd ffad a23e d20d 83be
00000060: d159 583e 6d12 a93e 3dff 413e 89c3 0abe
00000070: 08fd df3d 1ec9 d1bd b246 823e 14bc ae3e
-0.26181105 -0.003362589 0.26577523 -0.1505573 0.23782046 0.01642099 -0.28213602 -0.05824112
0.19418758 -0.1787296 -0.13150035 0.24416149 -0.051429883 -0.11518433 0.22604702 0.2819798
-0.14091147 0.3173529 -0.19030565 -0.2464561 0.16254428 -0.10091153 0.31773373 -0.25596482
0.21128012 0.3302187 0.18945022 -0.13551153 0.10936934 -0.10243438 0.2544456 0.34127867
