model_parameter/model_para_batch512_epoch10000_consist_depth5.pth (torch, 8068 bytes, 5 tensors)

MLP.0.weight f4 [32, 3]
00000000: 9093 193e bdc7 503d 1dc3 773d d064 1cbd
00000010: ab8c a4bd 6b8f 3abe d0fc 9fbe f191 eb3c
00000020: af51 4ebc ba49 ecbd 0cbb 88bd ab1f eabd
00000030: 9051 56be a80f 0b3e f72a c43c fde2 5bbe
00000040: f386 8dbe 5dd1 d33d 0a37 563e 4634 e4bb
00000050: 950c bb3c 4b1e 5abe cf7a 16be 876b 17bd
00000060: f8a9 873e 73c9 fabd 8ec1 193e 12ee b93e
00000070: 9f7c 33bd 4c13 04be adad 32be 3659 983c
00000080: 1933 23be 899a b63d d25f 0a3e d028 01be
00000090: bb04 84be 0802 1bbe 05ed 5abe 3569 af3e
000000a0: 0b05 43be e8af 8f3b 280c bb3d bbff c23d
000000b0: 420a 1dbe f72a 523e 2a02 71be 2c79 033e
000000c0: 6f91 9e3e f0d2 babd 06c0 fcbc eb00 6b3e
000000d0: 60e1 0cbe e28c e53c 769f 4f3e 1446 b53b
000000e0: 400b 8d3d 7449 1b3d 8ea7 c8bc cb9c 4abc
000000f0: a616 53be 646e 88bb 66ff 29bd 7dea 2bbe
00000100: 499e 273e 99e8 45bd 1123 0e3e 8ffe ab3d
00000110: abc7 5e3d fd48 6a3d a271 173d 5ebf 6a3d
00000120: 2f8d c6be 2f89 49bd 069d c8bd 9156 bebe
00000130: a077 34be 9f2e 473e c586 8d3e cd6d ffbd
00000140: 697a 34bd f978 4ebe a3fc 0c3e 195f e53d
00000150: 91e0 59bd f5e7 263e b14d c0bc be62 06be
00000160: 339e 923e de07 6ebd 5020 6d3e fc57 90be
00000170: 40a4 793c 994e 73be e618 c03a 4a42 8dbd
0.14997697 0.050971735 0.06048881 -0.03818208 -0.08034643 -0.18218772 -0.31247568 0.028756114
-0.012592717 -0.115375 -0.06676301 -0.114318214 -0.20929551 0.13580191 0.023946268 -0.21473308
-0.2764202 0.10342667 0.20919433 -0.0069642393 0.022833148 -0.21300618 -0.14695285 -0.03696778
0.26496863 -0.12245455 0.15015242 0.36314446 -0.04382002 -0.12897986 -0.17449065 0.018597227
-0.15937461 0.08916194 0.13513115 -0.12613225 -0.2578486 -0.15137494 -0.21379478 0.34259954
-0.19044892 0.0043849833 0.09133178 0.09521433 -0.15335944 0.20524202 -0.23535982 0.12839192
0.30970332 -0.091222644 -0.030853283 0.22949569 -0.13757849 0.02802128 0.20275673 0.0055320356
0.068869114 0.037911847 -0.024493959 -0.012366484 -0.20614108 -0.00416355 -0.041503333 -0.16788669
0.16368975 -0.048317526 0.13880564 0.083981626 0.054389637 0.057198513 0.036973603 0.05731141
-0.3877959 -0.049203094 -0.09795575 -0.3717542 -0.17623758 0.19451378 0.27641883 -0.12472115
-0.044062052 -0.20163335 0.13768248 0.11199779 -0.05319268 0.16299422 -0.023474546 -0.13123605
0.2863632 -0.05811297 0.23156857 -0.28192127 0.015236914 -0.23760451 0.0014655858 -0.06897409

MLP.0.bias f4 [32]
00000000: 7ce0 cbbd 3ed6 2cbc 6bae b9bb a115 b9bc
00000010: ec00 5e3e c8bb d83d 9bac 9d3b a91c 3cbc
00000020: 950e 51bd 071c 53bd 4490 0ebc a190 7abd
00000030: 8842 f839 812d 063c 159f 81bc 8328 e4bd
00000040: 20af 12bd e819 23bc 5023 1bbc 869f dabc
00000050: 781a 79bb 689a 183e 5160 893c 8311 003d
00000060: 7f91 a5bc 912d e33c ef89 56bd 759f ad3d
00000070: f202 0abc dc46 393e ca0c 01bd f9cd 6abc
-0.09954926 -0.010549126 -0.005666544 -0.022593321 0.21680039 0.105826914 0.004811836 -0.0114814425
-0.051039297 -0.0515404 -0.008701388 -0.061173085 0.00047351816 0.00818956 -0.015822927 -0.111405395
-0.035811543 -0.009954907 -0.009468868 -0.026687395 -0.0038010161 0.14902651 0.01676956 0.0312667
-0.02021098 0.027731689 -0.052377637 0.0847768 -0.008423554 0.18093437 -0.031506337 -0.014331334

MLP.2.weight f4 [32, 32]
00000000: c694 ea3e 0215 b8be 31d0 7dbe 2e8f 49be
00000010: 637b 8ebe cba5 abbd cd2e 533e cb72 37be
00000020: 9a21 963e b501 11bd 6279 55be 52d4 8dbe
00000030: 792e 1bbe 8c73 a03e c657 5fbe 0bf9 073f
00000040: d62c ab3e 1a33 e73d 188c 433e 765d a03c
00000050: 9ed7 f8be 279f e3be 6381 143e 9bda a43d
00000060: b55a 31bd 683e 45bf 07f9 943e dfb4 55be
00000070: bac7 7abe 0ba8 29bf 1f28 a43e 081f 8cbe
00000080: 1720 38bd 2992 c0bc 5057 f5bd 0e31 2fbd
00000090: 1b0a efbe ed93 09be 15b7 f5bb 0301 433d
000000a0: 3d74 043e 3fee b33d 83e8 20be ec28 203c
000000b0: f127 0fbe e003 873d bc19 1b3e ef93 6e3d
000000c0: dc4b 303e f645 d83d 3811 463e 76c8 09bd
000000d0: f6e2 59be 1632 9fbe 85f3 c73d c12f 0c3e
000000e0: b5ee 4bbe ea55 74be a61e 6d3e 8220 e2be
000000f0: acf6 ba3d bf4a debe b371 9f3e 5a06 2cbc
00000100: 35fc 3f3e 3958 00be 76cf 60be 57f8 f1bd
00000110: df72 a3be 1b54 e8be b7d1 843e 3edf 5fbe
00000120: 042f 923e 383a da3d 6700 64bc 7282 133e
00000130: d998 eabd 9b4d 003e 974c d5bd 27ed b53e
00000140: 487b 043e a224 673d 19c2 0fbe 891e 07be
00000150: 97ff 0cbe 872c 53be e896 4b3e 3e1c 82bd
00000160: 0a56 c1bd 4443 46be e738 793e bc7e 55be
00000170: f8ed 113d 88f8 b2be f2d3 8a3e 19f4 84be
00000180: 0139 7bbf c320 3cbd 5a9b 803c 79a5 9fbd
00000190: 3d21 8b3e db8a 013f e851 36bd c2c4 5a3e
000001a0: 3fd3 4fbc 7a2b 33bf e23c 6ebd a6b2 49be
000001b0: 78e9 503c 6cee 823d 4233 3dbe 874c 2bbe
000001c0: c22b 36be b828 073e e259 bfbd 86a4 c83d
000001d0: 05e3 b93d 3cfe 253e 88de 83bd 8bb5 343e
000001e0: 5c67 4c3e c53b ac3e 0c2d acbe e910 0f3c
000001f0: 4ef5 9ebd 3622 b0bb 4dae 18bc f060 8fbd
00000200: 6ce8 c9bd 7381 9c3c dbcf 81bc 98ec 1a3c
00000210: 3111 1e3e cc63 d93d 1afd 8ebe 961e 883d
00000220: 7f22 bdbd ad1c bdbe 212c 503d b31b e7bd
00000230: 57c9 513e 367c 34be 3168 ab3c aef9 c23c
00000240: 4ca6 34be 3ea2 14be 923e bdbd c09b 5fbd
00000250: 006e 41bc 34e3 f53d a0af 19bd fd6d 8abd
00000260: 0921 f53d c61a b83d c699 e7bc d8f3 8d3d
00000270: 72e7 8d3e 0abf d13c 98f9 81bd 826b 193e
00000280: 0b1c d0bd 675a 483e 7482 b33c 4797 10bd
00000290: 6b0c 46be fe45 d03d 1c22 323e e149 4f3d
000002a0: e2ff c53d 755b cf3d 4fec ff3b 158f 7fbd
000002b0: e451 d0bc c3a4 dabd cef8 5d3d 355b a43c
000002c0: 82da e0bd 19b4 6ebb 315f 3dbe de3a b5bc
000002d0: 5efc 1bbe 84e6 96bd 5198 283e 101c 953e
000002e0: 6e23 96bc c780 0a3e 3cd4 39be 67a6 f23d
000002f0: 89f3 fabd 01f5 803d d259 13be 21f7 85bd
00000300: 6a43 893d 79e8 29be 7d6f 3cbd 687b 0fbd
00000310: 2e3a 6abe b83b 28be 315e 023d 265f 58bc
00000320: 72d7 9bbd 68f9 5e3e fc61 fcbd dcd4 cc3d
00000330: ffa8 1abd 7a6b 913e 1218 4a3e 418a c83e
00000340: e452 7c3e 795f 893e cf84 7a3e bad9 b13d
00000350: 0056 70be dc95 2dbe 8dbe 563d 92f9 5bbe
00000360: bc5a babd 6124 60be cf2e 053e c4c7 75be
00000370: fb8e 32be f5b7 0abe c70c 093e 0446 32be
00000380: c890 433d 4fe9 42bd 92ca c13d 5551 c5bd
00000390: 35d7 09bd 2035 983c dd95 44be 2977 b1bd
000003a0: b34e c63c 4563 843d 09ce 92bd 4f9a 8cbd
000003b0: c564 a3bd 32f1 5a3d 1dd2 03be 6f1c 91bd
000003c0: 1baa 19bd fa08 85bd c3a0 c93c 9692 04be
000003d0: b0b8 40bd a526 71bb e7ca 923c 406e eabd
000003e0: 2a23 59bb e245 bdbc 2e41 17be 23d1 0d3d
000003f0: a3bc 3dbd f466 9c3b 713b efbc 14c1 123d
0.4581663 -0.35953528 -0.2478645 -0.19683525 -0.27828512 -0.08381232 0.20623322 -0.17914884
0.2932251 -0.03540202 -0.20847085 -0.2770105 -0.15154447 0.31338155 -0.21810827 0.53114384
0.33432645 0.11289044 0.1909641 0.019575816 -0.48602003 -0.4445736 0.14502482 0.08049508
-0.043299396 -0.7704835 0.29096243 -0.20869778 -0.24490252 -0.6627204 0.3206186 -0.27367425
-0.04495248 -0.023507195 -0.11979544 -0.04277139 -0.46687397 -0.13435335 -0.0074986317 0.047608387
0.12934966 0.08785676 -0.15713696 0.009775382 -0.1398008 0.06592536 0.15146536 0.05824655
0.17216438 0.10560219 0.19342506 -0.03363844 -0.21277985 -0.310929 0.097632445 0.13690092
-0.19915278 -0.23860899 0.23156223 -0.44165426 0.0912908 -0.43416402 0.31141433 -0.010499561
0.18748553 -0.12533654 -0.2195414 -0.11814945 -0.31923577 -0.45376667 0.2594125 -0.21862504
0.28551495 0.106556356 -0.013916112 0.1440523 -0.114549346 0.12529604 -0.10414999 0.35532495
0.12937653 0.05643142 -0.14038886 -0.13195242 -0.13769375 -0.20622455 0.19881785 -0.06353043
-0.09440239 -0.19361597 0.24338113 -0.20849127 0.035627335 -0.3495524 0.27114826 -0.25967482
-0.98133856 -0.04592968 0.015699077 -0.07795233 0.27173796 0.506025 -0.044511706 0.2136412
-0.012684642 -0.69988215 -0.05816353 -0.19697055 0.012750976 0.063931316 -0.18476585 -0.16728412
-0.1779013 0.13199127 -0.09343316 0.09797005 0.09076504 0.16210264 -0.06438929 0.17647378
0.19961303 0.3363935 -0.33628118 0.008732059 -0.07761632 -0.005375172 -0.0093189 -0.07000911
-0.09858784 0.019104695 -0.015846184 0.009455822 0.15436246 0.10614738 -0.27927476 0.06646459
-0.09235095 -0.3693594 0.050823335 -0.1128458 0.20486961 -0.17625508 0.020923706 0.023800697
-0.17641562 -0.14515015 -0.0924045 -0.054591894 -0.011806011 0.12006226 -0.037521005 -0.0675926
0.119691916 0.08989482 -0.028271567 0.06931275 0.2771564 0.02560379 -0.06346434 0.14982417
-0.10161599 0.19565736 0.02191279 -0.03530052 -0.19340675 0.101696 0.17395824 0.050607566
0.096679464 0.10124866 0.0078101526 -0.062392313 -0.025429673 -0.10675957 0.054192357 0.020063022
-0.10979177 -0.0036423265 -0.18493344 -0.022122797 -0.15232989 -0.07368186 0.16464354 0.29122972
-0.018327441 0.13525687 -0.18147367 0.11848145 -0.12253482 0.06296731 -0.14389732 -0.06541277
0.06702311 -0.16592588 -0.04600476 -0.0350298 -0.22873756 -0.16429031 0.03182811 -0.013206279
-0.07609452 0.21774828 -0.123233765 0.10001537 -0.037758823 0.2840231 0.19735745 0.3916798
0.24640995 0.26830652 0.24464725 0.08684106 -0.23470306 -0.16951698 0.052427817 -0.21481922
-0.090993375 -0.21888877 0.13006137 -0.24001986 -0.17437355 -0.13546737 0.1338378 -0.17409521
0.047745496 -0.04758578 0.09462465 -0.096346535 -0.033652503 0.01858002 -0.19197793 -0.08665306
0.024207449 0.06464247 -0.07168204 -0.068653695 -0.07978205 0.053452678 -0.1287312 -0.070855014
-0.03751574 -0.06495853 0.02461279 -0.12946543 -0.04705113 -0.0036796716 0.017919017 -0.1144681
-0.0033132532 -0.023104612 -0.14770958 0.034623276 -0.046322476 0.004773015 -0.029203149 0.035828665

MLP.2.bias f4 [32]
00000000: 8d63 5cbe b138 943c 4cca 4f3c 74aa 583d
00000010: fac7 22bd 111e 3cbc 1435 f63b 4f2f 72bc
00000020: 6343 81bd 0b76 5abc 2210 98bc 83b3 dbbc
00000030: bacc 063d 1d08 ec3c e4be cfbc 4491 93bc
00000040: 8497 013d 1c45 89bb 0eba b1bc 7040 373d
00000050: 7a75 6c3c 6cf2 20bd 7f18 86ba f149 4fbd
00000060: f225 223d a834 2e3c fe6c bbbc 02e9 b9bc
00000070: 770d c3bc 598f 843c dc1e ddbc 58f1 6ebc
-0.2152235 0.018093439 0.012682509 0.05289693 -0.039741494 -0.011481778 0.0075136516 -0.014781787
-0.06311681 -0.013333808 -0.01856238 -0.026818996 0.032910086 0.028812462 -0.025359578 -0.018013604
0.031638637 -0.0041891467 -0.021695163 0.044739187 0.0144323055 -0.03929369 -0.0010230689 -0.050607625
0.03958697 0.010632671 -0.02287912 -0.022694115 -0.023810131 0.016181635 -0.026992254 -0.014583908

MLP.4.weight f4 [1, 32]
00000000: e2e1 bc3e aa7e b63e 631e 483e ddae bebe
00000010: 80df 9dbe ed57 abbd eaa0 433e 0d08 46bc
00000020: 8ad4 1ebe 9f22 603e d509 eabd 1ae5 e3bd
00000030: f5bd 063e da28 be3e dcb1 96be e536 3cbe
00000040: 0a8a 7c3e 21be 843e f963 80bd 84c1 a53e
00000050: 77a0 473e 541b 86bd 77c5 613e bf9b fdbd
00000060: e636 553e 2d80 8e3e 8870 95bd fcac e4bc
00000070: a0d1 35bd 1eca 4e3e b485 46be 4391 0ebe
0.36891085 0.35643512 0.19542842 -0.37242785 -0.3083458 -0.0836638 0.19104353 -0.01208688
-0.15510765 0.21888207 -0.114276566 -0.11127682 0.131584 0.37140542 -0.2943257 -0.18380316
0.24662033 0.25926307 -0.06269068 0.32374203 0.19494806 -0.06548181 0.22047983 -0.12383222
0.20821723 0.27832165 -0.07296854 -0.027914517 -0.044389367 0.20194289 -0.19386941 -0.139226
