model_parameter/model_para_batch512_epoch10000_consist_depth12_step2.pth (torch, 3208 bytes, 3 tensors)

MLP.1.weight f4 [32, 3]
0	0xbf7ed1e9	-0.9953905
1	0x3ea0288b	0.31280932
2	0xbc029993	-0.007971185
3	0xbec0f964	-0.3769027
4	0x3cf2be33	0.02963171
5	0x3f220b5f	0.632986
6	0x3d8ce420	0.06879449
7	0xbeaa5d2d	-0.33274212
8	0x3e3adb9c	0.18247837
9	0xbe6f4aad	-0.2336833
10	0xbee5858a	-0.44828445
11	0x3f23546c	0.6380069
12	0x3f48586c	0.7825992
13	0x3d9aa163	0.07550313
14	0x3f3b4bb9	0.7316242
15	0xbf0354f6	-0.51301515
16	0x3ed50d68	0.4161179
17	0x3dc2c234	0.095096976
18	0xbf1c9276	-0.6116098
19	0xbe884e04	-0.2662202
20	0x3dabed83	0.08394911
21	0xbe2e5e3a	-0.17028132
22	0xbdfcee38	-0.12350124
23	0xbf4b6064	-0.79443955
24	0xbf16177f	-0.586296
25	0xbe1c70aa	-0.15277353
26	0xbf3dfa42	-0.7420999
27	0xbf8b0696	-1.0861385
28	0x3f155405	0.5833133
29	0x3dabf0aa	0.083955124
30	0xbef492bc	-0.477682
31	0x3ed63d38	0.4184358
32	0xbea050a4	-0.31311524
33	0xbe8df188	-0.27723336
34	0x3f6715aa	0.9026743
35	0xbeea25bf	-0.45731923
36	0xbe7e7618	-0.24849737
37	0xbef88a1c	-0.4854287
38	0xbef90392	-0.48635536
39	0xbea1669d	-0.315236
40	0xbd1c0179	-0.038087342
41	0xbf1d0879	-0.61341053
42	0xbf257735	-0.6463502
43	0xbf0a3ac4	-0.5399592
44	0xbf305204	-0.68875146
45	0xbed47ffa	-0.41503888
46	0x3ebe40ef	0.37158915
47	0x3eb86252	0.36012512
48	0x3f1a5963	0.60292643
49	0xbe51573c	-0.20443434
50	0xbe764e77	-0.2405337
51	0x3e8fc8ff	0.28083035
52	0x3f2389ae	0.6388196
53	0xbe742ff3	-0.23846416
54	0x3f896dda	1.0736649
55	0x3edf127f	0.435688
56	0x3ea65a40	0.3249073
57	0x3f83e235	1.0303408
58	0x3ea4a267	0.32155153
59	0x3e3d852e	0.18507835
60	0xbf20c001	-0.62792975
61	0x3f1b77ea	0.6072985
62	0x3f02066d	0.50791055
63	0x3f8adada	1.0848038
64	0x3d1a2f28	0.037642628
65	0xbf1c273c	-0.60997367
66	0xbe853164	-0.26014245
67	0xbf9b4f53	-1.2133583
68	0xbf005700	-0.5013275
69	0x3f895f82	1.0732272
70	0x3dcc1243	0.09964421
71	0xbdb72888	-0.089432776
72	0xbf130d2c	-0.57441974
73	0x3e498ae2	0.19681886
74	0x3f0aa01c	0.5415056
75	0xbe3c46c1	-0.18386365
76	0xbcbda665	-0.023150632
77	0x3d5ad8a1	0.05342925
78	0x3e43920c	0.19098681
79	0x3f08a4b4	0.5337632
80	0xbe6ff1af	-0.23432039
81	0xbf05c3b6	-0.52251756
82	0x3eff9e43	0.49925432
83	0x3e80a9ef	0.2512965
84	0x3f394bb9	0.7238117
85	0x3e0212cc	0.12702483
86	0x3f43aff9	0.7644039
87	0xbeab9e77	-0.33519337
88	0xbfb155ec	-1.3854346
89	0x3db90cff	0.09035682
90	0x3f1e650d	0.6187294
91	0x3d306f3a	0.043074824
92	0xbd7cd7a8	-0.061729103
93	0x3f5a1c03	0.8519899
94	0x3decc17e	0.11560343
95	0xbe817748	-0.25286317

MLP.1.bias f4 [32]
0	0x3f5ec4fb	0.8701932
1	0x3ef24e1b	0.47325215
2	0x3e786d3d	0.24260421
3	0xbed2f3b8	-0.41201568
4	0x3eb96ce1	0.3621588
5	0xbeac45ce	-0.33647007
6	0xbe218a19	-0.15775336
7	0xbf111564	-0.56673265
8	0xbd86eca6	-0.06588106
9	0x3f63db5a	0.8900658
10	0x3f7dddc1	0.99166495
11	0x3e2dcba5	0.16972215
12	0x3f225bff	0.63421625
13	0xbda4003b	-0.080078565
14	0xbe923f86	-0.2856409
15	0x3ecb20d9	0.39673498
16	0xbe8fda04	-0.2809602
17	0x3eb745a3	0.35795316
18	0x3e2f2959	0.17105617
19	0xbf5b32cc	-0.85624385
20	0x3f1dc7b4	0.6163285
21	0xbf9ac7f0	-1.2092266
22	0x3f2fbf8f	0.6865167
23	0xbf56e568	-0.83943796
24	0x3f38ad97	0.7213988
25	0xbe7768b9	-0.24161042
26	0x3ec8e3ca	0.3923629
27	0x3f23a6c8	0.63926363
28	0x3f0fd825	0.56189185
29	0x3ea5a8b8	0.32355285
30	0x3e10652e	0.14101097
31	0xbe418f8a	-0.18902412

MLP.3.weight f4 [1, 32]
0	0x3f9c8e08	1.2230844
1	0xbec8376e	-0.3910479
2	0x3d680fac	0.05665557
3	0x3d45b578	0.048268765
4	0x3e295886	0.16537675
5	0xbdaa9320	-0.08328843
6	0xbe151832	-0.14560011
7	0xbe6426cc	-0.22280425
8	0xbeb29fb2	-0.34887463
9	0x3f906eca	1.128381
10	0xbf481cf7	-0.78169197
11	0xbf22f40f	-0.63653654
12	0xbebe573b	-0.37175927
13	0xbee63fb9	-0.44970492
14	0xbe603b79	-0.21897687
15	0xbf1f7ea6	-0.62302625
16	0x3ed4b2f7	0.4154279
17	0x3e8f1af2	0.27950245
18	0x3e9071ea	0.2821191
19	0x3fa1bd17	1.2635831
20	0xbec37501	-0.38175204
21	0x401fec9d	2.4988167
22	0xbf24d433	-0.6438629
23	0x3fa1824b	1.2617887
24	0xbf1bf5e1	-0.60922056
25	0xbc65b088	-0.014019139
26	0x3e43d4ed	0.19124193
27	0xbea18c2b	-0.31552252
28	0x3e915b8e	0.28390163
29	0xbf1463f1	-0.57965
30	0x3e2098d5	0.15683301
31	0x3f1f1d82	0.621544
