model_parameter/only_boundary_loss.pth (torch, 3192 bytes, 3 tensors)

MLP.1.weight f4 [32, 3]
000000 63 57 d5 be e4 fe 12 3f 79 cf 37 be ad 8a 20 bb
       -0.41668233 0.5742018 -0.17950238 -0.002449672
000010 54 f9 ac bd a8 8f ae be 0a 5a 95 3e 62 c3 d1 3d
       -0.08445993 -0.34093976 0.29170257 0.102423444
000020 55 3b 0f 3e c6 98 73 be 0f 79 b1 be c7 75 25 be
       0.13987477 -0.23788747 -0.34662673 -0.1615821
000030 e0 14 b7 3e be 91 63 3e 1c 56 66 be b5 22 ba 3e
       0.35758114 0.22223565 -0.22493786 0.36354604
000040 50 64 cc be 5d bc a6 bd aa 07 1b 3f 6e 1a 9d 3e
       -0.39920282 -0.08141396 0.6055857 0.30684227
000050 d1 35 1d bf af 6f a0 bd c3 66 b9 3d c0 d7 b8 be
       -0.6141024 -0.07833802 0.09052803 -0.36102104
000060 1e 9d 13 3f bb a6 f7 3e ca c4 69 be d4 87 3b be
       0.57661617 0.48369393 -0.22828975 -0.18313533
000070 fa 53 fd 3e 75 0b 1a bf fd 5d b3 be cc ba 9c 3e
       0.49478132 -0.6017373 -0.35032645 0.30611265
000080 75 29 01 3f 6b 37 b4 3e b5 71 c0 3d 25 ad 10 be
       0.50453883 0.3519853 0.09396688 -0.1412855
000090 ef 07 51 be b5 6a f1 be 3b 97 9e be 98 7d c7 be
       -0.20413183 -0.47151724 -0.30974755 -0.38963008
0000a0 32 94 30 3e 94 29 55 3e 2c da 27 bc 5d 94 bb 3e
       0.17244032 0.20816642 -0.010244887 0.3663663
0000b0 3b a7 12 bf b9 4a 5a be b5 88 ef 3d 7d 13 e0 3d
       -0.57286423 -0.21317567 0.11695997 0.10941217
0000c0 e0 09 e2 3e 0a 4f ec 3d 11 7c f8 be cc 07 07 3f
       0.4414816 0.11538513 -0.48532155 0.5274627
0000d0 1a 4f e0 3e c0 61 9f be 48 82 0c 3e 00 07 f8 be
       0.4381035 -0.31129265 0.13721573 -0.4844284
0000e0 e2 9e 9d bd 56 6e 0e 3e 67 93 14 3e 3d 55 d9 be
       -0.0769632 0.13909277 0.14509355 -0.42447844
0000f0 1a 7d 95 3e 17 ef e2 be 9c 03 09 3d d3 30 6b be
       0.29197007 -0.44323036 0.033450708 -0.22967844
000100 3a 6a 11 3f 9a 52 e8 3d f0 b6 dd bd 19 63 c5 3d
       0.56802714 0.1134388 -0.10825908 0.09638042
000110 f2 78 fb 3e f4 3a 91 be ed 90 f5 3c 18 d7 02 bf
       0.4911571 -0.2836529 0.029976333 -0.51109457
000120 61 4c e1 be ee b7 b3 3e 92 1a f4 3e 3a dc ed be
       -0.44003585 0.35101265 0.47676522 -0.46457082
000130 02 47 55 3e c9 be e4 3e cd b6 f9 be 55 27 8b 3e
       0.20827869 0.44676808 -0.48772278 0.27178445
000140 26 31 cc 3e 78 a3 1c 3b 51 de 94 be 76 27 01 3c
       0.39881247 0.0023901146 -0.29075864 0.007882943
000150 02 1f 44 3d 6a 27 4e 3d 80 3c d5 3e 99 ad 1b 3e
       0.047881134 0.050330557 0.4164772 0.15202941
000160 25 11 1f be b8 76 bc be 86 97 ed be dd 21 77 3e
       -0.15533884 -0.36809325 -0.46404666 0.24134012
000170 be 0a 94 bd 44 04 ea 3e c4 a3 e4 3e 94 3c e8 bc
       -0.072286114 0.4570638 0.44656193 -0.028349198

MLP.1.bias f4 [32]
000000 0f 18 64 3e ac fe fc be 61 ec 80 be e1 9b f7 bc
       0.22274803 -0.4941305 -0.25180343 -0.030225696
000010 df d4 1d be 6d b7 40 be e4 df 1d be 73 b5 43 be
       -0.15413235 -0.18819971 -0.15417439 -0.19112186
000020 18 8e b9 bd 29 3b 8c 3e d9 e5 0f bf a5 69 8c be
       -0.09060305 0.27388886 -0.56210095 -0.2742435
000030 5a 44 25 3f 35 9b e1 3e c9 e1 05 bf 9e 68 70 be
       0.6455742 0.44063726 -0.52297646 -0.23477408
000040 d5 b6 05 bf b9 fe f8 3e 55 d0 00 3f d1 06 a1 be
       -0.52232105 0.48631838 0.5031789 -0.31450513
000050 b3 a2 d5 3e 98 f9 6e 3e 41 6d 61 3e 69 9d 14 be
       0.41725692 0.233374 0.22014333 -0.14513172
000060 f8 73 90 3e b8 25 9d be 94 c6 9a be e8 40 49 bc
       0.28213477 -0.3069284 -0.30229628 -0.012283541
000070 bb 8c bd be d5 0d 0d 3f 8a 51 a1 be ad 28 29 3e
       -0.3702143 0.5509923 -0.31507522 0.16519423

MLP.3.weight f4 [1, 32]
000000 9e f6 51 3e 9d dc 2c 3e 35 c8 5c 3e a6 5f d2 3d
       0.20504233 0.16881032 0.21560748 0.1027215
000010 d5 5d ef bb cd e9 44 3e 43 68 da 3d 54 70 88 bd
       -0.007304887 0.19229813 0.106644176 -0.0666205
000020 ce f9 b5 3d 06 7b 79 3d 12 d5 eb 3d be b1 5a 3e
       0.08885537 0.06090834 0.11515249 0.21356866
000030 a0 5f cf bd de 15 2a be 77 d9 9f 3c d8 9e f4 3d
       -0.10125661 -0.16609904 0.019512875 0.119443595
000040 44 d5 63 3d b3 52 bc bc d9 9c 3d 3c fb 0d 05 3c
       0.055623308 -0.022988653 0.01157304 0.008121009
000050 6a c1 91 bd 38 11 07 be 23 5d d0 bd 12 e7 13 3e
       -0.07116969 -0.13190162 -0.101740144 0.14443615
000060 61 d1 16 3e 68 cf 71 bd 22 92 97 bd 1e 8f f6 3d
       0.14728309 -0.05903569 -0.074009195 0.12039016
000070 20 2c 7f ba b5 35 fc 3d 11 d2 66 3d 74 2e 0a 3e
       -0.0009734053 0.12314931 0.05635268 0.13494283
