model_parameter/refer.pth (torch, 3200 bytes, 3 tensors)

MLP.1.weight f4 [32, 3]
0	0x3f27900e	0.65454185
1	0xbdad9201	-0.08475114
2	0xbf1bfb95	-0.6093076
3	0x3f2b99f6	0.670318
4	0x3e2d33c9	0.16914286
5	0x3db0115a	0.085970595
6	0xbec06b6e	-0.37581962
7	0xbee88e19	-0.45420912
8	0x3dd6c18b	0.10486134
9	0x3d65b847	0.056083944
10	0x3f1c6a9c	0.61100173
11	0x3d770d01	0.060315136
12	0xbdc04fb7	-0.093902044
13	0x3f00c98c	0.50307536
14	0x3e0645c9	0.13112558
15	0x3e7e5f84	0.24841124
16	0x3ea62dbf	0.32456776
17	0x3e8160dc	0.2526921
18	0x3f014c0a	0.5050665
19	0x3e89dc02	0.26925665
20	0xbf136cc7	-0.57587856
21	0xbe10df9b	-0.14147799
22	0x3f2e4ab6	0.6808275
23	0x3f10d1aa	0.5656992
24	0x3eecb048	0.46228242
25	0xbf3c01af	-0.7344007
26	0xbef31fe6	-0.47485274
27	0x3ee480a5	0.44629398
28	0xbf01fbb5	-0.507747
29	0x3f053f0d	0.5204933
30	0xbf533b85	-0.82512695
31	0xbef8df83	-0.48608026
32	0xbef6b4eb	-0.48184904
33	0xbf43e273	-0.7651741
34	0xbe9645a4	-0.29350007
35	0xbe3cdd5f	-0.18443821
36	0x3f3d88ad	0.74036676
37	0xbf070f54	-0.52757764
38	0xbe04f61c	-0.12984508
39	0xbe03644b	-0.12831227
40	0xbe11fab9	-0.142558
41	0x3d8dd1ff	0.06924819
42	0xbcb8c31c	-0.022553973
43	0x3eb0f584	0.34562314
44	0x3ed7e361	0.42165664
45	0xbd9e4f8d	-0.07730017
46	0x3ebf47c6	0.37359446
47	0xbe495fb1	-0.1966541
48	0xbe40dc5b	-0.18834059
49	0x3e1f4b32	0.15556028
50	0x3bce53d4	0.006296614
51	0x3f237314	0.6384747
52	0xbefc9880	-0.49335098
53	0xbe90d8e5	-0.28290477
54	0x3f6a4db1	0.915248
55	0x3eadae21	0.33921912
56	0x3ee6926d	0.4503359
57	0xbe4a5a00	-0.19760895
58	0xbe2d04c3	-0.16896348
59	0x3e328780	0.17434502
60	0x3e44da16	0.19223818
61	0x3ee24885	0.44195953
62	0x3df01e41	0.117245205
63	0x3ea0500c	0.3131107
64	0x3f23b1b7	0.63943046
65	0xbec7b92c	-0.39008462
66	0xbe479c2e	-0.19493172
67	0x3dea8c9c	0.114526
68	0x3ec00701	0.37505344
69	0x3cf8d4ca	0.030374903
70	0x3e8084ea	0.25101405
71	0x3da20afa	0.0791225
72	0xbe4f08ae	-0.20218155
73	0xbf1235c5	-0.57113296
74	0x3eff663a	0.4988268
75	0x3ef4655b	0.47733578
76	0x3ef3d3dd	0.47622576
77	0x3ef2c85a	0.4741848
78	0x3f675149	0.90358406
79	0x3e715502	0.23567584
80	0x3ec2b690	0.3802991
81	0xbf25ceaf	-0.647685
82	0x3eba8c67	0.36435243
83	0xbeb06122	-0.34449106
84	0xbf0eaf6e	-0.55736434
85	0xbf0f4753	-0.5596821
86	0xbe7d98b2	-0.2476528
87	0x3f171a2a	0.590243
88	0xbf1fff77	-0.62499183
89	0xbe8261a9	-0.25465134
90	0x3f4af694	0.792825
91	0xbedf02f1	-0.43556932
92	0xbf087447	-0.53302425
93	0x3f25f757	0.64830536
94	0xbee5ac4c	-0.44858015
95	0xbf1fc34f	-0.6240739

MLP.1.bias f4 [32]
0	0xbf06c6b4	-0.52646947
1	0xbf140193	-0.578149
2	0xbd1872bc	-0.037218794
3	0x3dae052f	0.084970824
4	0x3df37477	0.11887448
5	0x3ef47599	0.4774597
6	0xbecd32ab	-0.4007772
7	0x3e87c613	0.26518306
8	0xbe9c3a36	-0.3051316
9	0x3e532a11	0.20621516
10	0xbf01700b	-0.5056159
11	0xbe338a6e	-0.17533275
12	0xbf213966	-0.6297821
13	0x3f1c5a6e	0.61075485
14	0xbe38fa81	-0.1806431
15	0x3ed833df	0.42227075
16	0x3f4b3585	0.7937854
17	0xbe2a7584	-0.16646391
18	0x3dda96d4	0.106732994
19	0xbf10e3c9	-0.5659757
20	0x3f02b685	0.5105975
21	0x3c3d95da	0.011571372
22	0x3ef3de14	0.4763037
23	0xbe75cbc6	-0.24003515
24	0xbea2fb63	-0.31832418
25	0xbdbb8a86	-0.091572806
26	0x3eba577c	0.3639487
27	0xbec880c4	-0.3916074
28	0xbf10f813	-0.5662853
29	0xbeefce7e	-0.4683723
30	0xbf27323d	-0.6531103
31	0xbf047136	-0.51735246

MLP.3.weight f4 [1, 32]
0	0x3f380a25	0.7189048
1	0x3f3d64f4	0.7398217
2	0xbe9b7862	-0.30365282
3	0x3e22337a	0.15839949
4	0xbd40ebf8	-0.047100037
5	0xbd1bafbb	-0.038009387
6	0x3f27d6c2	0.6556207
7	0x3dc49c75	0.09600154
8	0x3f13d21e	0.5774249
9	0x3ebe4c11	0.3716741
10	0xbeae7c02	-0.34078985
11	0xbea7ffea	-0.32812434
12	0x3f37d2c2	0.71805966
13	0xbe373396	-0.17890772
14	0xbd0d8bd5	-0.034557182
15	0x3dafda13	0.08586516
16	0xbf02804f	-0.50977033
17	0x3f1fbc6f	0.623969
18	0x3e39b88c	0.18136805
19	0xbddb8214	-0.1071817
20	0x3e38f92d	0.18063803
21	0x3e91ac55	0.2845179
22	0x3ccbc49f	0.02487403
23	0x3aefdf49	0.0018300797
24	0xbe1fe720	-0.15615511
25	0x3d92b7ae	0.0716394
26	0x3e517dac	0.20458096
27	0xbe4c8ee3	-0.19976382
28	0xbe720af2	-0.23636988
29	0x3f619bd7	0.8812842
30	0x3f3377ed	0.7010487
31	0x3f3dac88	0.74091387
