model_parameter/refer.pth (torch, 8068 bytes, 5 tensors)

MLP.0.weight f4 [32, 3]
0	0xbdbe25c5	-0.09284548
1	0xbd82a56a	-0.063792065
2	0xbdb28ee7	-0.08718663
3	0x3e46bd34	0.19408113
4	0xbe4c586c	-0.19955605
5	0x3ca7b001	0.020469667
6	0xbe813369	-0.25234535
7	0x3e59b466	0.21260223
8	0x3dfec87b	0.12440582
9	0x3e1385d3	0.14406519
10	0x3d4a82e0	0.04944122
11	0x3d36553a	0.044514872
12	0x3eccd1a7	0.40003702
13	0xbd297421	-0.041370515
14	0xbe380e0a	-0.17974105
15	0xbe9ddfcc	-0.30834806
16	0xbd58f6cf	-0.05296975
17	0x3d6b828b	0.057497542
18	0x3ea7c897	0.32770225
19	0xbe2a2e8d	-0.1661932
20	0x3c831c3f	0.01600468
21	0xbe0d536a	-0.13801351
22	0xbdcd78f9	-0.10032839
23	0xbe00ac5b	-0.12565748
24	0xbe875ad4	-0.26436484
25	0xbc68fbda	-0.014220202
26	0x3e719513	0.23592024
27	0x3df6aeed	0.12045083
28	0x3dcc761f	0.09983467
29	0x3e0707d7	0.13186584
30	0xbc3e74ac	-0.011624496
31	0x3e559125	0.2085615
32	0x3e217973	0.15768985
33	0xbe36b5bc	-0.17842764
34	0xbe5353c0	-0.20637417
35	0xbdddd605	-0.108318366
36	0xbc80273b	-0.015643707
37	0xbdb6a1aa	-0.08917554
38	0xbe1e4138	-0.15454566
39	0xbdb16e02	-0.086635605
40	0xbd8c862c	-0.06861529
41	0xbe279853	-0.16366701
42	0x3e384ddd	0.17998452
43	0x3e28b7bf	0.16476344
44	0xbd8348c6	-0.06410365
45	0xbd10a30e	-0.03531175
46	0xbdb45f1c	-0.08807203
47	0x3e097a2d	0.13425513
48	0xbdae2569	-0.08503229
49	0xbdb017ed	-0.085983135
50	0xbe310f7d	-0.17291065
51	0x3e9c74bf	0.3055782
52	0xbddb26ab	-0.10700735
53	0x3d412da4	0.047162667
54	0x3e44e121	0.19226505
55	0xbdaf126e	-0.08548437
56	0x3d8bc36e	0.06824385
57	0xbeae372b	-0.34026465
58	0x3e789412	0.24275234
59	0x3e581c66	0.21104583
60	0xbe96dc4d	-0.2946495
61	0xbda550c5	-0.08072046
62	0xbd6f9a2c	-0.05849664
63	0x3e8fcc95	0.2808577
64	0x3a7d1a80	0.0009655133
65	0x3d73cff1	0.05952448
66	0x3dcec15d	0.10095475
67	0x3d2d3990	0.042291224
68	0x3d206ff7	0.039169278
69	0x3e310d82	0.17290309
70	0xbe4fdb1c	-0.20298427
71	0x3c8f66c7	0.017505063
72	0xbc2db902	-0.010603191
73	0xbc8a04f9	-0.016848074
74	0x3c811f48	0.015761986
75	0x3d8cc702	0.06873895
76	0x3d3bc8be	0.04584574
77	0x3d97e704	0.074171096
78	0xbdc00a0c	-0.09376916
79	0x3aff904f	0.0019497963
80	0xbe15c8f9	-0.14627446
81	0xbd62b0bf	-0.05534434
82	0xbcc2ca67	-0.023778154
83	0xbd93bac8	-0.0721336
84	0x3e52b33a	0.20576182
85	0xbd82dabc	-0.063893765
86	0x3d16d327	0.036822464
87	0xbe812e28	-0.25230527
88	0x3dbd489f	0.09242367
89	0x3e5bafcf	0.21453784
90	0xbe07a82c	-0.13247746
91	0x3d60fd7b	0.054929238
92	0x3e229ea4	0.15880829
93	0x3a2e5376	0.000665001
94	0x3d11d683	0.035604965
95	0x3e244fe6	0.16046104

MLP.0.bias f4 [32]
0	0xbce5936f	-0.028024403
1	0xbc11076a	-0.008851865
2	0x3e06dfbe	0.13171288
3	0xbd2405c7	-0.040044572
4	0xbcf3219a	-0.029679108
5	0xbb99cd83	-0.0046936884
6	0xbdd22951	-0.10261787
7	0xbce8ebae	-0.028432693
8	0x3e0c8416	0.13722262
9	0x3d1101ff	0.035402294
10	0x3d4cb5d3	0.04997809
11	0xbcd0cf92	-0.025489602
12	0xbd23a941	-0.039956335
13	0xbccc3deb	-0.024931869
14	0x3c796cf8	0.015223734
15	0xbc428d0a	-0.011874447
16	0xbd3ee2f9	-0.046603177
17	0x3cb01c34	0.021497823
18	0x3cfde508	0.030993
19	0x3dc993ff	0.09842681
20	0xbbc059cd	-0.00587008
21	0x3c777ee6	0.015105939
22	0x3c298ee1	0.010349006
23	0x3b032deb	0.0020016383
24	0xbca2fc58	-0.019895718
25	0x3cd72cef	0.026266543
26	0xbcf2d0e4	-0.029640622
27	0x3cd99f5c	0.026565246
28	0x3c4dcbc7	0.012560791
29	0x3df0f53b	0.11765524
30	0x3dc30b09	0.09523589
31	0x3d5f252a	0.0544788

MLP.2.weight f4 [32, 32]
0	0x3d520ce4	0.051281825
1	0x3d51c5f3	0.05121417
2	0x3e806704	0.25078595
3	0x3e347af7	0.17625032
4	0xbd87ab26	-0.06624441
5	0xbc6a2c0f	-0.014292731
6	0xbb628852	-0.0034566117
7	0x3dad2c71	0.08455742
8	0x3c1b4c5e	0.009478657
9	0xbd2aaf58	-0.041671127
10	0x3ccdbf96	0.02511577
11	0xbd963740	-0.07334757
12	0x3dd5866d	0.1042603
13	0xbc78c471	-0.015183554
14	0xbd3ef90f	-0.04662424
15	0x3d8eeebf	0.06979131
16	0x3cc94293	0.024567878
17	0xbdea14cf	-0.1142975
18	0xbda3d437	-0.07999461
19	0xbd9b8b31	-0.07594908
20	0x3e442f52	0.19158676
21	0x3dc0f0c4	0.094209224
22	0x3d3303f5	0.043704946
23	0x3da1bf86	0.07897858
24	0x3d9b6cbb	0.07589098
25	0xbe49a873	-0.19693165
26	0x3d4c84f4	0.04993148
27	0xbd5e8696	-0.05432757
28	0x3a4cd09a	0.00078130665
29	0xbdf9bc7a	-0.12194152
30	0x3d5c6860	0.053810477
31	0x3d910911	0.070818074
32	0xbe708ab2	-0.23490408
33	0x3e49e274	0.19715291
34	0xbda0b952	-0.07847847
35	0x3c9aea5b	0.018910578
36	0x3e941697	0.28923485
37	0x3da90c79	0.08254332
38	0xbdf3f542	-0.119120136
39	0xbe4000bd	-0.18750282
40	0xbdc95800	-0.09831238
41	0x3dd44621	0.103649385
42	0x3e04343c	0.12910551
43	0xbd6f194f	-0.058373746
44	0xbdbc4600	-0.09193039
45	0xbd9475dd	-0.07249043
46	0x3c9aa1cd	0.01887598
47	0x3cbc0843	0.022953158
48	0xbdf97fd2	-0.12182583
49	0x3e7e86e2	0.24856141
50	0x3e103ed6	0.1408647
51	0xbd4cb384	-0.049975887
52	0xbbaf7d92	-0.0053555453
53	0x3e272133	0.16321258
54	0x3c3cf807	0.011533744
55	0x3e726c70	0.23674178
56	0xbe28a032	-0.1646736
57	0x3dd48055	0.1037604
58	0xbd8f3045	-0.069916286
59	0x3cb9d445	0.022684226
60	0x3e64c588	0.22340977
61	0xbd95ed06	-0.07320599
62	0x3d6e5f3d	0.058196295
63	0x3d614dc9	0.055005822
64	0x3e81ca27	0.25349542
65	0xbe2270c5	-0.1586333
66	0x3e3b272f	0.18276666
67	0xbc2e9f83	-0.010658148
68	0xbe075454	-0.13215762
69	0x3e3ba47e	0.18324468
70	0xbd16d918	-0.03682813
71	0x3c3c7ba9	0.011504092
72	0x3dbffabf	0.09373998
73	0xbde6ce85	-0.11269859
74	0xbdf370c0	-0.1188674
75	0x3de24d11	0.110498555
76	0x3d3a29dc	0.045450076
77	0x3e128e9b	0.14312212
78	0xbcc966c8	-0.024585143
79	0xbe36f225	-0.17865808
80	0x3ca047c8	0.019565478
81	0xbdc02ffe	-0.09384154
82	0xbe6ae030	-0.22937083
83	0xbdd39ede	-0.10333036
84	0x3e64e850	0.22354245
85	0xbe8305ff	-0.25590512
86	0xbe2037ec	-0.15646333
87	0x3d158848	0.03650692
88	0x3d0e7984	0.034783855
89	0x3d2a03b7	0.04150745
90	0x3e26eae3	0.1630054
91	0x3d4bed4c	0.04978685
92	0xbe65adc7	-0.22429572
93	0x3cbed38f	0.023294238
94	0x3e20f567	0.15718614
95	0x3d45fb95	0.04833563
96	0x3dd568e3	0.10420396
97	0xbe432ea6	-0.19060764
98	0xbdb93d3e	-0.09044884
99	0xbd0ad5bc	-0.03389524
100	0x3df33a25	0.118763246
101	0x3d8e14cc	0.069375604
102	0x3d9b3133	0.075777434
103	0x3bc46a14	0.005994091
104	0xbbd527bb	-0.0065049804
105	0x3d7a6445	0.06113078
106	0x3d9e209c	0.077210635
107	0x3db3001c	0.08740255
108	0x3e3242cf	0.17408298
109	0x3e730f06	0.237362
110	0xbe2fe41b	-0.17176859
111	0x3d037ff4	0.032104447
112	0x3e15a14b	0.1461231
113	0xbd672b83	-0.05643798
114	0xbe0685cf	-0.13136981
115	0xbb33d7c8	-0.0027441848
116	0x3e063743	0.13107018
117	0x3da87456	0.08225314
118	0xbdc30c91	-0.09523881
119	0xbd899a04	-0.06718829
120	0x3c55cd34	0.0130494125
121	0xbd03b110	-0.03215128
122	0xbc674f94	-0.014118094
123	0x3e1e18b5	0.15439112
124	0xbe100281	-0.14063455
125	0x3d72d773	0.0592875
126	0xbcbcbc43	-0.023038989
127	0xbcedc4f2	-0.029024575
128	0x3cd1a64c	0.025591992
129	0x3d6efe37	0.058347907
130	0xbe412604	-0.18862158
131	0x3d558cb9	0.052136157
132	0x3efa1f06	0.48851794
133	0xbe0d0ace	-0.13773653
134	0x3d92b331	0.07163084
135	0x3d059527	0.032612946
136	0xbec67f6d	-0.38769093
137	0x3d692f3a	0.056929804
138	0x3e1fc002	0.15600589
139	0xbe80d2fc	-0.25160968
140	0x3e8da579	0.27665308
141	0xbdc8eca2	-0.09810759
142	0x3e5d5fd4	0.21618587
143	0xbd0c12c4	-0.034197584
144	0x3ceaf0a9	0.028679209
145	0x3d9f9166	0.077914044
146	0x3e8f0d77	0.2793996
147	0xbec13c96	-0.37741536
148	0xbe0b8a44	-0.13626963
149	0x3c91dd3f	0.017805694
150	0xbc2dc6f2	-0.010606514
151	0x3e3d80c8	0.18506157
152	0x3e17c040	0.14819431
153	0x3da4c9e7	0.08046322
154	0xbdfd5785	-0.12370209
155	0xbd0c3a24	-0.034235135
156	0xbc184abd	-0.009295163
157	0xbedcea59	-0.43147543
158	0xbe7ce7b0	-0.24697757
159	0xbe3ff2e0	-0.18744993
160	0x3e0afaed	0.13572283
161	0xbd974e6b	-0.07388004
162	0x3cf9ae40	0.030478597
163	0xbe8a0380	-0.26955795
164	0xbe038a0a	-0.12845626
165	0x3dfc6783	0.12324431
166	0xbd6b8a2b	-0.057504814
167	0x3e6ca61c	0.2311024
168	0x3d5494eb	0.05189983
169	0xbde0394d	-0.10948429
170	0xbe7934a5	-0.24336489
171	0x3d8f31b4	0.06991902
172	0xbdb55d68	-0.088557065
173	0xb9313b51	-0.00016902132
174	0xbda8510e	-0.08218585
175	0xbd28aca7	-0.04118028
176	0x3bcf4595	0.0063254335
177	0xbe217b71	-0.15769745
178	0x3cf31506	0.02967311
179	0x3c88f087	0.016716255
180	0xbce3f056	-0.027824562
181	0xbd6f4aa8	-0.058420807
182	0xbe8f0b52	-0.27938324
183	0xbda76008	-0.081726134
184	0xbdb82270	-0.089909434
185	0xbd48937d	-0.04896878
186	0x3dd074b0	0.101785064
187	0x3db97822	0.09056117
188	0xbe4d9d34	-0.200795
189	0x3e889cea	0.26682216
190	0x3e4ce39a	0.20008698
191	0x3d5c0f98	0.05372581
192	0xbe1d49bc	-0.15360159
193	0x3e2bb73c	0.16769117
194	0xbd936310	-0.07196629
195	0x3d726713	0.05918033
196	0x3e199ead	0.15001936
197	0xbdd4249f	-0.103585474
198	0x3cbfc333	0.023408508
199	0xbe6577f8	-0.22409046
200	0xbee44c2d	-0.44589368
201	0x3d33c640	0.043890238
202	0xbda813be	-0.082068905
203	0xbd63a3f5	-0.055576283
204	0xbcc56343	-0.024095183
205	0xbe5202ba	-0.20508853
206	0x3d524dd2	0.051343746
207	0xbd375777	-0.044761147
208	0xbc0e69f0	-0.00869225
209	0x3d7a6908	0.06113532
210	0x3d7f271e	0.062293164
211	0xbe46693a	-0.19376078
212	0xbd9290fc	-0.0715656
213	0x3e6695a8	0.22518027
214	0x3e139215	0.14411195
215	0x3e46b966	0.19406661
216	0x3d2b8b77	0.04188105
217	0x3e1f1445	0.15535076
218	0xbe7e837a	-0.24854842
219	0xbce3c17b	-0.02780222
220	0x3d99d594	0.0751144
221	0xbe30ecc4	-0.17277819
222	0xbdae0af6	-0.084981844
223	0x3d9412cb	0.07230147
224	0xbda87cdc	-0.0822694
225	0xbd81164d	-0.06303082
226	0x3d7d64a6	0.061863564
227	0xbdc454f7	-0.09586518
228	0xbe96c4c3	-0.29446992
229	0x3c3f0234	0.01165824
230	0xbe99ea73	-0.30061683
231	0x3e2bbbf1	0.16770913
232	0xbd1d7169	-0.038438234
233	0x3d080dd0	0.033216298
234	0xbcaf3319	-0.02138667
235	0x3db03fb1	0.08605898
236	0xbdd0ca13	-0.101947926
237	0x3d46dd22	0.048550732
238	0xbde5e58d	-0.11225424
239	0x3d8d4837	0.068985395
240	0x3947e7c1	0.00019064454
241	0x3e04704d	0.12933464
242	0xbda8e349	-0.08246476
243	0x3c893279	0.0167477
244	0x3dfad8b3	0.12248363
245	0xbe8fe6b3	-0.28105697
246	0xbd51678f	-0.05112415
247	0xbe1cdf9f	-0.1531968
248	0x3dbea242	0.09308292
249	0x3d757d03	0.059933674
250	0x3e1a09b6	0.15042767
251	0xbd0006a7	-0.031256344
252	0xbe48b0d0	-0.19598699
253	0x3d486a3d	0.04892944
254	0x3c1dc55d	0.009629575
255	0xbdc66730	-0.0968765

MLP.2.bias f4 [32]
0	0xbcc50076	-0.024048071
1	0x3d25eaed	0.040507246
2	0xbd251d84	-0.04031135
3	0xbca93dfd	-0.020659441
4	0xbd032b94	-0.03202398
5	0xbd3af6ac	-0.0456454
6	0x3cdae8d0	0.026722342
7	0xbd586fb1	-0.052840892
8	0x3d289e7c	0.041166767
9	0x3d061dd7	0.0327433
10	0x3c83457f	0.01602435
11	0x3b2abfa5	0.002605417
12	0x3c83a341	0.016069056
13	0xbb7617dc	-0.0037550842
14	0xbd91ea8f	-0.071248166
15	0x3b3f9aee	0.0029236632
16	0xbcc188c7	-0.02362479
17	0x3d24b990	0.04021603
18	0xbc7a4682	-0.015275599
19	0x3b54459f	0.003239013
20	0x3d32f7d6	0.043693386
21	0x3d5f3c0a	0.054500617
22	0xbd63b5a7	-0.05559316
23	0x3c2c4749	0.010515043
24	0xbc74d179	-0.01494252
25	0xbca82116	-0.02052359
26	0x3c42e9c4	0.011896554
27	0x3d232cc9	0.039837632
28	0x3cb484fd	0.02203607
29	0xbd7bc52e	-0.061467342
30	0x3d5b440f	0.053531703
31	0x3d8fee5b	0.070278846

MLP.4.weight f4 [1, 32]
0	0xbc38e886	-0.011285907
1	0x3e9524b6	0.2912957
2	0xbe4b2239	-0.19837274
3	0xbe601ed0	-0.21886754
4	0x3e7f1a3d	0.24912353
5	0xbe72fdfc	-0.237297
6	0x3ec42073	0.38306007
7	0xbe30efc8	-0.1727897
8	0x3e29f0f3	0.16595821
9	0xbe9de105	-0.3083574
10	0x3e8c1eee	0.27367347
11	0x3dc627bf	0.0967555
12	0x3e41b368	0.18916094
13	0xbe245f8e	-0.16052076
14	0xbe037813	-0.12838773
15	0x3e505b43	0.20347314
16	0xbd88a206	-0.066715285
17	0x3e51d61b	0.20491831
18	0xbd7042c0	-0.058657408
19	0x3e8e78c0	0.278265
20	0x3e754c6c	0.23954934
21	0x3e0f2cf6	0.13981995
22	0xbe2132bd	-0.15742011
23	0x3e964cf8	0.29355597
24	0xbd3375de	-0.04381358
25	0xbd192151	-0.03738529
26	0x3b2cc157	0.0026360357
27	0x3e61d79b	0.22054903
28	0x3e517eda	0.20458546
29	0x3e588f7f	0.2114849
30	0x3dca1616	0.09867494
31	0xbdef04e6	-0.11670856
