new_ver1/model_parameter/batch128_epoch10000_Mynetwork_5_32.pth (torch, 22498 bytes, 11 tensors)

MLP.0.weight f4 [32, 3]
-0.5256544 0.1775301 -0.15918462 0.28471363 -0.2433322 0.024507545 0.040258978 -0.1794736
0.09493101 -0.020797823 -0.011499694 -0.11021812 0.10059933 -0.17136766 0.066902444 0.100479886
0.11850669 0.02325815 0.12684241 -0.3610388 0.08078203 -0.0042479876 0.2693749 0.026559513
0.05766938 -0.13552383 0.013944508 -0.03828438 -0.13019112 -0.17735308 0.20208551 -0.37053123
0.12637016 -0.3026618 0.043934923 0.118910216 -0.29281515 -0.06454183 0.16625081 -0.10190631
0.18538113 0.14824612 0.24561691 0.01631365 -0.01864353 -0.2145745 0.014979462 -0.21529017
0.24178693 -0.1985033 0.10015751 -0.027310364 -0.008221083 0.07686776 0.39556405 -0.13840257
0.10171171 0.022706915 -0.043388575 -0.120157085 -0.08267996 -0.055468876 -0.14975964 0.43123138
-0.18521781 0.12305811 -0.4833756 0.06544205 -0.14206815 -0.050229922 0.088106416 -0.057007384
-0.31232148 -0.094954364 0.10760914 0.23281027 -0.008714818 -0.0025170525 0.09188909 -0.025088448
0.05245112 -0.36628392 0.06566864 -0.12740345 -0.28406575 -0.03491179 0.030777862 -0.41964045
0.13445254 -0.10759573 0.059521068 -0.007891742 -0.075345755 0.045764994 0.10564587 0.03299072
00000000: 4991 06bf 73ca 353e 4b01 23be fcc5 913e
00000010: 142c 79be 0cc4 c83c 99e6 243d edc7 37be
00000020: 306b c23d 3260 aabc 3669 3cbc 0aba e1bd
00000030: 0607 ce3d 017b 2fbe 2604 893d 66c8 cd3d
00000040: a3b3 f23d e087 be3c fae2 013e 14da b8be
00000050: 0d71 a53d b432 8bbb 82eb 893e 5693 d93c
00000060: ba36 6c3d c2c6 0abe 8177 643c 15d0 1cbd
00000070: d250 05be 0c9c 35be 81ef 4e3e 45b6 bdbe
00000080: 2e67 013e 7df6 9abe 1bf5 333d 3387 f33d
00000090: deeb 95be 822e 84bd a73d 2a3e 41b4 d0bd
000000a0: 8dd4 3d3e d5cd 173e 0083 7b3e 34a4 853c
000000b0: 51ba 98bc 6bb9 5bbe 6b6c 753c 0775 5cbe
000000c0: fe96 773e 7344 4bbe 611f cd3d fcb9 dfbc
000000d0: b9b1 06bc d86c 9d3d 5f87 ca3e 67b9 0dbe
000000e0: 3b4e d03d da03 ba3c 38b8 31bd eb14 f6bd
000000f0: 1c54 a9bd 5533 63bd 975a 19be 5cca dc3e
00000100: bda9 3dbe e405 fc3d 027d f7be 7b06 863d
00000110: 507a 11be e4bd 4dbd 2371 b43d 9380 69bd
00000120: 9ae8 9fbe 6f77 c2bd 2e62 dc3d d165 6e3e
00000130: 99c8 0ebc 22f5 24bb 5930 bc3d 4a86 cdbc
00000140: fcd6 563d 9189 bbbe 487d 863d 0d76 02be
00000150: 1171 91be aaff 0ebd db21 fc3c 1ddb d6be
00000160: edad 093e 265b dcbd 5dcc 733d 5d4c 01bc
00000170: e04e 9abd 1374 3b3d dd5c d83d 4721 073d

MLP.0.bias f4 [32]
0.040899802 -0.06785576 -0.03120453 0.036050126 0.0075923684 -0.057514247 -0.03169614 0.006333797
-0.09302601 -0.008700155 -0.10438188 0.12176473 -0.018084459 -0.0013909728 -0.046378493 0.028686788
-0.036398273 3.74973e-05 -0.044838484 -0.08175118 -0.07386621 -0.058195688 0.17200622 -0.014158063
0.17066698 -0.04256873 -0.035576276 -0.016623726 0.23807688 0.044278428 -0.1261124 -0.01021055
00000000: 8d86 273d f6f7 8abd a4a0 ffbc 4ca9 133d
00000010: 67c9 f83b 0f94 6bbd d0d3 01bd bd8b cf3b
00000020: 6c84 bebd 188b 0ebc 2bc6 d5bd c95f f93d
00000030: dc25 94bc 4d51 b6ba 60f7 3dbd 8e00 eb3c
00000040: 5b16 15bd 6b46 1d38 8fa8 37bd 2a6d a7bd
00000050: 2b47 97bd 9a5e 6ebd 6622 303e 38f7 67bc
00000060: 53c3 2e3e 8c5c 2ebd 6eb8 11bd 7b2e 88bc
00000070: 6dca 733e 4c5d 353d 9c23 01be 274a 27bc

MLP.2.weight f4 [32, 32]
-0.30595952 -0.13099153 0.012695458 -0.14725919 0.08503245 -0.15876906 -0.11112307 -0.16681227
-0.10865509 0.05968346 0.25417656 -0.05444691 -0.0133411335 -0.024432156 0.011314374 0.28449476
0.035438247 0.021629956 0.20498 -0.135139 0.1025523 -0.007301555 0.10884194 -0.2396353
-0.21256052 -0.048344545 -0.07848398 0.20649295 -0.13325547 -0.15124457 0.022765294 -0.06943266
0.009214552 -0.016184004 -0.14455672 -0.007970088 -0.24352337 0.041695267 -0.08582357 0.27975073
-0.1655425 -0.18605828 -0.13499032 0.10665333 0.07171988 0.24985424 -0.07532693 -0.0146658
0.09040705 0.19143854 -0.27497044 0.09734204 -0.0011441556 -0.11301664 0.10369793 0.2835343
0.2704296 0.081900746 -0.007712519 0.012794556 0.39775097 0.11760482 0.045175772 0.22960275
-0.16032772 -0.0501949 -0.06369139 -0.011830702 -0.17556281 -0.038641654 0.15372609 -0.14098188
0.04661694 0.11054538 0.19326109 -0.017577752 -0.16632786 0.3700332 -0.00942545 0.0110155
0.039217453 -0.05260954 0.22318219 0.0314822 0.07247256 0.1886983 -0.2662868 -0.106777646
-0.086104944 0.12321549 0.02123957 -0.2411781 -0.024561625 -0.0973649 -0.095081024 0.1053252
0.058757614 0.10246239 0.18356729 0.07498822 -0.054190874 -0.039863866 0.34077924 -0.08110702
0.056799337 -0.027107568 0.318552 -0.28232545 -0.14307301 -0.060566455 0.0631683 -0.12440303
0.19525243 -0.08698224 0.15227167 -0.019340577 -0.11277889 0.21258754 -0.1869754 -0.041242734
0.010418099 -0.024368873 0.1384984 0.061239276 -0.49569193 -0.25915244 0.05349072 -0.103007145
-0.2691557 0.17839913 0.13378456 0.06775772 0.16607006 0.111763455 0.13570759 0.05506732
0.008742548 -0.28247315 0.38849172 -0.09874144 -0.023707418 0.08293164 0.12518738 -0.007425768
0.11331567 -0.07839229 0.17878018 -0.016473398 -0.060784247 0.18324989 -0.104122944 -0.04990545
-0.24866922 0.09650261 0.15210642 -0.12676075 -0.099482015 -0.16704878 -0.007966747 0.023890514
0.13849446 -0.15136226 0.08261322 0.064769074 -0.05128355 0.002023466 -0.04388597 0.3325345
0.021788675 -0.21434434 -0.23795483 0.053416517 0.51101124 0.07228821 -0.097429104 -0.005511383
-0.04492956 0.041928757 -0.109698735 -0.111162074 -0.15830883 -0.12089805 0.40909344 0.10862799
0.41352078 -0.13217819 -0.016118873 0.25670063 0.34054613 0.09039799 0.017546684 0.032727472
-0.19792013 0.16914117 0.06228937 0.18426082 -0.10217526 -0.08489669 0.05296759 0.059796773
-0.11031417 -0.080965415 0.20257123 -0.112397335 -0.13480459 -0.089545414 -0.066695966 -0.23222858
0.15311624 -0.049425002 0.28451866 0.036619686 -0.112109095 0.1563271 -0.19828627 -0.16631967
-0.22039093 0.14608943 0.010587444 -0.23682436 -0.21800652 -0.2186371 0.131805 -0.01596304
0.15135089 -0.01753048 0.19952807 0.09611411 0.17206645 -0.33168247 0.2746218 -0.21402273
-0.017230174 0.18845625 -0.03561113 0.087882206 0.2010031 0.099924 -0.12960216 -0.014005625
0.0006300138 0.04608296 -0.20863058 0.1035296 0.047590945 0.046762656 0.39543203 -0.2841653
0.2706756 -0.22012538 0.00659331 0.13128345 0.6458305 0.27630863 -0.09762872 -0.038573958
00000000: baa6 9cbe a522 06be 9c00 503c 1dcb 16be
00000010: 7e25 ae3d 5b94 22be 7e94 e3bd d6d0 2abe
00000020: 8f86 debd a576 743d 6e23 823e b903 5fbd
00000030: c594 5abc f225 c8bc ed5f 393c 4ca9 913e
00000040: b227 113d 4e31 b13c 47e6 513e e161 0abe
00000050: f106 d23d e241 efbb 86e8 de3d f562 75be
00000060: 77a9 59be ee04 46bd 35bc a0bd e372 533e
00000070: 1f74 08be dbdf 1abe 487e ba3c b632 8ebd
00000080: a2f8 163c 5194 84bc ad06 14be f994 02bc
00000090: 315e 79be a8c8 2a3d 45c4 afbd 7d3b 8f3e
000000a0: f983 29be 1086 3ebe e73a 0abe 106d da3d
000000b0: dfe1 923d cad9 7f3e 0145 9abd d348 70bc
000000c0: 5527 b93d 7708 443e edc8 8cbe 435b c73d
000000d0: 7ef7 95ba 4575 e7bd 955f d43d 682b 913e
000000e0: c075 8a3e 94bb a73d 4cb9 fcbb 42a0 513c
000000f0: 04a6 cb3e ccda f03d 3b0a 393d fc1c 6b3e
00000100: f32c 24be 2b99 4dbd a270 82bd 90d5 41bc
00000110: bdc6 33be b646 1ebd 5f6a 1d3e 8e5d 10be
00000120: 68f1 3e3d 9e65 e23d 3ce6 453e 38ff 8fbc
00000130: da51 2abe fe74 bd3e 346d 1abc 5b7a 343c
00000140: 7ba2 203d 1a7d 57bd df89 643e 7bf3 003d
00000150: 7e6c 943d 213a 413e be56 88be 3dae dabd
00000160: ca57 b0bd 6758 fc3d 9bfe ad3c 64f7 76be
00000170: 7635 c9bc 4067 c7bd d7b9 c2bd bdb4 d73d
00000180: d3ab 703d cdd7 d13d 10f9 3b3e 6d93 993d
00000190: 40f7 5dbd 4b48 23bd 9e7a ae3e 701b a6bd
000001a0: 6ca6 683d b110 debc 3f19 a33e f68c 90be
000001b0: bb81 12be 8814 78bd 625e 813d 04c7 febd
000001c0: 41f0 473e bf23 b2bd 1bed 1b3e 2170 9ebc
000001d0: 9ef8 e6bd 8cb0 593e 7b76 3fbe 24ee 28bd
000001e0: adb0 2a3c 3ba1 c7bc 86d2 0d3e 09d6 7a3d
000001f0: 55cb fdbe a1af 84be 1619 5b3d 69f5 d2bd
00000200: c7ce 89be 43ae 363e d2fe 083e 8fc4 8a3d
00000210: 450e 2a3e 3de4 e43d eef6 0a3e 458e 613d
00000220: e73c 0f3c 52a0 90be 63e8 c63e f438 cabd
00000230: 0f36 c2bc 10d8 a93d 1f31 003e db53 f3bb
00000240: 0c12 e83d 238c a0bd 2712 373e 38f3 86bc
00000250: e7f8 78bd dca5 3b3e 693e d5bd a869 4cbd
00000260: 25a3 7ebe 29a3 c53d c9c1 1b3e 92cd 01be
00000270: 3abd cbbd d60e 2bbe f586 02bc 0ab6 c33c
00000280: 7ed1 0d3e b5fe 1abe 1f31 a93d a6a5 843d
00000290: b30e 52bd 209c 043b c6c1 33bd f641 aa3e
000002a0: 2a7e b23c 157d 5bbe 6eaa 73be 47cb 5a3d
000002b0: a2d1 023f d70b 943d e988 c7bd d598 b4bb
000002c0: 0f08 38bd 7dbd 2b3d bba9 e0bd f1a8 e3bd
000002d0: b61b 22be 6699 f7bd b274 d13e 5a78 de3d
000002e0: ffb8 d33e b859 07be ba0b 84bc 446e 833e
000002f0: 105c ae3e 9522 b93d 10be 8f3c 3e0d 063d
00000300: 93ab 4abe 5833 2d3e 2323 7f3d deae 3c3e
00000310: 4341 d1bd 51de adbd 8bf4 583d 76ed 743d
00000320: 65ec e1bd 32d1 a5bd d56e 4f3e 9330 e6bd
00000330: 370a 0abe 9663 b7bd e597 88bd 54cd 6dbe
00000340: 81ca 1c3e df71 4abd 6eac 913e 86fe 153d
00000350: 7499 e5bd 3614 203e 8e0b 4bbe b44f 2abe
00000360: 29ae 61be 7898 153e f576 2d3c 1682 72be
00000370: 1a3d 5fbe 67e2 5fbe e4f7 063e ecc4 82bc
00000380: bafb 1a3e 159c 8fbc 1651 4c3e 79d7 c43d
00000390: 3032 303e 49d2 a9be 3b9b 8c3e c628 5bbe
000003a0: 4b26 8dbc adfa 403e fadc 11bd 96fb b33d
000003b0: c2d3 4d3e f4a4 cc3d 6eb6 04be d977 65bc
000003c0: 8327 253a 7cc1 3c3d 41a3 55be 5407 d43d
000003d0: b9ee 423d 338a 3f3d 1176 ca3e 1d7e 91be
000003e0: fe95 8a3e 8c68 61be b10c d83b 2b6f 063e
000003f0: 2655 253f 5378 8d3e 91f1 c7bd baff 1dbd

MLP.2.bias f4 [32]
-0.10537457 0.18259709 -0.01530806 -0.015501787 0.014173024 0.22498347 0.018146018 0.08162322
0.034917273 -0.0005830062 -0.004268666 0.022686874 -0.15519445 -0.017116494 -0.045193106 -0.002240487
0.013914348 -0.0051283925 0.0064452104 -0.006998102 0.14982904 -0.05069485 -0.005770486 0.017403191
-0.0107996985 0.02098588 0.0221121 0.06876005 -0.011607171 -0.012046494 -0.016206553 0.010880426
00000000: 9fce d7bd bbfa 3a3e a8ce 7abc 35fb 7dbc
00000010: f935 683c 1162 663e f5a6 943c 132a a73d
00000020: 6a05 0f3d e2d4 18ba 2ae0 8bbb d3d9 b93c
00000030: 4beb 1ebe e437 8cbc 681c 39bd 22d5 12bb
00000040: 01f9 633c 130c a8bb 5832 d33b 5650 e5bb
00000050: c96c 193e 67a5 4fbd 5816 bdbb 2391 8e3c
00000060: 38f1 30bc 95ea ab3c 6f24 b53c 12d2 8c3d
00000070: 012c 3ebc a85e 45bc 9bc3 84bc d043 323c

MLP.4.weight f4 [32, 32]
-0.21862401 0.08837153 -0.073401704 -0.24624678 -0.2929052 0.34007317 -0.14744163 0.23555249
-0.3519306 -0.24764448 -0.20343749 -0.16348027 -0.0045724 -0.39551175 0.007483097 -0.025448328
-0.15932031 -0.035774324 -0.12911859 0.2868614 0.11119617 -0.12854308 -0.27581543 -0.095482565
-0.04001104 -0.20446438 -0.07211666 0.26912332 -0.13887379 -0.10979532 -0.2436174 -0.14436904
0.10870945 -0.31463376 -0.011325479 -0.07273684 0.08910343 -0.48009747 -0.3399137 -0.514841
-0.29525894 -0.008543055 0.13901621 0.21824369 0.037343316 0.2090537 0.083641164 -0.10819748
0.17489836 -0.08224799 0.280586 -0.20438951 -0.27848262 0.12699644 -0.106435336 0.04360521
0.20082697 -0.08028894 -0.064297825 -0.045567427 -0.21350226 0.08529487 0.113530725 0.075807415
0.28900546 -0.41968924 0.026567457 0.20124869 -0.019510342 -0.1614861 0.1510063 -0.3190959
-0.10843867 0.28358373 0.021124542 0.1843885 0.25323758 0.17915505 -0.045143552 -0.10629107
0.031442363 0.16122474 0.020092925 0.10951415 0.03625309 0.008447845 -0.00856359 0.11003944
0.049096502 0.06500825 -0.034129422 -0.15693167 -0.14273012 0.112858325 0.33728895 0.13237159
0.021902561 -0.10335326 0.110126525 -0.022792619 0.043956358 -0.037457094 0.032439504 -0.30412343
0.04483458 -0.12763683 -0.16884701 0.006355869 -0.108320475 0.088628404 0.03518177 0.061649717
-0.0009275065 0.047987714 -0.18378362 -0.13618521 -0.13297664 -0.13776217 -0.092497244 0.22608775
0.18033504 0.10789708 -0.09643582 -0.098221056 0.11192713 0.07458112 0.021247646 0.18697639
0.05761816 -0.47281718 0.07751873 0.022236824 -0.09113657 -0.23463453 -0.046103165 -0.2006128
0.111773305 0.13665293 -0.004450778 -0.04265463 -0.075689256 0.26790476 0.06401587 -0.010652053
6.709231e-05 0.058343895 0.013246728 0.022103408 -0.23264165 -0.17894803 -0.14956456 0.24111815
0.014780146 0.1329679 -0.1312913 -0.013241262 -0.09934043 0.057318967 0.08219892 -0.0949122
-0.13940525 0.06535843 -0.043821324 -0.08700141 -0.031672608 0.0640281 -0.038302716 0.020434558
-0.21422711 -0.019575087 -0.07894594 -0.29783294 -0.14097974 -0.049892385 -0.00044720827 0.09373728
-0.0334762 -0.0021029331 0.002227333 0.21968518 0.06794931 -0.11809769 -0.04714608 -0.118494265
0.005412621 -0.34541374 -0.038458467 0.12609322 0.05271326 0.13666295 -0.00028993364 0.018701255
-0.095536135 0.06648207 -0.12620567 0.031473048 -0.07303652 0.3442491 -0.033213194 0.09138087
-0.28157288 0.07792017 -0.118407115 -0.14946806 -0.14737524 -0.12490442 0.17169428 0.1399577
-0.12545085 -0.05470145 -0.14710306 0.45319557 0.13808766 0.034285128 -0.079757296 -0.18257663
0.10745698 -0.042475946 -0.08265482 0.028722474 -0.032392535 0.10000783 -0.1728929 0.049825672
-0.00717182 -0.03911109 0.12040118 -0.091905475 0.17667021 -0.09036923 0.07926823 0.15901703
-0.056855515 -0.10237021 -0.058269806 -0.16823232 0.1673879 -0.10045834 0.010804993 0.053716414
0.034242548 -0.2376739 -0.120773464 -0.04594444 0.035907537 -0.045002945 -0.056297258 0.040775098
-0.027505705 -0.14609942 -0.059701618 0.018776892 0.037298296 -0.085070096 0.15896937 -0.09026731
00000000: f9de 5fbe 22fc b43d a253 96bd 1e28 7cbe
00000010: acf7 95be 121e ae3e f0fa 16be ac34 713e
00000020: 3f30 b4be 8496 7dbe eb51 50be 5f67 27be
00000030: 12d4 95bb 8480 cabe c434 f53b 0379 d0bc
00000040: dd24 23be 1988 12bd aa37 04be 7fdf 923e
00000050: d1ba e33d cca0 03be ae37 8dbe 5d8c c3bd
00000060: 9ee2 23bd 1c5f 51be e6b1 93bd 88ca 893e
00000070: ee34 0ebe 5edc e0bd d776 79be 7ad5 13be
00000080: 0fa3 de3d ad17 a1be 808e 39bc 0df7 94bd
00000090: dc7b b63d 56cf f5be 2b09 aebe 9fcc 03bf
000000a0: 2e2c 97be 2bf8 0bbc 445a 0e3e 467b 5f3e
000000b0: 4ef5 183d 2c12 563e 0f4c ab3d a496 ddbd
000000c0: 8e18 333e a271 a8bd f8a8 8f3e 7c4b 51be
000000d0: 4695 8ebe 5b0b 023e c5fa d9bd 609b 323d
000000e0: 96a5 4d3e 876e a4bd 94ae 83bd e9a4 3abd
000000f0: 56a0 5abe 14af ae3d cc82 e83d eb40 9b3d
00000100: 86f8 933e 82e1 d6be ffa3 d93c 2314 4e3e
00000110: 27d4 9fbc 9d5c 25be 65a1 1a3e 8a60 a3be
00000120: 1815 debd e331 913e 600d ad3c 57d0 3c3e
00000130: 5ba8 813e 6c74 373e 72e8 38bd 22af d9bd
00000140: b5c9 003d 1918 253e eb99 a43c f448 e03d
00000150: 1f7e 143d d468 0a3c 4d4e 0cbc 5c5c e13d
00000160: 6a19 493d 0c23 853d 4bcb 0bbd b2b2 20be
00000170: d827 12be 4422 e73d 23b1 ac3e 6b8c 073e
00000180: 006d b33c e0aa d3bd 048a e13d 96b7 babc
00000190: 950b 343d 9c6c 19bd 49df 043d 11b6 9bbe
000001a0: 77a4 373d 3bb3 02be 3be6 2cbe e544 d03b
000001b0: 20d7 ddbd cf82 b53d c21a 103d 6a84 7c3d
000001c0: e823 73ba c48e 443d c631 3cbe 2374 0bbe
000001d0: 072b 08be 8711 0dbe 326f bdbd 8c83 673e
000001e0: c0a9 383e 25f9 dc3d 2580 c5bd 1f28 c9bd
000001f0: 0d3a e53d fcbd 983d 8b0f ae3c bd76 3f3e
00000200: 0501 6c3d 1815 f2be 24c2 9e3d 002a b63c
00000210: cfa5 babd 0944 70be acd6 3cbd 716d 4dbe
00000220: 67e9 e43d bfee 0b3e d5d7 91bb 9fb6 2ebd
00000230: f802 9bbd d02a 893e c11a 833d f385 2ebc
00000240: e9b3 8c38 02fa 6e3d ce08 593c 3512 b53c
00000250: 9d39 6ebe 273e 37be 7427 19be ade7 763e
00000260: 6d28 723c bd28 083e 3a71 06be e1f1 58bc
00000270: ff72 cbbd 4bc7 6a3d e857 a83d 5461 c2bd
00000280: 40c0 0ebe a4da 853d fd7d 33bd cc2d b2bd
00000290: 23bb 01bd 2a21 833d 4fe3 1cbd 6066 a73c
000002a0: 5a5e 5bbe ef5b a0bc 69ae a1bd 8f7d 98be
000002b0: fe5c 10be f55b 4cbd 4777 eab9 55f9 bf3d
000002c0: 571e 09bd 5dd1 09bb 72f8 113b 27f5 603e
000002d0: 0229 8b3d 34dd f1bd 3f1c 41bd 1fad f2bd
000002e0: 5b5c b13b 12da b0be a086 1dbd 951e 013e
000002f0: dce9 573d 5ff1 0b3e 3c02 98b9 6033 993c
00000300: 73a8 c3bd c027 883d 0f3c 01be e2e9 003d
00000310: 2c94 95bd 6b41 b03e 8f0a 08bd e525 bb3d
00000320: 522a 90be 9c94 9f3d 6e7f f2bd 280e 19be
00000330: 89e9 16be e3cd ffbd a0d0 2f3e 1251 0f3e
00000340: 3076 00be a10e 60bd 2fa2 16be 4009 e83e
00000350: da66 0d3e 906e 0c3d cb57 a3bd 5ef5 3abe
00000360: 6812 dc3d 42fb 2dbd ee46 a9bd 654b eb3c
00000370: 09ae 04bd e8d0 cc3d d60a 31be 0116 4c3d
00000380: 9601 ebbb f332 20bd e594 f63d f038 bcbd
00000390: 09e9 343e 8113 b9bd 6257 a23d 5cd5 223e
000003a0: 54e1 68bd 79a7 d1bd 52ac 6ebd 1845 2cbe
000003b0: bc67 2b3e 1abd cdbd 6d07 313c be05 5c3d
000003c0: ea41 0c3d c960 73be 1458 f7bd 3d30 3cbd
000003d0: c813 133d 0255 38bd f497 66bd ca03 273d
000003e0: a553 e1bc 169b 15be af89 74bd ffd1 993c
000003f0: 19c6 183d 3b39 aebd dec8 223e 11de b8bd

MLP.4.bias f4 [32]
-0.07165412 -0.012117891 0.022509689 -0.035866994 -0.0026188362 -0.087799765 -0.039641205 -0.054382104
-0.09051949 -0.041751597 -0.101718344 -0.07646114 0.04208409 -0.06882043 0.053891774 -0.052567445
0.052169014 -0.11513198 0.0640699 -0.019413948 -0.04705338 0.057550374 -0.026776783 -0.0030314876
-0.022912353 0.030677248 0.06156746 0.060491946 -0.028251084 -0.06474221 0.05195089 -0.045940433
00000000: 65bf 92bd 1e8a 46bc 3d66 b83c 45e9 12bd
00000010: c8a0 2bbb 5dd0 b3bd d15e 22bd c5bf 5ebd
00000020: 4862 b9bd b903 2bbd b551 d0bd a897 9cbd
00000030: 5e60 2c3d baf1 8cbd 9fbd 5c3d f650 57bd
00000040: 2daf 553d 51ca ebbd 1437 833d 000a 9fbc
00000050: 0cbb 40bd f1b9 6b3d fc5a dbbc ecab 46bb
00000060: b0b2 bbbc da4e fb3c 292e 7c3d 67c6 773d
00000070: d16e e7bc 9097 84bd 75ca 543d 092c 3cbd

MLP.6.weight f4 [32, 32]
-0.07353104 0.11842676 -9.541668e-06 0.072063416 -0.013329672 -0.21021144 -0.06487033 -0.05731978
0.041260365 -0.10258349 0.10963332 -0.03944503 0.23640394 -0.09553385 -0.08269693 -0.10707807
0.06766277 -0.17410773 -0.030327223 -0.0030238093 0.16349047 -0.06940396 -0.25787565 -0.3194405
-0.049996234 -0.1287748 0.16581234 -0.049844325 0.010876744 0.022553673 0.0052610133 0.170543
-0.22100316 0.1894761 0.121950835 -0.040386632 0.20305166 0.14815211 -0.17416652 0.1564921
-0.08415251 -0.2628301 0.1966266 0.1404963 -0.051273096 -0.27293086 0.091739975 0.033298425
0.105528496 -0.14436081 0.1272443 0.12301788 0.10505095 0.16864641 -0.05222639 -0.12472731
-0.23269194 -0.110632904 0.008301255 0.19344471 -0.016176015 0.099824965 0.03009383 -0.14392689
-0.17900616 0.054522738 0.03322204 0.0986647 -0.014762334 -0.08265187 0.04330476 0.19702823
0.02649772 -0.16758238 0.13014089 0.2420773 0.02596175 0.09258063 0.10803694 0.055111505
-0.10009407 0.00895114 -0.09851733 0.12122779 0.058455333 0.20374022 0.024305284 -0.07729826
-0.28288525 0.004184604 0.11482954 0.15658815 0.031081194 0.087032475 -0.11422645 -0.003051666
-0.14224057 -0.07912017 -0.058476914 -0.117761895 -0.19130431 0.09626039 0.0516704 -0.011497166
-0.17191361 -0.07654363 -0.08520926 -0.14730847 -0.038773343 0.054924548 -0.04335844 0.10002658
-0.02575046 0.070368335 0.07300824 -0.15936795 -0.09102662 -0.013444903 -0.04756181 -0.06918602
0.081735395 -0.05823339 -0.08491205 -0.017090324 -0.09140316 -0.06361958 -0.033858757 -0.25531593
0.0016885204 -0.15274024 -0.15960838 -0.0979117 -0.03362061 -0.052667413 0.14099474 -0.010467135
-0.05481632 -0.08186629 -0.13727726 0.09157717 -0.20711918 0.03533758 -0.04825004 0.225147
-0.026407076 0.23694995 -0.32113254 0.19340032 -0.05967589 0.05950663 -0.041325253 0.12737256
0.2490682 -0.15729383 -0.16598041 -0.12441639 0.16379014 0.013561294 0.019204674 0.0267811
0.05625953 -0.05790959 0.055883814 -0.031420194 -0.018075543 -0.19890217 -0.0529799 -0.22949338
0.053431418 -0.08679937 -0.09745619 0.0984267 0.17026553 -0.15268755 0.15303081 -0.109405234
0.052776054 -0.114654645 0.22811323 0.06653908 -0.23266117 0.049117036 -0.02871513 0.0045351274
-0.0798955 0.19230887 0.13184172 0.15736102 -0.10643665 0.08943829 0.025339687 -0.15527984
0.15142632 -0.08102894 -0.19158286 0.0030132046 -0.050682686 0.1399128 0.15866332 0.008624258
0.044123672 0.07085176 -0.21466725 -0.16009682 -0.002385426 0.21355842 -0.09151756 -0.07645932
-0.059343923 0.095337935 -0.30491316 -0.11301623 0.18089548 -0.1803295 0.052225176 0.14233987
0.4974936 -0.22243287 -0.25994754 0.014947005 0.030684782 0.08848905 -0.19979638 -0.043373194
-0.25936288 0.10285726 0.16662045 -0.13678922 -0.0727733 0.0342558 0.008690694 -0.020946182
0.15215774 -0.17627199 -0.026425775 -0.08977572 0.08400957 0.06835351 -0.16219153 -0.16158085
-0.09949274 -0.19195528 0.0010670322 -0.048688967 -0.032147013 0.033282984 0.09618826 0.12063477
0.24143668 -0.17967129 -0.1354414 -0.01418715 -0.014440906 -0.098317586 -0.07764327 -0.041408136
00000000: 7197 96bd bb89 f23d 2715 20b7 fc95 933d
00000010: b264 5abc ab41 57be bcda 84bd 25c8 6abd
00000020: a100 293d 4b17 d2bd 6f87 e03d 1d91 21bd
00000030: e013 723e 40a7 c3bd 025d a9bd bf4b dbbd
00000040: c792 8a3d 4c49 32be cc70 f8bc 1a2b 46bb
00000050: 0c6a 273e aa23 8ebd 4708 84be b58d a3be
00000060: dac8 4cbd 8bdd 03be b6ca 293e 9029 4cbd
00000070: 5f34 323c 7bc2 b83c 9464 ac3b d3a2 2e3e
00000080: a74e 62be 0606 423e 5cc1 f93d 746c 25bd
00000090: c6ec 4f3e 30b5 173e b558 32be 773f 203e
000000a0: 2758 acbd ab91 86be 7c58 493e 43de 0f3e
000000b0: bd03 52bd 98bd 8bbe 2be2 bb3d ee63 083d
000000c0: 531f d83d 52d3 13be 544c 023e ccf0 fb3d
000000d0: f424 d73d a5b1 2c3e 57eb 55bd 0871 ffbd
000000e0: cc46 6ebe 8193 e2bd fd01 083c 5f16 463e
000000f0: 9083 84bc 0871 cc3d 5687 f63c 9261 13be
00000100: 644d 37be 3c53 5f3d d513 083d b810 ca3d
00000110: b7dd 71bc 6245 a9bd 5560 313d c5c1 493e
00000120: bf11 d93c b79a 2bbe a743 053e 1de3 773e
00000130: bcad d43c ea9a bd3d 7942 dd3d 9abc 613d
00000140: 1ffe ccbd cda7 123c 74c3 c9bd 4746 f83d
00000150: dc6e 6f3d 47a1 503e e01b c73c 8d4e 9ebd
00000160: 56d6 90be 011f 893b c02b eb3d a558 203e
00000170: fd9d fe3c 153e b23d 8fef e9bd 76fe 47bb
00000180: 83a7 11be c109 a2bd 7d85 6fbd 262d f1bd
00000190: 47e5 43be 2b24 c53d 57a4 533d 9c5e 3cbc
000001a0: 1f0a 30be e8c2 9cbd 3182 aebd 08d8 16be
000001b0: ccd0 1ebd 90f8 603d 9f98 31bd bcda cc3d
000001c0: a1f2 d2bc 461d 903d 5885 953d 5a31 23be
000001d0: 2a6c babd 0348 5cbc 2cd0 42bd 66b1 8dbd
000001e0: e364 a73d 2386 6ebd 5ee6 adbd 0201 8cbc
000001f0: 9431 bbbd fb4a 82bd 7baf 0abd c5b8 82be
00000200: 5851 dd3a f067 1cbe 6170 23be ee85 c8bd
00000210: c4b5 09bd c9b9 57bd ed60 103e 597e 2bbc
00000220: 1487 60bd 83a9 a7bd 6992 0cbe d08c bb3d
00000230: 0d17 54be 23be 103d d5a1 45bd ef8c 663e
00000240: a753 d8bc 02a3 723e 7c6b a4be bc0a 463e
00000250: b56e 74bd 39bd 733d ab44 29bd f46d 023e
00000260: bc0b 7f3e a211 21be c5f6 29be 05ce febd
00000270: 9ab8 273e 3130 5e3c 1f53 9d3c 0a64 db3c
00000280: 6570 663d 9b32 6dbd 6de6 643d 76b2 00bd
00000290: 2913 94bc 03ad 4bbe 7401 59bd 5000 6bbe
000002a0: e7da 5a3d dec3 b1bd 1c97 c7bd f093 c93d
000002b0: 165a 2e3e 205a 1cbe 1cb4 1c3e da0f e0bd
000002c0: b42b 583d 0ed0 eabd 8496 693e a445 883d
000002d0: bb3e 6ebe f22e 493d fe3b ebbc 689b 943b
000002e0: 40a0 a3bd 9eec 443e 8401 073e 3f23 213e
000002f0: 75fb d9bd 6c2b b73d 2d95 cf3c ae01 1fbe
00000300: 800f 1b3e 80f2 a5bd 4c2e 44be 2f79 453b
00000310: a698 4fbd 4d45 0f3e a378 223e c34c 0d3c
00000320: 06bb 343d ba1a 913d bbd1 5bbe 6cf0 23be
00000330: cf54 1cbb 0faf 5a3e 8f6d bbbd b496 9cbd
00000340: 9d12 73bd 8940 c33d 941d 9cbe 0e75 e7bd
00000350: aa3c 393e 4ca8 38be 11ea 553d 8bc1 113e
00000360: 7bb7 fe3e 71c5 63be d817 85be 48e4 743c
00000370: a75e fb3c bf39 b53d 6c97 4cbe 17a8 31bd
00000380: 36cb 84be d4a6 d23d 8d9e 2a3e 7912 0cbe
00000390: 2b0a 95bd cf4f 0c3d 6a63 0e3c 5497 abbc
000003a0: 3dcf 1b3e a580 34be de7a d8bc 55dc b7bd
000003b0: 360d ac3d edfc 8b3d 8915 26be 7375 25be
000003c0: dac2 cbbd ed8f 44be a9db 8b3a 156e 47bd
000003d0: 96ac 03bd bd53 083d 5afe c43d 5d0f f73d
000003e0: 2d3b 773e c0fb 37be 26b1 0abe 3871 68bc
000003f0: 8d99 6cbc bb5a c9bd 6f03 9fbd 949b 29bd

MLP.6.bias f4 [32]
-0.008127311 0.08225166 0.053144515 -0.05940603 -0.196002 0.09672484 -0.07632695 -0.094235905
-0.06131512 -0.14976478 -0.10499769 -0.10203445 -0.13714303 -0.06668726 -0.037633047 0.05521893
-0.043957017 0.0976081 -0.17894532 -0.059400734 0.060835723 -0.06029171 0.074181065 0.089617066
-0.13441552 -0.14260502 0.04342029 -0.055120096 0.09234698 -0.09451292 -0.14990015 -0.058340017
00000000: 6a28 05bc 8f73 a83d 10ae 593d bd53 73bd
00000010: c0b4 48be ac17 c63d 4e51 9cbd c1fe c0bd
00000020: 9025 7bbd f05b 19be 0709 d7bd 70f7 d0bd
00000030: 396f 0cbe 5593 88bd 1c25 1abd 3f2d 623d
00000040: 460c 34bd c1e6 c73d 713d 37be 2f4e 73bd
00000050: e12e 793d 71f4 76bd 3eec 973d 2789 b73d
00000060: 39a4 09be 0d07 12be 79d9 313d 9cc5 61bd
00000070: 6a20 bd3d fd8f c1bd 6d7f 19be f1f5 6ebd

MLP.8.weight f4 [32, 32]
0.14629915 0.2678643 -0.0065108584 -0.11496945 0.008060709 0.044710528 -0.034833852 0.10696799
0.14064299 -0.014035983 -0.115049295 -0.015657516 -0.06072025 -0.10284825 -0.13096926 -0.062901914
-0.13903952 0.07609927 -0.18027791 0.0056711817 0.01651478 -0.051944513 -0.011617287 0.05692611
-0.05127194 -0.15559305 -0.07890462 0.08640672 0.023738394 -0.114055775 -0.28690046 -0.017486818
0.043097567 0.03798205 -0.051801655 0.0114451805 0.45411414 -0.077883504 0.19291267 0.011121366
-0.10437159 -0.032616902 0.11435372 -0.0197284 0.0054817987 0.21808277 0.08428406 -0.0664406
-0.05754706 -0.09074681 0.13961434 -0.037842136 0.08858053 -0.02259884 0.05111306 -0.07081272
0.035725337 0.22116628 -0.042989142 0.0872147 -0.025881955 0.25643876 -0.30133167 -0.022588294
0.00216429 0.009262292 0.06622555 -0.13942859 -0.11812469 0.24386981 -0.12662621 -0.074515104
0.0561983 -0.051368948 -0.23543826 -0.038539384 -0.14512974 0.024221731 0.030351905 0.1230204
0.024683133 0.14604641 -0.097113594 -0.16205545 -0.106080554 -0.17590293 0.0056047793 0.18614763
-0.13124612 -0.026505662 -0.012490518 -0.13815552 0.04523329 -0.00044786697 -0.076462686 0.07221444
0.09725815 0.12342314 0.026256373 -0.07787592 0.04644042 -0.035909805 -0.07281815 0.13256866
0.04127428 0.034278307 0.02364658 -0.053930834 0.15348396 -0.12994196 -0.2772815 0.026261477
-0.12579022 0.117005706 0.030406188 0.04084022 -0.11159069 -0.12852764 0.031268336 -0.013181006
0.009355901 -0.2145523 -0.19830912 0.20943877 0.07783401 0.1782868 -0.027050039 -0.074245654
6.449889e-05 0.0020217788 -0.100748755 -0.03458283 0.09182991 -0.17676505 0.07498073 -0.16768907
-0.06024862 0.046617437 0.20276047 0.04980463 0.13448364 0.00055788073 -0.10259582 -0.08044375
0.119592465 -0.0897276 -0.08866358 -0.08843112 0.048903223 -0.2557894 0.051493216 -0.029970022
-0.11918564 -0.05085831 -0.117426425 0.07774712 0.008838988 0.041598205 0.0036214243 0.040483274
-0.13420866 0.16781865 -0.098412365 0.20417885 -0.060059115 -0.008364743 -0.21084426 -0.0093767475
0.02906292 -0.23183821 -0.1387349 0.09882856 -0.2365128 -0.11376674 0.041253548 -0.045781013
0.07154908 0.19054699 0.10358127 0.023852635 0.3404523 0.17785344 0.027107693 0.18054546
-0.19136669 -0.07786858 -0.03129755 0.038838964 0.26226535 -0.014498515 -0.06552354 -0.114609644
0.15757605 -0.0021800867 0.14065789 -0.017331809 0.075737655 0.099666305 -0.1460326 0.047520638
0.12463507 -0.09030218 -0.051689945 -0.060655642 0.092673115 -0.13425286 -0.121002674 0.07456791
-0.03553739 0.26506847 -0.0853708 -0.052396204 0.10248877 -0.1067437 -0.048973825 -0.020902187
0.06470912 -0.071108304 0.14220902 0.046166655 0.28119326 0.07642047 -0.23697755 -0.09602564
0.14293258 -0.05584282 -0.034654815 -0.17408574 -0.020190086 -0.011196226 -0.22771452 -0.21782216
-0.07427852 -0.118234366 -0.06371802 0.0599669 0.010849684 -0.11328698 -0.010559527 0.08491463
0.054352973 0.0720999 -0.045989737 -0.11357198 -0.10635173 0.16346952 -0.06919553 0.050431885
0.06583101 0.02095906 -0.042897046 -0.06456956 0.14579897 -0.09496128 -0.100084424 -0.059395015
00000000: 72cf 153e 8225 893e 0a59 d5bb 1a75 ebbd
00000010: 1011 043c 6322 373d f1ad 0ebd 0912 db3d
00000020: b704 103e 2ef7 65bc f79e ebbd 3144 80bc
00000030: ccb5 78bd 1aa2 d2bd ce1c 06be b8d2 80bd
00000040: 6060 0ebe efd9 9b3d c69a 38be 52d5 b93b
00000050: 014a 873c c5c3 54bd 6f56 3ebc 5a2b 693d
00000060: 8702 52bd c953 1fbe bf98 a1bd 02f6 b03d
00000070: 0577 c23c 1396 e9bd 9ee4 92be 8440 8fbc
00000080: 1387 303d 1193 1b3d f92d 54bd 9184 3b3c
00000090: a681 e83e 6381 9fbd e68a 453e 6436 363c
000000a0: c6c0 d5bd 4d99 05bd 4832 ea3d 749d a1bc
000000b0: a9a0 b33b 1751 5f3e 1f9d ac3d 0212 88bd
000000c0: 77b6 6bbd 77d9 b9bd 10f7 0e3e 5b00 1bbd
000000d0: b569 b53d 3421 b9bc ee5b 513d 4206 91bd
000000e0: bb54 123d 6a79 623e 6215 30bd 9f9d b23d
000000f0: 6506 d4bc f14b 833e 2548 9abe 160b b9bc
00000100: c3d6 0d3b dec0 173c 43a1 873d 5ec6 0ebe
00000110: 5ceb f1bd 02b9 793e 4daa 01be 609b 98bd
00000120: 3030 663d 3f68 52bd ba16 71be 79db 1dbd
00000130: e49c 14be a76c c63c 8fa4 f83c 1ff2 fb3d
00000140: 4834 ca3c 318d 153e 7ee3 c6bd ddf1 25be
00000150: c340 d9bd e61f 34be 4ca8 b73b 7c9d 3e3e
00000160: 6265 06be 6722 d9bc 08a5 4cbc a478 0dbe
00000170: 8b46 393d b0cf eab9 7898 9cbd 2ae5 933d
00000180: 482f c73d 45c5 fc3d 9b17 d73c 697d 9fbd
00000190: 4f38 3e3d 2916 13bd af21 95bd 14c0 073e
000001a0: 380f 293d 6967 0c3d 79b6 c13c 94e6 5cbd
000001b0: e62a 1d3e 810f 05be d7f7 8dbe 4f22 d73c
000001c0: 27cf 00be b0a0 ef3d 6616 f93c 1348 273d
000001d0: a989 e4bd c09c 03be 3a13 003d 25f5 57bc
000001e0: 7e49 193c 99b3 5bbe 8c11 4bbe 1e77 563e
000001f0: 7067 9f3d d190 363e 0b98 ddbc 1b0e 98bd
00000200: 9443 8738 d27f 043b 5d55 cebd baa6 0dbd
00000210: 5211 bc3d e601 35be 7f8f 993d afb6 2bbe
00000220: 42c7 76bd edf1 3e3d 71a0 4f3e f1ff 4b3d
00000230: 14b6 093e be3e 123a c21d d2bd b1bf a4bd
00000240: e5ec f43d 1bc3 b7bd 4095 b5bd 601b b5bd
00000250: bf4e 483d d4f6 82be 8dea 523d b183 f5bc
00000260: 9a17 f4bd ce50 50bd 447d f0bd e239 9f3d
00000270: 67d1 103c e162 2a3d 6b55 6d3b cad1 253d
00000280: ff6d 09be a7d8 2b3e 6c8c c9bd 4314 513e
00000290: 8c00 76bd 460c 09bc 8fe7 57be eea0 19bc
000002a0: 5c15 ee3c ff66 6dbe 8610 0ebe a166 ca3d
000002b0: 6930 72be 89fe e8bd 7bf9 283d df84 3bbd
000002c0: 5388 923d c01e 433e 6b22 d43d 9a66 c33c
000002d0: c44f ae3e 361f 363e f410 de3c e9e0 383e
000002e0: a1f5 43be 9079 9fbd dc31 00bd 9b15 1f3d
000002f0: a547 863e 2e8b 6dbc 3531 86bd 76b8 eabd
00000300: 9e5b 213e c9df 0ebb 9f08 103e 70fb 8dbc
00000310: 581c 9b3d d91d cc3d 9289 15be 00a5 423d
00000320: ac40 ff3d 59f0 b8bd d6b8 53bd 0d72 78bd
00000330: 67cb bd3d 9579 09be 40d0 f7bd 0fb7 983d
00000340: a78f 11bd 0eb7 873e e3d6 aebd 679d 56bd
00000350: a2e5 d13d 719c dabd c798 48bd 103b abbc
00000360: 3786 843d 3ba1 91bd 3e9f 113e 3f19 3d3d
00000370: 90f8 8f3e 5682 9c3d 3eaa 72be 17a9 c4bd
00000380: eb5c 123e 71bb 64bd 35f2 0dbd 8843 32be
00000390: ae65 a5bc 6070 37bc ff2d 69be c60c 5fbe
000003a0: 561f 98bd dc24 f2bd 987e 82bd da9f 753d
000003b0: dfc2 313c 0103 e8bd de01 2dbc b9e7 ad3d
000003c0: 39a1 5e3d 1da9 933d bc5f 3cbd 6d98 e8bd
000003d0: f0ce d9bd 8e64 273e 63b6 8dbd aa91 4e3d
000003e0: 69d2 863d 56b2 ab3c d0b4 2fbd 0c3d 84bd
000003f0: 534c 153e 0f7b c2bd 10f9 ccbd 3048 73bd

MLP.8.bias f4 [32]
0.12824088 -0.063063666 0.12588614 0.10397013 -0.062194858 0.1329665 0.13171726 0.118021786
0.101314604 0.12596591 -0.06811626 -0.06284805 -0.063091286 -0.14649218 -0.063801266 -0.06497881
-0.13324498 0.07841951 -0.060819022 -0.06291253 -0.038372673 -0.10201083 0.0830396 0.10683284
-0.08635828 -0.06635205 0.1248589 -0.049463324 0.09730658 0.09856778 -0.09231222 0.13114363
00000000: 9451 033e 8627 81bd 4ce8 003e 4bee d43d
00000010: 09c0 7ebd 5f28 083e e4e0 063e 68b5 f13d
00000020: 087e cf3d 35fd 003e 8a80 8bbd 7ab6 80bd
00000030: 0136 81bd 0c02 16be 3daa 82bd 9c13 85bd
00000040: 5f71 08be 689a a03d 5e1d 79bd 49d8 80bd
00000050: aa2c 1dbd 0eeb d0bd aa10 aa3d 2dcb da3d
00000060: 9cdc b0bd 95e3 87bd 06b6 ff3d 0e9a 4abd
00000070: ac48 c73d e7dd c93d 300e bdbd 844a 063e

MLP.10.weight f4 [1, 32]
0.1561542 -0.116572395 0.26582703 0.058172364 -0.10168843 0.22333178 0.20852157 0.14897054
0.06250367 0.13711338 -0.024554163 -0.17194545 -0.04929591 -0.14256851 -0.07887615 0.002867395
-0.21827537 0.024299493 -0.0359774 -0.06221692 -0.0025835924 -0.06101461 0.03982278 0.07639398
-0.065124914 0.04187312 0.13049921 0.002743291 0.049313266 0.04347029 -0.047863636 0.186617
00000000: e3e6 1f3e 82bd eebd 7b1a 883e 2546 6e3d
00000010: 0642 d0bd 16b1 643e ae86 553e bc8b 183e
00000020: ed01 803d 7367 0c3e d025 c9bc 7812 30be
00000030: 82ea 49bd 7bfd 11be d289 a1bd e8ea 3b3b
00000040: 9483 5fbe bb0f c73c 0a5d 13bd 2bd7 7ebd
00000050: 7d51 29bb 75ea 79bd 361d 233d 7274 9c3d
00000060: 3660 85bd 2683 2b3d 96a1 053e c9c8 333b
00000070: b5fc 493d e70d 323d a90c 44bd 8718 3f3e
