new_ver1/model_parameter/batch256_epoch200.pth (torch, 7724 bytes, 5 tensors)

MLP.0.weight f4 [32, 3]
0.23139016 -0.06712411 0.19357999 0.21113649 -0.28973538 0.14353673 0.38005474 0.12156103
-0.01964926 -0.25412795 0.04022054 -0.17151035 -0.45005998 -0.16289835 0.1831276 0.013585356
-0.19565736 -0.010361699 0.23281841 -0.13764685 0.15799542 -0.10370839 0.19327973 -0.14621158
0.16978073 -0.25642154 0.18168688 0.0070445454 -0.5879647 -0.070860066 -0.0043161735 -0.22638501
0.022316732 0.16827068 -0.41753867 0.3850972 -0.15586624 0.025838552 -0.111384235 -0.30528617
0.17508307 -0.12288094 -0.24308541 0.3403749 0.038546078 0.32910618 -0.022321759 0.07907178
0.2407223 -0.21748641 0.019238813 0.25486252 -0.077433504 0.20261325 0.27910727 0.10983878
0.008652918 0.35755846 -0.078180835 0.0681451 0.2050968 -0.22478092 0.19275121 -0.308524
0.04312733 -0.18709365 0.33305162 -0.233079 0.06864171 -0.03488669 0.20152101 -0.2039158
0.22658934 -0.23214848 0.004155 0.13989015 0.12814003 -0.123007014 -0.016516656 -0.10710537
-0.18053278 -0.555504 -0.434514 0.18135291 -0.31587446 0.16942117 -0.17381163 0.22746317
0.06825193 0.11176883 -0.04263474 -0.084274285 -0.0050550564 0.415694 -0.12511566 0.13312742
00000000: 8bf1 6c3e 5e78 89bd d539 463e 2a34 583e
00000010: 3258 94be 4bfb 123e 8996 c23e fdf4 f83d
00000020: 7cf7 a0bc 0f1d 82be 4bbe 243d 69a0 2fbe
00000030: 436e e6be d3ce 26be cd85 3b3e 1d95 5e3c
00000040: 675a 48be 1ec4 29bc f367 6e3e 4cf3 0cbe
00000050: 8dc9 213e 1065 d4bd 1feb 453e 7db8 15be
00000060: 00db 2d3e af49 83be 200c 3a3e eed5 e63b
00000070: db84 16bf 151f 91bd b06e 8dbb 79d1 67be
00000080: 94d1 b63c 264f 2c3e a1c7 d5be 762b c53e
00000090: 669b 1fbe 5fab d33c 6b1d e4bd 784e 9cbe
000000a0: fa48 333e 01a9 fbbd 62eb 78be 9e45 ae3e
000000b0: 7ee2 1d3d 9b80 a83e 1fdc b6bc 63f0 a13d
000000c0: e87f 763e c2b4 5ebe b79a 9d3c 577d 823e
000000d0: 7595 9ebd d979 4f3e 26e7 8e3e 27f3 e03d
000000e0: f8c4 0d3c e711 b73e 461d a0bd a88f 8b3d
000000f0: e504 523e f82c 66be 9360 453e dcf6 9dbe
00000100: 48a6 303d 7a95 3fbe be85 aa3e 43ac 6ebe
00000110: 0694 8c3d 59e5 0ebd 865b 4e3e 4ecf 50be
00000120: 0907 683e 55b8 6dbe ab26 883b 5d3f 0f3e
00000130: 2437 033e 1aeb fbbd f04d 87bc 0f5a dbbd
00000140: 96dd 38be 8335 0ebf 9e78 debe 94b4 393e
00000150: 4cba a1be be7c 2d3e adfb 31be 1bec 683e
00000160: abc7 8b3d 0ee7 e43d c4a1 2ebd ff97 acbd
00000170: e3a4 a5bb d8d5 d43e 521e 00be 8e52 083e

MLP.0.bias f4 [32]
-0.043881986 -0.17076372 -0.014384733 0.020820813 0.27187258 -0.11617647 -0.034271054 0.2329869
-0.08390723 -0.11477511 -0.13922442 -0.084778726 -0.04513958 0.06246087 0.3255083 -0.018373571
-0.06353141 -0.054632906 -0.014189538 -0.044677123 -0.18052271 0.035479654 -0.0994314 0.24882016
-0.07774317 0.008933143 -0.11987801 0.3828318 0.12361852 -0.026905484 -0.12275431 -0.15426154
00000000: 99bd 33bd afdc 2ebe f1ad 6bbc 6990 aa3c
00000010: e232 8b3e eeed edbd ce5f 0cbd 1e94 6e3e
00000020: 8ed7 abbd 360f ebbd d990 0ebe 78a0 adbd
00000030: 48e4 38bd f8d6 7f3d 06a9 a63e 2c84 96bc
00000040: c21c 82bd c1c6 5fbd 3c7b 68bc 5cff 36bd
00000050: f2da 38be 1d53 113d b1a2 cbbd b6ca 7e3e
00000060: d037 9fbd 515c 123c 9a82 f5bd 8802 c43e
00000070: b52b fd3d e468 dcbc 9d66 fbbd bdf6 1dbe

MLP.2.weight f4 [32, 32]
-0.043071758 -0.21244988 -0.05287127 0.07213243 -0.113685966 0.13990468 0.0028935266 0.43914986
-0.18842237 -0.077937946 -0.08840389 0.11040748 -0.10493707 -0.42678216 0.09308255 -0.14168705
0.05179475 -0.08140234 0.101612106 0.09930457 -0.10947974 -0.07047262 0.036995478 0.39632115
0.11868313 0.05727707 -0.15921299 -0.12183571 -1.2492573 -0.14159426 0.016139233 -0.07335216
0.08664106 0.40964052 -0.05527729 -0.1354718 -0.61309075 0.12999867 0.16144761 -0.6879157
0.2046193 0.28818968 0.2910645 0.157443 -0.05664293 -0.18198794 -0.6102154 0.13540281
0.038576193 0.23976812 0.00036656542 0.113704905 0.53040296 -0.26511496 0.19882649 -0.40929198
-0.043947082 -0.07098249 0.0070070648 -0.50794137 -0.12774765 0.035293493 0.19211888 0.077027634
-0.24613887 0.07764195 -0.15751806 0.19159229 -0.03306293 -0.033019092 -0.22822888 -0.22340526
-0.10327355 -0.06925367 -0.1490729 -0.12734775 -0.06521133 0.2096046 -0.02495853 0.12414103
-0.15448861 -0.033998474 -0.22257748 -0.08377204 0.06471995 0.04053023 0.09723602 0.12273315
-0.0089709265 -0.0031197532 -0.17339857 0.20193546 0.12405716 -0.10579242 -0.15353496 0.03423036
0.018731585 -0.12383161 -0.04868985 -0.118157566 0.060612984 -0.064786024 -0.002662185 0.22366385
-0.22623265 -0.061554447 -0.1507487 -0.009247426 0.07169267 -0.10953424 0.043394394 -0.13485405
-0.045844745 -0.17405432 -0.13456213 -0.05109981 -0.09778717 0.12808283 -0.1834786 0.018206004
0.09063003 -0.21907072 0.0020701853 -0.25101697 -0.05350139 0.031358127 0.014995469 0.0665904
-0.0084766485 0.36061004 -0.011529454 -0.12104615 -0.7945058 0.122160435 0.18298215 -0.63664365
0.18193242 0.15806656 0.16212489 0.39097008 -0.16383268 -0.050798364 -0.4683609 -0.055420864
0.12796402 0.12470303 0.1521983 0.034309357 0.2845235 -0.16068716 0.16202135 -0.38054445
0.18238455 -0.14908186 0.15898375 -0.36897102 -0.2284652 0.053483315 0.15853171 -0.007966348
-0.0868434 0.10036037 0.0008811169 0.09492011 -0.13166824 -0.30026284 -0.049874607 -0.05132713
-0.2586397 -0.099044375 -0.071077615 -0.11506558 -0.1422702 0.1680318 0.0102898525 -0.039944567
-0.14706777 0.053621646 -0.16014662 -0.119630575 0.09245684 0.05535436 -0.006990046 -0.1442419
-0.02905915 -0.10851985 -0.07093453 0.14786607 -0.0033316268 -0.21962918 -0.17774779 -0.039505288
-0.028289653 -0.022902872 0.054560788 0.22525401 -0.17709385 0.047197506 -0.068061166 0.17567855
-0.06454426 -0.054162867 0.03193796 0.22838955 0.11562481 -0.006328696 -0.1680103 -0.09736192
0.08107139 -0.051420998 -0.25027752 -0.067639954 -0.00075239333 0.02168683 0.10580634 0.1254648
-0.14521173 -0.11353215 -0.08482987 -0.015349726 -0.0061536618 -0.16592531 -0.029000098 0.016674384
0.1262666 0.3549014 0.052727412 -0.09291044 -0.7487247 0.12743479 0.27548727 -0.34055263
0.14183237 0.25885496 -0.11908095 0.26428226 -0.096497566 -0.32811677 -0.5457519 0.11140484
0.21704827 0.011549399 0.22686216 0.1867215 0.23292072 -0.11360869 0.20677672 -0.33000174
0.3584699 -0.16216144 0.0049313465 -0.74515295 -0.32245025 0.11695223 0.12240862 0.20332322
00000000: 036c 30bd 768c 59be 8b8f 58bd 2bba 933d
00000010: 30d4 e8bd 2c43 0f3e 52a1 3d3b 40d8 e03e
00000020: cbf1 40be ee9d 9fbd 190d b5bd 511d e23d
00000030: 3fe9 d6bd 3183 dabe 10a2 be3d 6916 11be
00000040: bb26 543d 45b6 a6bd 021a d03d 3260 cb3d
00000050: ea36 e0bd f353 90bd 9288 173d 9bea ca3e
00000060: 2410 f33d 5c9b 6a3d bb08 23be 0085 f9bd
00000070: aae7 9fbf 16fe 10be 6d36 843c a839 96bd
00000080: de70 b13d 67bc d13e 716a 62bd 1fb9 0abe
00000090: 84f3 1cbf 5f1e 053e 8652 253e 3e1b 30bf
000000a0: b987 513e 998d 933e 6806 953e bd38 213e
000000b0: 6b02 68bd 0c5b 3abe 1437 1cbf 09a7 0a3e
000000c0: 1202 1e3d c685 753e 942f c039 1ede e83d
000000d0: 7dc8 073f 26bd 87be 2c99 4b3e b88e d1be
000000e0: db01 34bd 455f 91bd 859b e53b 7208 02bf
000000f0: 48d0 02be e98f 103d d0ba 443e aac0 9d3d
00000100: d40b 7cbe be02 9f3d 6a4c 21be c530 443e
00000110: ff6c 07bd 073f 07bd d5b4 69be 59c4 64be
00000120: 1581 d3bd ded4 8dbd 91a6 18be 7367 02be
00000130: 858d 85bd 97a2 563e d575 ccbc a73d fe3d
00000140: 4332 1ebe fc41 0bbd 5aeb 63be ad90 abbd
00000150: e58b 843d 0703 263d ae23 c73d 855b fb3d
00000160: cbfa 12bc c674 4cbb 658f 31be 2bc8 4e3e
00000170: ae11 fe3d b2a9 d8bd 4538 1dbe 2235 0c3d
00000180: fb72 993c 6d9b fdbd 026f 47bd 98fc f1bd
00000190: 5245 783d 89ae 84bd 0e78 2ebb 2308 653e
000001a0: 88a9 67be 8420 7cbd de5d 1abe 8482 17bc
000001b0: 9bd3 923d 7d53 e0bd 52be 313d 2e17 0abe
000001c0: b3c7 3bbd 4c3b 32be a8ca 09be 094e 51bd
000001d0: a444 c8bd 2528 033e d0e1 3bbe c224 953c
000001e0: 3d9c b93d 1354 60be f2ab 073b 4c85 80be
000001f0: 4624 5bbd 6171 003d 8eaf 753c 8c60 883d
00000200: a4e1 0abc e1a1 b83e 09e6 3cbc 0be7 f7bd
00000210: bb64 4bbf 402f fa3d ac5f 3b3e 14fb 22bf
00000220: 7e4c 3a3e 33dc 213e 1104 263e 3b2d c83e
00000230: c1c3 27be f211 50bd 00cd efbe fd00 63bd
00000240: 0009 033e 4d64 ff3d dfd9 1b3e f887 0c3d
00000250: 10ad 913e 2d8b 24be ede8 253e b9d6 c2be
00000260: 04c3 3a3e eaa8 18be a3cc 223e c5e9 bcbe
00000270: c8f2 69be 5211 5b3d 2356 223e 4985 02bc
00000280: f4da b1bd bd89 cd3d c1fa 663a 7a65 c23d
00000290: 0ad4 06be 0dbc 99be 5149 4cbd 663c 52bd
000002a0: 6c6c 84be c7d7 cabd 2491 91bd 81a7 ebbd
000002b0: 48af 11be 8710 2c3e c596 283c ea9c 23bd
000002c0: ef98 16be 5fa2 5b3d 7afd 23be e000 f5bd
000002d0: 035a bd3d 41bb 623d c10c e5bb 26b4 13be
000002e0: 740d eebc a83f debd 1f46 91bd 346a 173e
000002f0: 6c57 5abb 79e6 60be 8403 36be 4cd0 21bd
00000300: b4bf e7bc ce9e bbbc 227b 5f3d fda8 663e
00000310: 1758 35be 2c52 413d a763 8bbd 14e5 333e
00000320: c82f 84bd e2d9 5dbd 61d1 023d f3de 693e
00000330: b3cc ec3d f360 cfbb e40a 2cbe b065 c7bd
00000340: c208 a63d d39e 52bd 6024 80be d186 8abd
00000350: 433c 45ba 94a8 b13c ffb0 d83d d879 003e
00000360: 62b2 14be 8b83 e8bd 48bb adbd 6b7d 7bbc
00000370: a8a4 c9bb 53e8 29be 9d91 edbc b898 883c
00000380: 084c 013e a3b5 b53e b3f8 573d d447 bebd
00000390: 6cac 3fbf 447e 023e ab0c 8d3e ea5c aebe
000003a0: 813c 113e a388 843e b7e0 f3bd 0150 873e
000003b0: 84a0 c5bd ecfe a7be 66b6 0bbf 3928 e43d
000003c0: e741 5e3e b139 3d3c 8e4e 683e ec33 3f3e
000003d0: c582 6e3e acab e8bd 47bd 533e fdf5 a8be
000003e0: 5e89 b73e a60d 26be 2297 a13b 58c2 3ebf
000003f0: 3318 a5be a784 ef3d 5fb1 fa3d f633 503e

MLP.2.bias f4 [32]
-0.01942951 -0.07735859 -0.08056434 -0.060791913 -0.075867616 -0.079775624 -0.08891859 -0.009501329
-0.07385539 -0.048459575 -0.09743972 -0.076921046 -0.20943905 -0.06354809 -0.124554716 0.015587111
-0.15554035 -0.23632774 -0.08469932 -0.053648822 -0.08216129 -0.1101797 0.05200276 0.053942557
0.08380528 -0.04310052 0.009198855 -0.07031568 -0.063010104 0.08220383 -0.119705066 0.07438778
00000000: a32a 9fbc 2e6e 9ebd ebfe a4bd f100 79bd
00000010: 7b60 9bbd 6761 a3bd f31a b6bd 76ab 1bbc
00000020: 7f41 97bd 8c7d 46bd 7a8e c7bd c888 9dbd
00000030: 3177 56be 8025 82bd 8b16 ffbd 1561 7f3c
00000040: f845 1fbe e6ff 71be d676 adbd debe 5bbd
00000050: 2e44 a8bd e5a5 e1bd d900 553d dff2 5c3d
00000060: 1aa2 ab3d 2c8a 30bd cbb6 163c ab01 90bd
00000070: 710b 81bd 7b5a a83d ee27 f5bd 9f58 983d

MLP.4.weight f4 [1, 32]
0.058335725 0.2865246 -0.08080929 0.0076567545 0.26301178 -0.059322838 0.03662648 0.31855345
0.28013062 0.2728054 0.2581787 -0.081209354 -0.1904916 0.013860859 0.24261071 0.32686985
0.04637752 -0.28433546 -0.022590792 0.18276338 0.048817746 0.2889911 0.33234406 0.196434
0.29181147 0.27785408 0.2914258 0.27447733 0.027448203 0.26097757 0.22359774 0.23368134
00000000: 71f1 6e3d 5ab3 923e 577f a5bd 83e5 fa3b
00000010: 7ba9 863e 81fc 72bd a605 163d 7019 a33e
00000020: 486d 8f3e 26ad 8b3e 0030 843e 1751 a6bd
00000030: 3b10 43be a818 633c f16e 783e 7c5b a73e
00000040: 5bf6 3d3d 6b94 91be 5310 b9bc 5326 3b3e
00000050: 1ef5 473d a4f6 933e 0029 aa3e ff25 493e
00000060: 5068 953e e442 8e3e c335 953e 4b88 8c3e
00000070: 0edb e03c da9e 853e cef6 643e 294a 6f3e
