new_ver1/model_parameter/batch256_epoch10000.pth (torch, 7744 bytes, 5 tensors)

MLP.0.weight f4 [32, 3]
-0.046173215 -0.10301384 -0.034184847 0.1643026 -0.27940685 0.28916487 -0.16897698 0.47355795
-0.10078153 -0.6834976 -0.6120151 0.2634446 0.32365745 -0.24716479 0.10506722 -0.3388744
-0.20782118 0.2816581 -0.42082116 0.5502169 -0.64316064 0.15179817 0.5852667 -0.27518353
0.15217963 -0.20210011 0.2817659 0.21008076 -0.57431304 0.27197552 0.31391078 -0.24352701
0.23121668 -0.3373802 0.1435776 -0.28327608 -0.1885762 0.42173082 -0.08489482 0.13424297
-0.5705903 0.40040746 0.2885139 -0.21194905 0.24039443 -0.025261655 -0.2797346 -0.021076981
-0.034314163 0.043924913 -0.06418749 -0.08368119 0.30807814 -0.23626085 0.18374479 -0.076268174
0.34314325 0.16080107 0.27246067 -0.014711921 0.4452093 -0.27781978 0.19133972 0.24417664
-0.46912426 0.24439931 -0.71029055 -0.02014315 0.23718895 -0.1367336 0.12215472 -0.06764415
0.26992103 -0.31921938 0.2940375 0.27929708 -0.32130137 0.25762334 0.27106327 -0.3610716
0.26034585 0.23122416 0.22186506 0.05369375 0.34060246 -0.0444143 0.4810733 -0.32297054
-0.039338294 -0.34857675 -0.46001497 -0.073382 -0.3381389 -0.31638214 -0.16902621 0.014070763
00000000: 2020 3dbd ecf8 d2bd 6905 0cbd f13e 283e
00000010: 6a0e 8fbe 6b0d 943e 4d08 2dbe 3076 f23e
00000020: 8c66 cebd b3f9 2ebf 06ad 1cbf 36e2 863e
00000030: 6eb6 a53e c418 7dbe 7c2d d73d f280 adbe
00000040: 13cf 54be 7e35 903e df75 d7be 04db 0c3f
00000050: 2da6 24bf fb70 1b3e 0ad4 153f dbe4 8cbe
00000060: fad4 1b3e 55f3 4ebe 9f43 903e 691f 573e
00000070: 2e06 13bf 6040 8b3e eab8 a03e 255f 79be
00000080: 11c4 6c3e 19bd acbe 0206 133e 9009 91be
00000090: 1f1a 41be 1aed d73e 56dd adbd fd76 093e
000000a0: 3512 12bf 3502 cd3e 18b8 933e 2c09 59be
000000b0: f529 763e 88f1 cebc 6039 8fbe a2a9 acbc
000000c0: 028d 0cbd 9cea 333d bb74 83bd 0b61 abbd
000000d0: 6bbc 9d3e 5dee 71be 9827 3c3e 7d32 9cbd
000000e0: 79b0 af3e 09a9 243e f77f 8b3e 450a 71bc
000000f0: 79f2 e33e 653e 8ebe 8fee 433e 7109 7a3e
00000100: 0e31 f0be d043 7a3e 9ad5 35bf 3f03 a5bc
00000110: a9e1 723e e503 0cbe 412c fa3d 0489 8abd
00000120: 1733 8a3e b970 a3be 158c 963e 0700 8f3e
00000130: 9d81 a4be 35e7 833e cec8 8a3e 60de b8be
00000140: 0d4c 853e 07c6 6c3e 9830 633e faed 5b3d
00000150: 7263 ae3e c5eb 35bd 3d4f f63e 655c a5be
00000160: 3121 21bd a778 b2be 1587 ebbe 4d49 96bd
00000170: 8b20 adbe d7fc a1be 3515 2dbe 0f89 663c

MLP.0.bias f4 [32]
-0.035931155 -0.271438 0.33080214 0.54467106 -0.09440685 0.023120077 0.2544153 0.1251417
-0.113600075 -0.17796391 -0.09110185 0.029103408 0.32578307 -0.1535778 -0.11194327 -0.059007037
-0.055015758 0.31485218 -0.09178742 -0.027808618 -0.10086778 -0.23014471 0.4019868 -0.13174269
-0.108679175 -0.0963855 -0.20683335 -0.06920127 -0.066508934 0.08211555 0.09470655 0.28304413
00000000: 8c2c 13bd ecf9 8abe e65e a93e 906f 0b3f
00000010: 6158 c1bd 5166 bd3c b942 823e 2525 003e
00000020: 28a7 e8bd 2c3c 36be 9b93 babd 456a ee3c
00000030: 0acd a63e 8043 1dbe 8342 e5bd 5db1 71bd
00000040: 3458 61bd 4e34 a13e 0bfb bbbd e6ce e3bc
00000050: c493 cebd 0eab 6bbe 37d1 cd3e 8ee7 06be
00000060: 3093 debd c365 c5bd 1fcc 53be 65b9 8dbd
00000070: d635 88bd 332c a83d 82f5 c13d 29eb 903e

MLP.2.weight f4 [32, 32]
-0.01091764 0.5305638 -0.64559776 -1.7731485 0.079611145 -0.28728676 -0.12846157 -0.4029712
0.13771118 0.31252456 0.25132146 -0.20412612 -0.7414288 0.54916966 -0.11763582 0.1875888
0.04007685 -0.74317724 0.15158617 -0.18664524 0.28708494 0.25971624 -3.323508 0.13713634
0.11078693 0.2504399 0.2657865 -0.17626305 0.05392979 0.045401536 0.15164824 -0.23770787
-0.051449366 0.34754154 -0.6102953 -1.5470116 0.22926737 -0.41522202 -0.109986074 -0.16987745
0.14223048 0.36148763 0.093153626 -0.29843038 -0.68153507 0.46827167 0.117202155 0.06542005
-0.09271953 -0.7403391 0.10701109 -0.014511774 0.17473304 0.23666702 -3.6102912 0.11656899
0.29402837 0.3023898 0.1879727 0.059376124 0.020942528 0.094967365 -0.022784052 -0.53574866
0.24096881 -0.2889898 -0.055091076 0.05633782 -0.3815817 -0.35066718 -0.14776327 -0.23710427
-0.2551624 -0.29101005 -0.20745446 -0.0066553466 0.14464228 -0.28949633 -0.34956732 0.15328263
-0.07331047 0.27771968 -0.27167878 -0.3389932 -0.46642882 -0.3505418 -1.558953 -0.036092367
-0.26778254 -0.6188138 -0.32468632 -0.12911835 -0.4120283 0.48382252 0.38681874 -0.36762464
0.09162334 0.31556118 -0.17738481 -1.2227298 0.25305116 -0.14468609 -0.1530279 0.18049611
0.21233249 0.3788791 0.20371117 -0.4791095 -0.25836033 0.16658248 0.24007197 0.061837066
-0.10511231 -0.17096737 0.35451555 0.096865594 0.45612305 0.24575162 -1.0010695 0.052493427
0.2233725 0.5154724 0.37575614 0.13096341 0.1970096 -0.13567442 -0.10747414 -0.20965599
0.19783905 0.39929703 -0.6014861 -1.4799722 0.20779417 -0.2888534 -0.2640587 -0.36046448
0.058448855 0.5583419 0.10003299 -0.1962056 -0.7891153 0.6125431 0.2375256 0.19304848
-0.053875376 -0.70339423 0.19245453 -0.3061778 0.19527577 0.60497373 -3.5404563 0.15433268
-0.02131783 0.28270385 0.458318 -0.048363805 0.08994291 -0.0012019161 -0.08906494 -0.72555745
0.143857 0.28969076 -0.6449543 -1.6149112 0.019484906 -0.20643476 -0.26479894 -0.27869648
0.24937578 0.35766602 0.17710611 -0.07981966 -0.70996416 0.24181339 -0.0021829708 -0.109453544
0.0086215865 -0.7916793 0.10545488 -0.08974721 0.09476805 0.25243318 -3.4446323 0.093639314
0.37747732 0.24941394 0.3600453 -0.007822017 0.12954171 -0.024229836 0.0073829237 -0.40617523
-0.24656883 0.38563567 -0.4056768 -1.775863 0.30581337 0.09577189 -0.32564834 0.043745723
0.030116916 0.23965329 0.38730648 -0.25767264 -0.30306336 0.25449446 0.14388387 0.18547647
0.2647015 -0.41280606 0.11484301 0.11899813 0.33315483 0.3900908 -2.1761339 -0.014252455
0.08945547 0.20529091 0.37524486 0.056025114 0.12261071 -0.19516236 -0.28149933 -0.24665205
-0.042857733 -0.048975855 -0.14368474 -0.017241096 0.04565941 -0.15007932 -0.042571202 -0.084722295
-0.15635306 -0.16187856 0.00019358053 0.0066964203 -0.12879115 -0.1556491 -0.10130728 0.07860598
0.053186122 -0.048550025 -0.12349953 0.09362347 0.0065113353 0.002067489 -0.22792037 -0.04121025
0.14291225 0.16110393 -0.0063278987 -0.11039999 -0.14999002 0.05003937 -0.021312777 -0.14742841
00000000: e7df 32bc 07d3 073f e545 25bf 88f6 e2bf
00000010: 2b0b a33d 4017 93be 6e8b 03be 3e52 cebe
00000020: 2904 0d3e 3803 a03e 35ad 803e 7006 51be
00000030: 47ce 3dbf 6296 0c3f 0ceb f0bd 4717 403e
00000040: a027 243d dd40 3ebf 6839 1b3e ee1f 3fbe
00000050: ccfc 923e 87f9 843e 5bb4 54c0 786d 0c3e
00000060: 42e4 e23d a939 803e 2b15 883e 4d7e 34be
00000070: 7ce5 5c3d f6f6 393d ad49 1b3e b169 73be
00000080: 92bc 52bd f7f0 b13e 503c 1cbf 7a04 c6bf
00000090: 11c5 6a3e fb97 d4be 6140 e1bd 5bf4 2dbe
000000a0: dea4 113e e814 b93e 54c7 be3d decb 98be
000000b0: 1579 2ebf 4ec1 ef3e af07 f03d f2fa 853d
000000c0: bde3 bdbd dd86 3dbf a128 db3d cbc2 6dbc
000000d0: 38ed 323e d758 723e 030f 67c0 b9bb ee3d
000000e0: e38a 963e d6d2 9a3e ea7b 403e 6134 733d
000000f0: aa8f ab3c 407e c23d 9fa5 babc d326 09bf
00000100: 87c0 763e 79f6 93be 2ea7 61bd 7cc2 663d
00000110: ad5e c3be a68a b3be 414f 17be 76cb 72be
00000120: a5a4 82be 45ff 94be f16e 54be 1815 dabb
00000130: 1b1d 143e dd38 94be 7dfa b2be 1ff6 1c3e
00000140: cd23 96bd 4631 8e3e 7b19 8bbe 8490 adbe
00000150: c2cf eebe 377a b3be c68b c7bf 97d5 13bd
00000160: cb1a 89be 956a 1ebf 493d a6be 9a37 04be
00000170: 60f5 d2be 96b7 f73e 1b0d c63e 4c39 bcbe
00000180: 05a5 bb3d 3c91 a13e 5da4 35be 6982 9cbf
00000190: ec8f 813e 9728 14be 59b3 1cbe f9d3 383e
000001a0: b06d 593e 71fc c13e a999 503e d74d f5be
000001b0: ce47 84be 9994 2a3e 6dd5 753e dd48 7d3d
000001c0: 1f45 d7bd 1212 2fbe 1083 b53e 7861 c63d
000001d0: f688 e93e 50a6 7b3e 0c23 80bf 5903 573d
000001e0: c3bb 643e 00f6 033f 1c63 c03e 461b 063e
000001f0: e2bc 493e 3cee 0abe 671b dcbd 0fb0 56be
00000200: 5296 4a3e a970 cc3e fefa 19bf bb6f bdbf
00000210: ffc7 543e 98e4 93be b432 87be cd8e b8be
00000220: 1168 6f3d 7fef 0e3f 19de cc3d 1fea 48be
00000230: 7603 4abf a0cf 1c3f e939 733e 80ae 453e
00000240: 6dac 5cbd a511 34bf cd12 453e 56c3 9cbe
00000250: 5ff6 473e 8fdf 1a3f d696 62c0 6309 1e3e
00000260: bba2 aebc 8fbe 903e a8a8 ea3e 2019 46bd
00000270: fd33 b83d 9d89 9dba ae67 b6bd 22be 39bf
00000280: 404f 133e 5952 943e ba1b 25bf 69b5 cebf
00000290: cf9e 9f3c a263 53be ba93 87be 4eb1 8ebe
000002a0: 5d5c 7f3e 0020 b73e 4e5b 353e 7d78 a3bd
000002b0: 36c0 35bf ee9d 773e 2c10 0fbb 2e29 e0bd
000002c0: 8e41 0d3c 7fab 4abf baf8 d73d 63cd b7bd
000002d0: c015 c23d ec3e 813e db74 5cc0 f8c5 bf3d
000002e0: b544 c13e 5e66 7f3e dc57 b83e eb27 00bc
000002f0: 95a6 043e a67d c6bc 74ec f13b 33f6 cfbe
00000300: 8a7c 7cbe 0a72 c53e dfb4 cfbe 7b4f e3bf
00000310: 9293 9c3e 0d24 c43d 61bb a6be b72e 333d
00000320: c0b7 f63c ac67 753e 094d c63e abed 83be
00000330: 1f2b 9bbe 194d 823e 4b56 133e 8bed 3d3e
00000340: f486 873e 515b d3be d032 eb3d 4bb5 f33d
00000350: 4593 aa3e fbb9 c73e c745 0bc0 2183 69bc
00000360: 6e34 b73d c837 523e 1820 c03e 977a 653d
00000370: 531b fb3d a4d8 47be ae20 90be 5b92 7cbe
00000380: 978b 2fbd e89a 48bd 1822 13be 333d 8dbc
00000390: 5d05 3b3d 65ae 19be 245f 2ebd e282 adbd
000003a0: 041b 20be 7ec3 25be e1fb 4a39 a56d db3b
000003b0: d4e1 03be 7a62 1fbe 317a cfbd 2cfc a03d
000003c0: b1d9 593d 64dc 46bd 52ed fcbd a9bd bf3d
000003d0: 0a5d d53b b67e 073b f563 69be 14cc 28bd
000003e0: 9757 123e 6ef8 243e 435a cfbb 6419 e2bd
000003f0: fc96 19be 15f6 4c3d 2298 aebc 79f7 16be

MLP.2.bias f4 [32]
-0.11426241 -0.1793827 -0.28558117 0.06977164 -0.18278007 -0.104298115 -0.0008435 -0.018429382
0.11128991 0.10600462 -0.122081235 -0.095899165 0.07268143 -0.2718581 -0.07581388 0.042181402
-0.1929896 -0.18810418 -0.07840117 0.1263872 -0.08711272 -0.14073884 -0.10172969 -0.14515874
0.04164269 0.01173887 -0.06460546 0.026133368 -0.28504238 -0.14090677 -0.0050315657 -0.1463587
00000000: 6902 eabd 19b0 37be b237 92be 6fe4 8e3d
00000010: b32a 3bbe 409a d5bd 541e 5dba 37f9 96bc
00000020: f7eb e33d f318 d93d ba05 fabd c866 c4bd
00000030: 00da 943d fc30 8bbe 4f44 9bbd 68c6 2c3d
00000040: 119f 45be 629e 40be cb90 a0bd a56b 013e
00000050: 2768 b2bd d81d 10be a857 d0bd 7ea4 14be
00000060: 8691 2a3d 6454 403c de4f 84bd a515 d63c
00000070: 13f1 91be dd49 10be d5df a4bb 0edf 15be

MLP.4.weight f4 [1, 32]
0.5427049 0.34424615 -0.118035235 0.3069467 0.5707316 0.5619059 0.32512534 -0.030160883
0.33117753 0.2670909 0.52779084 0.45133844 0.2670891 -0.16090591 -0.10679159 0.39542338
-0.22309834 -0.23908284 -0.17773068 0.29023165 0.3854779 0.6772388 0.26245606 0.45348424
0.24387948 0.36318526 0.33987793 0.3754695 -0.3415504 0.37429026 0.44739652 0.60945934
00000000: b5ee 0a3f 0841 b03e 75bc f1bd 1e28 9d3e
00000010: 771b 123f 11d9 0f3f d476 a63e f513 f7bc
00000020: 1a90 a93e 23c0 883e 4d1d 073f d515 e73e
00000030: e7bf 883e 85c4 24be 8db5 dabd ef74 ca3e
00000040: e473 64be 22d2 74be 08ff 35be 3e99 943e
00000050: 5c5d c53e 865f 2d3f a460 863e 162f e83e
00000060: 8bbb 793e 6bf3 b93e 7b04 ae3e 8a3d c03e
00000070: b2df aebe f9a2 bf3e 2811 e53e 8705 1c3f
