new_ver1/model_parameter/batch128_epoch10000_Mynetwork_2_64.pth (torch, 21014 bytes, 5 tensors)

MLP.0.weight f4 [64, 3]
-0.1192103 0.006371016 -0.07646595 -0.14269699 -0.16404128 0.07204265 0.125308 -0.27352715
0.113266475 -0.14880988 0.104313165 0.04324918 -0.0828521 0.1730722 -0.09093412 -0.06286813
0.028625993 -0.09015108 0.07083836 0.13104215 0.077000216 0.07330945 -0.1377482 0.018205244
0.017078618 -0.12888367 -0.1218095 0.34474096 -0.11790699 0.075901575 -0.19870132 0.03242183
-0.19730571 -0.1442613 0.0064575067 -0.048927225 -0.14819978 0.007890866 -0.09758843 -0.098563544
-0.19454233 -0.024478223 0.059546035 0.016595257 -0.07526138 0.07853364 -0.09222627 0.07225869
0.07254833 0.11235791 0.13797471 0.23966788 -0.010567725 0.075026825 0.108915456 0.0074220807
0.04994767 0.13693462 -0.13226913 0.0024087543 -0.14710265 0.118989035 0.12418878 0.12035867
-0.028667504 0.08744 -0.17159355 -0.2492368 0.09539066 -0.16237621 -0.07818133 0.0014663234
0.13702133 -0.32426557 0.075160466 0.08295215 -0.014951682 0.011781888 0.03807173 0.08787522
-0.089361526 -0.13088658 -0.13253167 0.07724309 -0.17522667 -0.08521429 -0.23115191 -0.09274664
-0.023949828 -0.10201278 0.28471988 -0.024862906 0.013623444 0.08178277 -0.034130756 0.04172316
0.054802947 0.04709836 -0.11433883 0.26005986 0.08058794 -0.025140502 0.14325112 0.06535049
0.16000748 0.10183894 0.024763523 0.1676252 -0.16777124 -0.0028842771 -0.16142856 -0.053642683
-0.21640587 -0.023182271 -0.059467662 0.020267949 -0.04504319 -0.09118351 0.10607757 -0.0999432
-0.051392995 -0.114268295 0.094408855 0.08109196 -0.11408375 0.075045556 -0.057024524 0.008771942
-0.1575385 0.21515793 0.08019728 0.05825256 0.09841078 0.07247045 0.08764591 -0.104360715
-0.025662066 -0.30977193 0.09990955 -0.13390283 0.07973022 0.053911332 -0.16441143 0.08814426
-0.30019838 -0.18332575 0.116919145 -0.04578019 -0.08478762 -0.0414069 0.078488216 0.021706691
-0.12203927 0.10448684 -0.03731717 0.06878678 0.09260719 -0.3642073 0.1580239 -0.0064929524
0.112858646 -0.11976355 0.026927361 0.014668273 -0.22777042 -0.20799424 -0.0967546 -0.1287955
0.05441696 0.023083469 -0.0051766397 -0.1437255 -0.3399825 0.025040183 0.21832237 0.04767007
0.10751275 -0.25087014 -0.011017256 -0.13062502 -0.12907648 -0.11586483 -0.011310803 0.09922301
-0.04159112 0.09901083 -0.19703442 -0.18580276 0.1027772 0.010498003 0.18425071 0.028099691
00000000: 8824 f4bd f5c3 d03b 2e9a 9cbd 291f 12be
00000010: 70fa 27be 198b 933d be50 003e c00b 8cbe
00000020: 41f8 e73d 9e61 18be 24a2 d53d 0d26 313d
00000030: 5dae a9bd d739 313e ab3b babd 02c1 80bd
00000040: 0f81 ea3c 21a1 b8bd b413 913d ea2f 063e
00000050: 4ab2 9d3d 4423 963d dd0d 0dbe 2a23 953c
00000060: 75e8 8b3c 15fa 03be 4277 f9bd e381 b03e
00000070: 3879 f1bd 4972 9b3d 5c78 4bbe c1cc 043d
00000080: 820a 4abe 3cb9 13be 7e99 d33b ea67 48bd
00000090: afc1 17be b148 013c 71dc c7bd afdb c9bd
000000a0: 1b36 47be 8e86 c8bc 8be6 733d c7f2 873c
000000b0: a322 9abd 3fd6 a03d 20e1 bcbd 5dfc 933d
000000c0: 3894 943d e71b e63d 3e49 0d3e 7f6b 753e
000000d0: 4024 2dbc aaa7 993d 110f df3d ed34 f33b
000000e0: ee95 4c3d 9738 0c3e 8f71 07be 31dc 1d3b
000000f0: 14a2 16be 86b0 f33d b056 fe3d 9b7e f63d
00000100: 1dd8 eabc be13 b33d 38b6 2fbe ef37 7fbe
00000110: 2e5c c33d f345 26be 881d a0bd a631 c03a
00000120: 524f 0c3e 2306 a6be bbed 993d d1e2 a93d
00000130: e6f7 74bc d208 413c 1af1 1b3d ecf7 b33d
00000140: 2d03 b7bd 2207 06be 62b6 07be a031 9e3d
00000150: 9f6e 33be d484 aebd 16b3 6cbe f3f1 bdbd
00000160: 6e32 c4bc 14ec d0bd cec6 913e 4bad cbbc
00000170: de34 5f3c ba7d a73d b1cc 0bbd e7e5 2a3d
00000180: 0e79 603d 36ea 403d 7a2a eabd 9126 853e
00000190: 4a0b a53d 74f3 cdbc 6cb0 123e 7ad6 853d
000001a0: 00d9 233e ef90 d03d dfdc ca3c f1a5 2b3e
000001b0: 39cc 2bbe 2406 3dbb 874d 25be 6eb8 5bbd
000001c0: 8099 5dbe bfe8 bdbc 5d94 73bd f808 a63c
000001d0: 357f 38bd 6cbe babd 323f d93d 05af ccbd
000001e0: 7681 52bd 7f05 eabd 6e59 c13d 8b13 a63d
000001f0: bea4 e9bd 7cb1 993d 8c92 69bd 31b8 0f3c
00000200: c651 21be 5c52 5c3e 793e a43d 3d9a 6e3d
00000210: 978b c93d 636b 943d b37f b33d 12bb d5bd
00000220: 4139 d2bc 6d9a 9ebe 619d cc3d d31d 09be
00000230: 9949 a33d 21d2 5c3d 785b 28be fa84 b43d
00000240: 9ab3 99be bfb9 3bbe 4e73 ef3d 0284 3bbd
00000250: 22a5 adbd 489a 29bd 6ebe a03d 3bd2 b13c
00000260: baef f9bd 32fd d53d e4d9 18bd 15e0 8c3d
00000270: d7a8 bd3d 6179 babe 04d1 213e d5c2 d4bb
00000280: 6f22 e73d 9846 f5bd c596 dc3c 3253 703c
00000290: a63c 69be 71fc 54be 4727 c6bd f8e2 03be
000002a0: 51e4 5e3d 8b19 bd3c cda0 a9bb c72c 13be
000002b0: 3012 aebe 1221 cd3c e68f 5f3e b141 433d
000002c0: a52f dc3d 0d72 80be b981 34bc 91c2 05be
000002d0: a02c 04be 8a4a edbd f250 39bc 6f35 cb3d
000002e0: 735b 2abd 31c6 ca3d 64c3 49be 1443 3ebe
000002f0: da7c d23d d1ff 2b3c 38ac 3c3e 5331 e63c

MLP.0.bias f4 [64]
-0.015930386 -0.04514883 -0.08516692 0.13845456 -0.03388047 -0.07865083 -0.0024442605 -0.026390556
-0.10782103 0.01527343 -0.0027505397 0.008138687 0.0042250985 -0.055071756 -0.001094829 -0.055014238
0.0059088427 0.033017825 -0.022927001 -0.007099632 -0.030158006 0.0117804045 0.12418413 -0.09022368
-0.03835661 0.0026361588 -0.011251002 -0.0065434915 -0.023819434 -0.008852024 0.014113885 -0.044409446
-0.017191906 0.02233161 -0.027360909 -0.047018792 -0.010664441 -0.07040517 -0.023813047 -0.027475351
-0.027920268 -0.0039879475 0.0041236957 0.008715034 -0.051962584 -0.014202831 -0.0141996555 -0.032279518
0.14980766 -0.07968447 0.0053985505 -0.0020290809 -0.010692225 0.12559254 -0.06045381 -0.013762136
0.0045206444 0.119699374 0.008567887 -0.009169161 -0.08447951 0.011610245 0.066493735 -0.013326255
00000000: 7180 82bc fbed 38bd ff6b aebd 08c7 0d3e
00000010: 3fc6 0abd b013 a1bd e32f 20bb 0231 d8bc
00000020: 46d1 dcbd 693d 7a3c 6642 34bb 2158 053c
00000030: b272 8a3b ec92 61bd 5d80 8fba 9c56 61bd
00000040: f79e c13b b33d 073d 68d1 bbbc 08a4 e8bb
00000050: ec0d f7bc 9902 413c 4054 fe3d 31c7 b8bd
00000060: d21b 1dbd 68c3 2c3b 1f56 38bc c96a d6bb
00000070: f920 c3bc 1408 11bc ed3d 673c aee6 35bd
00000080: 0ad6 8cbc c8f0 b63c fc23 e0bc c796 40bd
00000090: e8b9 2ebc 9630 90bd 9413 c3bc fd13 e1bc
000000a0: 0cb9 e4bc 54ad 82bb 1120 873b 81c9 0e3c
000000b0: b8d6 54bd feb2 68bc aca5 68bc 8737 04bd
000000c0: 2e67 193e 9d31 a3bd 53e6 b03b 54fa 04bb
000000d0: 712e 2fbc 559b 003e 6a9e 77bd 957a 61bc
000000e0: ea21 943b f224 f53d 5360 0c3c 403a 16bc
000000f0: 9803 adbd e638 3e3c de2d 883d 5d56 5abc

MLP.2.weight f4 [64, 64]
-0.06279166 -0.1469788 0.1033673 -0.17578943 -0.1351074 -0.042682234 -0.010012043 0.05771044
0.05791971 0.16501229 -0.06906377 -0.0100667775 -0.08618992 -0.046359356 0.18363313 -0.0026976287
-0.08377707 0.1769705 0.10665029 0.07161551 0.1256577 0.12303209 -0.3390568 -0.14570436
0.099680245 0.04273718 0.002730698 -0.16329713 -0.27533743 -0.15761381 0.10597359 -0.054687504
-0.029310467 0.1885108 0.008749552 0.04030402 -0.18692145 0.15261804 -0.030106043 -0.10165798
0.06315721 -0.18936151 -0.112714976 0.03693115 0.06296144 -0.19159105 0.19836172 0.007925688
-0.19415377 0.032288756 0.024705367 0.03632568 0.0829127 0.07440504 0.11601674 -0.04465067
-0.11774089 -0.1458108 0.21197933 -0.030696828 -0.04223139 0.16560303 -0.21949969 -0.022890046
0.08209879 0.047758285 -0.17996825 -0.058528423 0.030018596 0.15751423 -0.10569659 -0.028502025
-0.23808227 -0.2184987 -0.1347933 -0.009280073 0.13085027 -0.21842697 0.033033956 -0.13249427
-0.06504434 -0.07356168 -0.01731817 -0.1459645 -0.14768372 0.025206836 0.17731364 0.021487435
-0.18093191 -0.082657546 -0.032550957 0.12463858 0.28291753 0.020637872 -0.12553436 0.01275832
-0.039827965 -0.16626675 -0.08219736 0.07850494 0.19927254 -0.011424521 0.1252733 0.19738767
0.14219406 0.09670265 0.06598369 -0.06586412 -0.10549952 -0.093730144 -0.006982167 -0.05938863
0.23667407 -0.041718017 0.11107255 -0.2313955 -0.23259027 0.20566507 -0.0696392 0.05186959
-0.049533974 0.16294035 -0.18333048 0.09685507 -0.05420572 -0.052932423 0.007482199 -0.10610969
0.29789656 -0.044327047 -0.22622046 0.25465402 0.083549924 -0.04642249 -0.093670346 0.13289064
-0.039103746 -0.30895323 0.09799974 0.1183456 -0.077909306 -0.13299212 -0.22265814 -0.25481942
-0.017074723 -0.26576218 -0.020498406 0.05256346 0.08747627 -0.06572565 0.18592511 -0.003913423
-0.1806979 -0.015938967 -0.030911915 0.10958127 0.1601991 0.024912085 -0.052016057 -0.16115728
0.03254313 -0.118512176 -0.055114638 -0.18053086 0.045475315 0.007746131 -0.06439612 0.043194722
0.019684259 -0.11636167 -0.015122049 -0.13747145 -0.15873498 0.15979399 -0.15461129 -0.16969258
0.25659567 -0.20826498 -0.22007975 0.024833463 -0.0977501 0.27634048 0.072203726 0.05162144
-0.012780277 0.21504977 -0.25481123 0.079491355 -0.002558046 -0.10047122 0.15916479 0.015810024
0.0052760397 0.06661422 0.116463244 -0.39486933 -0.02128249 -0.017211733 -0.08664642 0.14600551
-0.12150562 0.17718172 0.10453183 -0.08204395 -0.08085553 -0.057964545 0.0505868 -0.03206605
0.06367945 0.22183576 0.09025417 -0.0037032755 -0.08981635 0.03484317 -0.36886778 0.028069181
0.01468666 0.11479807 -0.0070881634 0.06187466 -0.009177345 -0.14393514 0.0026044543 -0.016588565
-0.11577582 0.09668243 0.28695092 -0.027342362 -0.1886216 0.08688107 -0.14722663 -0.11353408
0.010321447 0.07891433 -0.05651467 -0.06452789 0.106232285 -0.16095424 0.08342864 0.08210238
-0.17250301 -0.049517926 -0.025844384 -0.066392675 0.15845752 -0.023737477 0.0010610585 -0.24995606
-0.14595222 -0.09211218 0.04475936 0.056980155 -0.06647385 0.05769032 -0.022978827 -0.032567117
00000000: ea98 80bd 9c81 16be 3cb2 d33d 2502 34be
00000010: 9859 0abe 91d3 2ebd 8d09 24bc c861 6c3d
00000020: 383d 6d3d fbf8 283e 4e71 8dbd 20ef 24bc
00000030: 5784 b0bd 4fe3 3dbd 530a 3c3e b3ca 30bb
00000040: 5093 abbd c137 353e 786b da3d 27ab 923d
00000050: 69ac 003e 40f8 fb3d da98 adbe 8633 15be
00000060: 2825 cc3d 2e0d 2f3d 83f5 323b 5d37 27be
00000070: 07f9 8cbe 8465 21be ae08 d93d 0100 60bd
00000080: 811c f0bc fa08 413e 485a 0f3c d415 253d
00000090: 5668 3fbe e747 1c3e f3a0 f6bc 0f32 d0bd
000000a0: 9158 813d fce7 41be 1cd7 e6bd 1e45 173d
000000b0: edf1 803d 7230 44be 561f 4b3e bfda 013c
000000c0: 3fd0 46be 3741 043d e962 ca3c 3cca 143d
000000d0: 22ce a93d ab61 983d 2f9a ed3d 9fe3 36bd
000000e0: 2322 f1bd 6d4f 15be 1c11 593e ea77 fbbc
000000f0: d2fa 2cbd d793 293e 87c4 60be e883 bbbc
00000100: 6923 a83d 319e 433d 9949 38be 80bb 6fbd
00000110: 8fe9 f53c 694b 213e 7477 d8bd 147d e9bc
00000120: d7cb 73be 20be 5fbe 4107 0abe 730b 18bc
00000130: 9dfd 053e 52ab 5fbe 9d4e 073d 94ac 07be
00000140: f835 85bd 82a7 96bd d6de 8dbc b877 15be
00000150: 673a 17be 917e ce3c b591 353e 6b06 b03c
00000160: 3746 39be 5c48 a9bd 2754 05bd 8342 ff3d
00000170: 91da 903e c110 a93c 148c 00be 4608 513c
00000180: a622 23bd d541 2abe 1757 a8bd 33c7 a03d
00000190: 1a0e 4c3e ea2d 3bbc a547 003e fe1f 4a3e
000001a0: 529b 113e 0a0c c63d 7522 873d c5e3 86bd
000001b0: 2210 d8bd 97f5 bfbd a9ca e4bb 7e41 73bd
000001c0: b05a 723e 83e0 2abd 017a e33d f1f2 6cbe
000001d0: 252c 6ebe dd99 523e ff9e 8ebd 3575 543d
000001e0: 23e4 4abd d6d9 263e fcba 3bbe f35b c63d
000001f0: d106 5ebd abcf 58bd 3c2d f53b 0a50 d9bd
00000200: e685 983e 4790 35bd 56a6 67be 0362 823e
00000210: 391c ab3d 8225 3ebd 3dd6 bfbd 7c14 083e
00000220: 402b 20bd 1e2f 9ebe 16b4 c83d 2e5f f23d
00000230: ea8e 9fbd 162f 08be 7f00 64be b177 82be
00000240: 4ae0 8bbc fb11 88be 46ec a7bc c84c 573d
00000250: c226 b33d 2b9b 86bd 2763 3e3e 2c3c 80bb
00000260: df08 39be 7092 82bc fc3a fdbc 256c e03d
00000270: 3c0b 243e 6e14 cc3c ca0e 55bd 6a06 25be
00000280: f24b 053d 83b6 f2bd e3bf 61bd 15dd 38be
00000290: 5344 3a3d 42d3 fd3b 1de2 83bd f3ec 303d
000002a0: e240 a13c 074f eebd 78c2 77bc 51c5 0cbe
000002b0: 6c8b 22be 09a1 233e 6c52 1ebe e4c3 2dbe
000002c0: 8260 833e 6a43 55be 965c 61be 8c6f cb3c
000002d0: 3431 c8bd 807c 8d3e 8cdf 933d 0171 533d
000002e0: 5e64 51bc 0236 5c3e 9e76 82be 5dcc a23d
000002f0: e4a4 27bb dbc3 cdbd 18fc 223e 0684 813c
00000300: a1e2 ac3b 096d 883d 4884 ee3d 502c cabe
00000310: 9e58 aebc 9fff 8cbc ae73 b1bd 7882 153e
00000320: f0d7 f8bd 206f 353e c914 d63d a906 a8bd
00000330: 9697 a5bd 3b6c 6dbd 1b34 4f3d b157 03bd
00000340: 5f6a 823d ea28 633e 2ed7 b83d a7b2 72bb
00000350: a2f1 b7bd b6b7 0e3d 3ddc bcbe 57f1 e53c
00000360: 51a0 703c 401b eb3d d343 e8bb 4970 7d3d
00000370: 935c 16bc bc63 13be 7eaf 2a3b bee4 87bc
00000380: e01b edbd 7001 c63d 3beb 923e 17fd dfbc
00000390: 0526 41be b4ee b13d 94c2 16be 8e84 e8bd
000003a0: 491b 293c d69d a13d ed7b 67bd 3327 84bd
000003b0: 5090 d93d 30d1 24be a3dc aa3d 4b25 a83d
000003c0: a1a4 30be 4fd3 4abd 9ab7 d3bc e2f8 87bd
000003d0: b042 223e 1975 c2bc 3713 8b3a 7bf4 7fbe
000003e0: 8074 15be 50a5 bcbd 9755 373d 0664 693d
000003f0: 7123 88bd af4c 6c3d 183e bcbc 1965 05bd

MLP.2.bias f4 [64]
0.04953608 -0.062151413 -0.049786072 0.037464626 -0.0504615 -0.07423148 -0.08152185 0.03629175
0.043895766 0.049610157 0.030033953 -0.060101252 0.039514743 -0.06046875 0.055824295 0.013522689
0.015745178 0.03419089 0.019614907 0.035218544 0.05412761 -0.06152415 -0.04666602 -0.05980734
-0.06051319 -0.0033901783 0.038542617 -0.02556427 -0.06958551 0.049043998 0.047071833 0.041074835
-0.060736477 -0.104162015 -0.05650127 -0.0029010645 -0.055244006 -0.06412429 -0.08400224 -0.05406971
-0.081835 0.05440115 -0.06044395 0.045767292 0.036031004 -0.07164328 0.03489865 -0.06567825
0.0556061 0.04021793 -0.08783678 0.045399252 -0.055722196 -0.060504414 -0.060273107 0.013896427
-0.00044997854 0.050876733 0.031200482 0.022851294 0.055610303 0.043616027 -0.0049359626 -0.061997786
00000000: 58e6 4a3d 7b92 7ebd 7bec 4bbd 8274 193d
00000010: b8b0 4ebd ad06 98bd edf4 a6bd a8a6 143d
00000020: 0ccc 333d 0534 4b3d c409 f63c bb2c 76bd
00000030: 36da 213d 14ae 77bd 04a8 643d 458e 5d3c
00000040: 08fc 803c bf0b 0c3d 71af a03c 5241 103d
00000050: eab4 5d3d bf00 7cbd de24 3fbd 8bf8 74bd
00000060: aedc 77bd c12d 5ebb ddde 1d3d 296c d1bc
00000070: d982 8ebd 5ce2 483d 65ce 403d 163e 283d
00000080: d0c6 78bd e552 d5bd e06d 67bd c91f 3ebb
00000090: 8a47 62bd 9953 83bd 5e09 acbd 3378 5dbd
000000a0: 1c99 a7bd bed3 5e3d 1394 77bd 7c76 3b3d
000000b0: 3f95 133d b6b9 92bd e3f1 0e3d 5182 86bd
000000c0: 39c3 633d 8ebb 243d c5e3 b3bd 91f4 393d
000000d0: f53c 64bd 7ad3 77bd efe0 76bd d7ad 633c
000000e0: 19eb ebb9 1f64 503d 2798 ff3c a332 bb3c
000000f0: a1c7 633d b8a6 323d dbbd a1bb 64f1 7dbd

MLP.4.weight f4 [1, 64]
0.15742916 -0.2011405 -0.20298727 0.12336241 -0.05037212 0.05424446 0.02462401 0.08730171
0.116765074 0.097794324 0.057165388 -0.19714956 0.07518739 -0.085759215 0.21702652 0.059654918
-0.07485234 0.059784442 -0.023958953 0.16598126 0.1841463 -0.19195826 0.054958943 0.040026505
-0.04711227 0.034957603 0.06978488 -0.059253942 -0.21092036 0.1399072 0.09967616 0.096053265
0.028298901 -0.05301339 -0.23797743 0.040321827 -0.21426743 -0.054522708 0.07475988 -0.15906976
0.048792582 0.15577132 -0.04102329 0.11020689 0.059187062 0.056369547 0.061609108 0.010769374
0.20316188 -0.059616074 -0.03642933 0.12519273 0.010292146 -0.02134215 -0.04103864 0.012741409
0.07285574 0.147817 0.09409416 0.055036306 0.23121797 0.105922535 0.044779908 -0.09101052
00000000: 1c35 213e c6f7 4dbe e5db 4fbe 6ea5 fc3d
00000010: ff52 4ebd 702f 5e3d 4bb8 c93c 3dcb b23d
00000020: 8722 ef3d 6448 c83d 4126 6a3d 93e1 49be
00000030: d9fb 993d 87a2 afbd 333c 5e3e b758 743d
00000040: 2f4c 99bd 88e0 743d 9145 c4bc fef6 293e
00000050: d990 3c3e b590 44be a11c 613d d5f2 233d
00000060: ccf8 40bd b42f 0f3d 60eb 8e3d 43b4 72bd
00000070: 82fb 57be d543 0f3e 0423 cc3d 93b7 c43d
00000080: 19d3 e73c 9224 59bd 5bb0 73be 8028 253d
00000090: ec68 5bbe 3453 5fbd b51b 993d 2fe3 22be
000000a0: bbda 473d 8482 1f3e 0a08 28bd 26b4 e13d
000000b0: 226e 723d c1e3 663d d559 7c3d 0772 303c
000000c0: ab09 503e fc2f 74bd ec36 15bd 8632 003e
000000d0: 64a0 283c bcd5 aebc 2218 28bd 58c1 503c
000000e0: 6435 953d 575d 173e 70b4 c03d c06d 613d
000000f0: 67c4 6c3e eaed d83d 236b 373d b963 babd
