new_ver1/model_parameter/batch256_epoch10000.pth (torch, 7744 bytes, 5 tensors)

MLP.0.weight f4 [32, 3]
0	0x3e1527a8	0.14565909
1	0x3e43688c	0.1908285
2	0x3c848b40	0.01617968
3	0xbe16b67b	-0.14718048
4	0x3d0d3fcb	0.034484666
5	0xbd1deba4	-0.038554803
6	0x3ea27393	0.317288
7	0x3d9fee22	0.07809092
8	0x3e4e88a4	0.20169312
9	0xbd8ec770	-0.069716334
10	0x3e245d34	0.16051179
11	0x3d4f03b8	0.050540656
12	0xbe8020d5	-0.2502505
13	0xbdb4d1c0	-0.08829069
14	0xbe26e7d0	-0.16299367
15	0x3e9ac22c	0.30226266
16	0xbe25ed39	-0.16203775
17	0x3de6273c	0.11237952
18	0x3e434875	0.19070609
19	0xbc680516	-0.014161369
20	0xbce67196	-0.028130334
21	0xbcf329bc	-0.029682986
22	0xbe258eb8	-0.16167724
23	0x3e836c7a	0.256687
24	0xbe67ce07	-0.22637187
25	0x3e2b81df	0.1674876
26	0xbd2bfc4c	-0.041988656
27	0x3e583206	0.21112832
28	0x3e0ab78f	0.13546585
29	0x3d40bf65	0.047057528
30	0xbe3f3cad	-0.1867549
31	0xbe0eae9b	-0.13933794
32	0xbe15fa98	-0.14646375
33	0xbce73989	-0.028225677
34	0xbd1cbad9	-0.03826413
35	0xbc604e75	-0.013690581
36	0xbdf7306d	-0.12069783
37	0xbc5b9341	-0.013401807
38	0xbd6b5cf2	-0.057461686
39	0x3e10c01e	0.14135787
40	0xbe65cdde	-0.22441813
41	0x3e065503	0.13118367
42	0xbdcea563	-0.10090139
43	0x3d889d84	0.06670669
44	0xbd1c3248	-0.03813389
45	0x3eab61ad	0.33472958
46	0xbc1b05c3	-0.009461823
47	0x3abde278	0.0014487049
48	0x3e35590b	0.17709748
49	0x3cd43c0e	0.025907543
50	0x3d3b742e	0.045765094
51	0x3c812713	0.015765702
52	0x3eab1129	0.3341153
53	0xbe156570	-0.14589477
54	0x3e6893e0	0.2271266
55	0xbdab8c4c	-0.08376369
56	0x3d5d89c7	0.054086473
57	0xbd29996b	-0.041406076
58	0x3d22bee6	0.039732836
59	0xbdc5b05b	-0.09652778
60	0x3e41ad61	0.18913795
61	0x3dea01d3	0.11426129
62	0x3e70c4cc	0.23512572
63	0x3e6b4a07	0.22977458
64	0x3dba11ce	0.09085427
65	0xbd48348c	-0.048878238
66	0x3d66d72b	0.056357544
67	0xbe3d9d09	-0.18516935
68	0x3e2f0da3	0.17095046
69	0xbbfefb00	-0.0077813864
70	0xbdf0c5f1	-0.11756504
71	0xbdec1226	-0.11526899
72	0xbbd03f46	-0.006355199
73	0xbe933066	-0.28747863
74	0xbe00b6e2	-0.12569764
75	0xbe0f5e3d	-0.14000793
76	0xbd2334cd	-0.039845277
77	0xbe0830de	-0.13299891
78	0xbaaa3def	-0.0012988428
79	0xbdaa7853	-0.08323731
80	0x3dd625fd	0.104564644
81	0x3ee675ee	0.45011848
82	0x3dba959e	0.091105685
83	0x3e37e820	0.17959642
84	0xbcc31d2f	-0.023817627
85	0xbda4da38	-0.080494344
86	0xbde0655d	-0.109568335
87	0xbe6656e9	-0.22494091
88	0x3ec3b651	0.38225034
89	0xbcb3d23f	-0.02195084
90	0x3d3cc657	0.04608759
91	0xbdd90ef9	-0.10598559
92	0x3e57f0e7	0.2108799
93	0x3dbd2a51	0.09236587
94	0x3d1671ef	0.03672975
95	0x3e075c3e	0.13218781

MLP.0.bias f4 [32]
0	0xbc44c586	-0.012009984
1	0xbdaaff3b	-0.083494626
2	0x3cca0dde	0.024664816
3	0xbd2f5416	-0.0428048
4	0xbce59293	-0.028023994
5	0x3cacc12e	0.021088209
6	0x3c915198	0.017739102
7	0x3ccb3dea	0.024809796
8	0xbceb41e4	-0.028717943
9	0x3c47193f	0.012152015
10	0xbd05b8e9	-0.032647047
11	0xbdc31064	-0.09524611
12	0xbc06735d	-0.008206216
13	0xbce39e83	-0.027785545
14	0xbd61a0a7	-0.05508485
15	0x3cf7b606	0.030238163
16	0x3cd68491	0.02618626
17	0x3e5a09ad	0.21292754
18	0x3c4bda38	0.012442164
19	0xbd95aac8	-0.073079646
20	0x3c62b5b8	0.01383727
21	0x3d357cda	0.04430852
22	0x3c3bfd9e	0.011474041
23	0xbdc6b28a	-0.097020224
24	0xbdad29f6	-0.08455269
25	0xbc1e449c	-0.009659912
26	0x3cfb7419	0.030695008
27	0x3cb884c2	0.022524241
28	0xbdb7a099	-0.089661784
29	0x3e9fb7e9	0.31195
30	0x3ce6247c	0.028093569
31	0x3b9d718c	0.0048047956

MLP.2.weight f4 [32, 32]
0	0x3d869374	0.06571093
1	0x3c66a218	0.014076732
2	0x3eb62bf0	0.35580397
3	0x3c552b08	0.013010748
4	0xbe82a8b2	-0.2551933
5	0x3e685ced	0.22691698
6	0x3e024b16	0.12723956
7	0x3bf5a313	0.0074962466
8	0xbe2dfd00	-0.16991043
9	0xbe2311f6	-0.1592482
10	0xbdeb37cb	-0.11485251
11	0xbd363e32	-0.044492908
12	0xbd97ff0f	-0.074216954
13	0x3ed60173	0.4179798
14	0xbb4f4972	-0.003162947
15	0x3ec6c51f	0.38822266
16	0x3e44a946	0.19205198
17	0xbeb9318b	-0.3617061
18	0x3e85ceda	0.26134378
19	0x3da9f093	0.08297839
20	0xbe051890	-0.12997651
21	0x3e65d9c0	0.22446346
22	0x3e0de9dc	0.13858742
23	0xbd5c7c62	-0.05382956
24	0xbda8d2e9	-0.08243353
25	0xbdde3d9d	-0.108515956
26	0x3d7296eb	0.059225958
27	0x3d16499a	0.036691286
28	0x3e0dcfdf	0.13848828
29	0xbf15b9b9	-0.58486515
30	0x3d8d1bbf	0.06890058
31	0x3bb78f8b	0.0056018285
32	0x3dc5169a	0.096234515
33	0xbc86ff59	-0.016479181
34	0xbcd77cb0	-0.026304573
35	0xbd38fd57	-0.04516348
36	0xbdb4b8d7	-0.08824318
37	0x3e1e01be	0.15430352
38	0x3e2aa03c	0.16662687
39	0xbd2f1d74	-0.042752698
40	0x3e15b55a	0.14619961
41	0x3e2e9ce3	0.17052035
42	0xbd97b0d0	-0.07406771
43	0x3d226e5f	0.03965604
44	0xbdda9210	-0.106723905
45	0x3dbe20e6	0.09283619
46	0x3ecc5646	0.3990957
47	0x3dff6462	0.124703184
48	0x3d6673c3	0.056262743
49	0x3e0152d5	0.12629254
50	0x3e0b5e8b	0.13610284
51	0xbdf396b6	-0.1189398
52	0x3e65b8b8	0.22433746
53	0x3e05d6d4	0.13070232
54	0x3e4db360	0.20087957
55	0x3e5952f0	0.21223044
56	0x3dcb6903	0.09932139
57	0xbdd3db7a	-0.10344596
58	0xbda72e88	-0.08163172
59	0x3e22cc02	0.15898135
60	0x3e35f4d3	0.17769174
61	0xbefd67d0	-0.49493265
62	0x3e718b3f	0.23588274
63	0x3d29c8bb	0.041451197
64	0x3b856371	0.004070692
65	0x3c28aa4d	0.010294509
66	0x3cd01848	0.025402203
67	0x3bda7ef9	0.0066679684
68	0xbe07ce92	-0.13262394
69	0x3e2d1d71	0.16905762
70	0x3e135c32	0.14390638
71	0xbca29194	-0.019844808
72	0xbc63c67b	-0.013902302
73	0x3d55fbb4	0.052241996
74	0xbe3060ad	-0.17224379
75	0x3d8d7ea3	0.0690892
76	0x3d4f5e0f	0.05062681
77	0x3e1dfe13	0.15428953
78	0x3c38e211	0.011284367
79	0xbc820f3d	-0.015876407
80	0x3da26bf1	0.079307444
81	0xbe56a198	-0.2096008
82	0x3e130bb6	0.14359936
83	0xbd091970	-0.033471525
84	0x3e31c0ad	0.17358656
85	0x3c93989e	0.01801711
86	0x3e3c8bf6	0.18412766
87	0x3da9ed0f	0.082971685
88	0xbcbc2df9	-0.02297114
89	0x3c503982	0.012709023
90	0x3db33ab8	0.08751434
91	0x3ddab572	0.10679139
92	0x3dc017c7	0.09379535
93	0xbe26be7a	-0.16283599
94	0xbe1444f0	-0.14479423
95	0x3c1cf7ba	0.009580547
96	0xbcfbfa71	-0.030759068
97	0xbd8a1f09	-0.06744201
98	0x3ae8832a	0.0017739285
99	0xb9e22ec1	-0.00043140913
100	0x3d52242a	0.05130402
101	0xbe45e31f	-0.19324921
102	0x3ccc3f01	0.024932386
103	0xbe296b56	-0.16544852
104	0xbe1b4faa	-0.15167108
105	0x3c830c91	0.015997203
106	0xbcd4b02c	-0.025962912
107	0xbd6dad83	-0.0580268
108	0xbd7b116b	-0.061295908
109	0xbdde44e1	-0.10852981
110	0x3dc5d2a0	0.09659314
111	0xbd2b8a3e	-0.041879885
112	0xbd6e39a7	-0.05816045
113	0x3e3f3b83	0.18675046
114	0x3e0ae94e	0.13565561
115	0x3cb750b9	0.022377359
116	0xbe080a34	-0.13285142
117	0xbe1da34c	-0.15394324
118	0x3d069ca2	0.03286422
119	0xbd4843fe	-0.048892967
120	0x3daa04cc	0.08301696
121	0x3e1380a0	0.14404535
122	0x3d370855	0.04468568
123	0xbd7792a0	-0.060442567
124	0xbc1e9bfe	-0.009680746
125	0xbd7aadf5	-0.061201055
126	0xbe455f71	-0.1927469
127	0xbe08d1d3	-0.13361292
128	0xbcc1550f	-0.02360013
129	0x3db9dec8	0.09075695
130	0xbe71ae77	-0.2360171
131	0xbdbd386c	-0.09239277
132	0x3e19b922	0.15012029
133	0xbc95d58e	-0.018290307
134	0xbc09745e	-0.0083895605
135	0xbe4a1084	-0.19732863
136	0xbd841e83	-0.06451132
137	0xbe257946	-0.16159543
138	0x3d9f3ab9	0.07774872
139	0xbc9a111a	-0.018806983
140	0x3e0cb3ea	0.13740507
141	0x3e4889f8	0.19583881
142	0xbb866932	-0.0041018957
143	0xbe0df59a	-0.13863221
144	0xbdce7c59	-0.10082311
145	0xbd02647e	-0.031834118
146	0xbe4ebfa2	-0.2019029
147	0xbc3c0418	-0.011475585
148	0x3d4d170f	0.05007082
149	0xbd2a7444	-0.041614786
150	0xbd2ef432	-0.04271335
151	0xbd37b05c	-0.044845924
152	0x3ca12017	0.019668622
153	0x3d9e8b8e	0.07741462
154	0x3d54c462	0.051945098
155	0x3c6aaf34	0.014323998
156	0xbc89878e	-0.01678827
157	0x3d1ae38a	0.037814654
158	0xbe1aca68	-0.15116274
159	0xbdfbb05a	-0.12289496
160	0xbdb6fad9	-0.08934564
161	0x3e034079	0.12817563
162	0xbd25112d	-0.040299583
163	0x3d5c61e2	0.053804286
164	0x3e127d43	0.14305596
165	0xbc12d395	-0.008961578
166	0x3d257076	0.040390454
167	0xbdb42afb	-0.087972604
168	0xbde633cb	-0.112403475
169	0x3dde0925	0.10841588
170	0x3d3baf7c	0.04582165
171	0xbda13519	-0.07871456
172	0x3e1e5967	0.15463792
173	0x3db420af	0.087952964
174	0x3c4985ee	0.012299998
175	0xbe45f328	-0.19331038
176	0xbde9f6c6	-0.114240214
177	0x3c53a1c3	0.012916985
178	0xbe41e155	-0.18933614
179	0x3c646191	0.013939277
180	0xbe487e0d	-0.19579335
181	0xbdb7b619	-0.08970279
182	0xbe02b947	-0.1276599
183	0x3dd2e541	0.10297633
184	0x3da1610f	0.078798406
185	0x3dee3e63	0.11632993
186	0x3d461c52	0.048366852
187	0xbda7fc6a	-0.08202441
188	0x3d262260	0.040560126
189	0x3c8ae7e5	0.016956279
190	0xbe4dac11	-0.2008517
191	0x3d7f5b57	0.062342968
192	0xbe71d6aa	-0.23617044
193	0xbdb997f2	-0.090621844
194	0xbe72bda7	-0.23705159
195	0x3d7b7945	0.06139495
196	0x3e311754	0.17294055
197	0xbdfea4ad	-0.12433753
198	0xbe7b3e77	-0.24535547
199	0x3e2703c8	0.16310036
200	0x3cb96d21	0.022635045
201	0xbe84c702	-0.2593308
202	0xbcab17e3	-0.020885414
203	0xbdc6211b	-0.09674283
204	0xbcb1ae09	-0.021689432
205	0x3c51755e	0.01278433
206	0xbd285f6e	-0.041106634
207	0xbe230dd2	-0.15923241
208	0x3ca8a4fa	0.02058648
209	0x3de9c6b0	0.1141485
210	0xbe8f736b	-0.28017744
211	0x3d99b565	0.075053014
212	0xbe307238	-0.17231071
213	0xbeb99e96	-0.36253804
214	0xbda96f60	-0.08273196
215	0xbdfbea7f	-0.12300586
216	0x3e1afe84	0.15136153
217	0x3e13833a	0.14405528
218	0x3dbf57f1	0.09342945
219	0xbea97bc3	-0.33102235
220	0xbe16a536	-0.1471146
221	0x3e9ed26d	0.31019917
222	0xbdcd9258	-0.100376785
223	0xbe0e5152	-0.13898209
224	0xbde75355	-0.11295191
225	0x3d47c6f9	0.04877374
226	0xbe013a97	-0.12620007
227	0xbdabfa1f	-0.08397316
228	0x3e2ecfd4	0.17071468
229	0xbe8e91a9	-0.27845505
230	0xbddf254d	-0.108957864
231	0x3d021d6d	0.031766344
232	0x3d98a26d	0.07452855
233	0xbe0d74b9	-0.13814057
234	0x3e3f660f	0.18691276
235	0x3e48ed49	0.19621767
236	0x3e0a8d97	0.13530575
237	0xbb8ad71a	-0.004237068
238	0x3e172b28	0.14762557
239	0xbe365562	-0.17806008
240	0xbde50b89	-0.11183841
241	0x3d87f44c	0.06638393
242	0xbdd7e52c	-0.10541758
243	0xbe098f5e	-0.13433596
244	0xbe9e93c3	-0.30972108
245	0xbe067dd4	-0.13133937
246	0x3c94efb3	0.018180704
247	0xbd96892b	-0.073503815
248	0xbd90c5de	-0.0706899
249	0x3e9b383b	0.30316338
250	0xbe4cfbf5	-0.20017989
251	0xbdd9a9c4	-0.10628083
252	0x3dc76a27	0.09737044
253	0x3e720e00	0.23638153
254	0xbcda066d	-0.026614392
255	0xbd20ad25	-0.039227623

MLP.2.bias f4 [32]
0	0x3d7392c2	0.05946613
1	0x3d95f869	0.07322771
2	0x3d7972a1	0.060900334
3	0xbda0b20b	-0.07846459
4	0xbd7a41bf	-0.061097857
5	0xbd7e486a	-0.06208078
6	0xbe206692	-0.15664127
7	0xbd927cc4	-0.071527034
8	0xbdf1c6f6	-0.11805527
9	0x3d9517e8	0.072799504
10	0x3d9f54fa	0.0777988
11	0x39c3249c	0.00037220574
12	0x3e5fb822	0.21847585
13	0xbdadf5f7	-0.0849418
14	0xbdd68dda	-0.10476275
15	0x3cc9a86a	0.024616439
16	0xbd95e665	-0.07319335
17	0x3d921980	0.0713377
18	0x3d49a648	0.049230844
19	0x3d3133f3	0.043262433
20	0xbd54bcf5	-0.051938016
21	0xbdc53d65	-0.09630851
22	0x3daa8436	0.083259985
23	0x3d106c8a	0.03525976
24	0x3d6709f3	0.056405973
25	0xbd7f9635	-0.062399108
26	0xbd960d88	-0.073268
27	0x3ce23c00	0.0276165
28	0xbd8faeae	-0.070157394
29	0xbcfe49dc	-0.031041078
30	0x3da45c9c	0.08025476
31	0xbda315bc	-0.0796313

MLP.4.weight f4 [1, 32]
0	0x3e3a1ace	0.18174288
1	0x3e2d44be	0.16920754
2	0x3de39330	0.11112058
3	0x3d439051	0.047745053
4	0xba184042	-0.0005807915
5	0xbe023e9e	-0.12719199
6	0xbe44227b	-0.19153778
7	0xbde6830d	-0.11255465
8	0xbe07779b	-0.1322922
9	0x3e303034	0.17205888
10	0x3e84f796	0.25970143
11	0x3e526af3	0.2054861
12	0xbf11d30d	-0.5696266
13	0x3d3ff459	0.046863887
14	0xbc70ee1b	-0.014705206
15	0x3dd78864	0.10524061
16	0xbdf9b179	-0.12192053
17	0x3e2bc7d6	0.1677545
18	0x3e0528d7	0.1300386
19	0x3dbf36a9	0.093365975
20	0x3d550e30	0.052015483
21	0x3d8ddcc3	0.069268726
22	0x3eb3cfd6	0.35119504
23	0x3e392ba3	0.18083052
24	0x3e2b839c	0.16749424
25	0xbd926604	-0.07148364
26	0x3d1026aa	0.035193123
27	0x3e0cc8ca	0.1374847
28	0xbe1e81eb	-0.15479247
29	0xbd69d1a5	-0.0570847
30	0x3e8fcd5b	0.2808636
31	0xbe91ddaa	-0.2848943
