new_ver1/model_parameter/batch128_epoch10000_Mynetwork_2_128.pth (torch, 71712 bytes, 5 tensors)

MLP.0.weight f4 [128, 3]
-0.036873844 -0.0013978747 -0.027071558 -0.009450896 0.14480408 0.054377906 0.22750002 -0.068962365
0.09463799 -0.13743705 -0.0014151084 0.05161149 -0.23907468 0.056207273 -0.11320862 0.029876092
-0.033351794 0.25579843 -0.10328985 -0.044650655 -0.0489106 -0.38488266 -0.026588576 -0.0047710026
-0.06963117 -0.054930046 0.0061326358 0.07723117 0.013150095 0.042293407 -0.0184215 0.08418188
0.18962245 -0.03432601 -0.1672455 -0.024613474 -0.12813734 0.05299748 -0.114103615 0.2525766
0.058661494 0.061252475 0.044751924 0.07496963 -0.07014716 0.05564964 0.019912923 0.09456791
0.12766527 -0.21292432 -0.009677786 -0.16461653 -0.0060772584 -0.06567866 -0.14012815 0.017974889
-0.03870088 -0.17991734 0.0057530594 -0.0400743 -0.1885515 0.0410087 -0.088019885 -0.016877502
0.121699445 0.18730144 -0.16121739 0.06549213 -0.07348148 -0.04719586 -0.12658627 -0.03604395
-0.12454401 0.103393786 0.036735076 0.12873039 -0.13392358 0.0853485 -0.1694911 -0.03960451
0.10522612 0.16255932 -0.22482911 -0.015989274 -0.05585076 0.040550344 -0.10978885 -0.016565736
-0.19205567 0.038254067 -0.023743143 0.17545466 -0.019059643 -0.09371183 -0.053661253 0.047152583
-0.1388405 -0.0012558384 -0.08041233 0.014464014 -0.066761635 0.016818488 -0.13491113 -0.022014394
-0.007950191 -0.040079013 -0.07878326 0.023892367 0.121219434 0.051598355 -0.016072406 -0.09236467
-0.10084675 0.060719978 0.08749361 -0.057580132 -0.008210809 -0.11325558 -0.40899977 0.04318764
-0.23379378 -0.09230077 0.034952246 -0.09127816 0.0061183325 -0.025087861 -0.012286843 -0.08309433
-0.035092946 -0.13034892 -0.094665825 0.05959173 -0.024090722 -0.20033443 -0.079802506 -0.06834185
-0.063000634 0.17163785 -0.13372618 -0.022553496 -0.08159146 -0.17859444 0.052861776 -0.015062495
0.12579083 -0.09958874 -0.015570763 0.1164103 -0.1995295 0.06332731 -0.21314386 -0.0012198815
-0.023820154 -0.036510356 -0.06438796 -0.054257844 -0.04977354 -0.07187518 -0.16300853 -0.06534288
-0.0021792313 -0.11654544 -0.029993992 -0.0140884565 -0.07136057 -0.19814368 0.10654012 -0.19043528
0.0028488783 -0.047058474 0.033824507 -0.21558192 0.055178396 0.051932573 -0.18481244 0.078955434
0.09147486 -0.23759848 -0.30945233 0.13633627 0.060869467 -0.039574724 0.042937074 0.020218287
0.07028209 0.061085325 -0.08227367 -0.09597803 -0.17528605 0.2847954 -0.004432601 0.041130997
0.027627163 0.039093908 0.1287386 -0.051002298 -0.08707571 0.2294605 -0.22825116 -0.05685912
0.057676498 -0.20671238 0.06461597 -0.011585184 -0.10038056 0.011638888 -0.053155098 -0.08268352
0.041815378 -0.012778473 -0.098093316 -0.27969778 0.017333994 -0.0425915 0.00732606 -0.14599013
-0.024814615 -0.12645823 -0.11828078 -0.13446182 -0.029026445 0.023284301 0.054512676 0.15395355
0.08716781 -0.16472808 0.11396181 0.09017086 0.21271546 -0.12760027 0.010078074 0.110140316
-0.040066753 -0.10569835 -0.044303905 -0.08835928 -0.027206825 -0.0996336 -0.007202666 -0.14316952
-0.048564613 -0.073316105 0.17173982 0.033527907 0.049724773 0.22421692 -0.086875364 0.0079276
-0.022457654 -0.007904426 -0.13974722 0.058298953 0.083554074 -0.21232687 0.08684778 0.059691586
00000000: 0709 17bd e438 b7ba 2cc5 ddbc eed7 1abc
00000010: 8547 143e 5ebb 5e3d c4f5 683e 243c 8dbd
00000020: 90d1 c13d 4cbc 0cbe 297b b9ba 9266 533d
00000030: fecf 74be 9939 663d ecd9 e7bd b5be f43c
00000040: e49b 08bd 03f8 823e a189 d3bd 9be3 36bd
00000050: 7b56 48bd 570f c5be 49d0 d9bc 1256 9cbb
00000060: c99a 8ebd 54fe 60bd 47f4 c83b 602b 9e3d
00000070: 7f73 573c da3b 2d3d b0e8 96bc 8d67 ac3d
00000080: 632c 423e 6e99 0cbd 6842 2bbe 32a2 c9bc
00000090: 6f36 03be e313 593d 28af e9bd b851 813e
000000a0: 0947 703d e0e3 7a3d cb4d 373d ad89 993d
000000b0: 50a9 8fbd e0f0 633d 6d20 a33c d2ac c13d
000000c0: afba 023e d508 5abe 948f 1ebc 3c91 28be
000000d0: bd23 c7bb 8982 86bd c17d 0fbe 1340 933c
000000e0: d084 1ebd 403c 38be 2984 bc3b f324 24bd
000000f0: a513 41be bdf8 273d c543 b4bd b042 8abc
00000100: 8f3d f93d f3cb 3f3e 2c16 25be bd20 863d
00000110: 757d 96bd 7250 41bd d59f 01be d2a2 13bd
00000120: ee10 ffbd 1fc0 d33d 8577 163d e6d1 033e
00000130: 4323 09be 32cb ae3d 138f 2dbe 5738 22bd
00000140: cb80 d73d f375 263e 9a39 66be f0fb 82bc
00000150: c4c3 64bd 1e18 263d fad8 e0bd deb4 87bc
00000160: 3eaa 44be 4cb0 1c3d fb80 c2bc 63aa 333e
00000170: f822 9cbc fdeb bfbd e7cb 5bbd 1123 413d
00000180: 342c 0ebe f29a a4ba 38af a4bd 79fa 6c3c
00000190: 53ba 88bd edc6 893c 2526 0abe 8857 b4bc
000001a0: 8541 02bc e429 24bd 1e59 a1bd edb9 c33c
000001b0: e541 f83d cc58 533d 47aa 83bc b029 bdbd
000001c0: be88 cebd 83b5 783d da2f b33d 25d9 6bbd
000001d0: a186 06bc 8bf2 e7bd 6b68 d1be 86e5 303d
000001e0: a367 6fbe 3008 bdbd 162a 0f3d 0bf0 babd
000001f0: 4b7c c83b 0f85 cdbc c14e 49bc 5c2d aabd
00000200: 9fbd 0fbd 307a 05be 28e0 c1bd 7516 743d
00000210: e859 c5bc 7824 4dbe 7f6f a3bd d0f6 8bbd
00000220: 7a06 81bd d5c1 2f3e 84ef 08be 1cc2 b8bc
00000230: 6c19 a7bd 76e1 36be 9785 583d afc8 76bc
00000240: 50cf 003e 2ef5 cbbd 831c 7fbc 8668 ee3d
00000250: 7651 4cbe c0b1 813d 6242 5abe 6ee4 9fba
00000260: 7c22 c3bc e28b 15bd d6dd 83bd 793d 5ebd
00000270: 57df 4bbd 4b33 93bd b5eb 26be 7dd2 85bd
00000280: 6fd1 0ebb 60af eebd f6b5 f5bc 45d3 66bc
00000290: 7e25 92bd 2de6 4abe b531 da3d 7701 43be
000002a0: 3fb4 3a3b 63c0 40bd 918b 0a3d 82c1 5cbe
000002b0: be02 623d 40b7 543d 793f 3dbe 63b3 a13d
000002c0: 2c57 bb3d 044d 73be 8970 9ebe bc9b 0b3e
000002d0: 4352 793d 1b19 22bd c9de 2f3d d2a0 a53c
000002e0: 0ef0 8f3d 9b34 7a3d 197f a8bd 2190 c4bd
000002f0: 307e 33be b4d0 913e 5a3f 91bb fa78 283d
00000300: 5c52 e23c ef20 203d 0dd4 033e c9e7 50bd
00000310: c054 b2bd b1f7 6a3e acba 69be 1ce5 68bd
00000320: 313e 6c3d 69ac 53be 6155 843d c9cf 3dbc
00000330: 5394 cdbd 09b1 3e3c 29b9 59bd fa55 a9bd
00000340: 9a46 2b3d cd5c 51bc 26e5 c8bd 8c34 8fbe
00000350: 0500 8e3c 6d74 2ebd 720f f03b 707e 15be
00000360: 0548 cbbc 447e 01be 323d f2bd 5cb0 09be
00000370: dec8 edbc b8be be3c af48 5f3d 00a6 1d3e
00000380: 0985 b23d 7aae 28be cf64 e93d 80ab b83d
00000390: 15d2 593e a5a9 02be 821e 253c 3f91 e13d
000003a0: 091d 24bd 6078 d8bd 0378 35bd b6f5 b4bd
000003b0: d9e0 debc b30c ccbd 5704 ecbb 089b 12be
000003c0: b0eb 46bd c126 96bd 90dc 2f3e 8f54 093d
000003d0: 34ac 4b3d 1f99 653e b6eb b1bd c4e2 013c
000003e0: 1df9 b7bc 9181 01bc e519 0fbe e2ca 6e3d
000003f0: 661e ab3d 376c 59be 40dd b13d 2a7f 743d

MLP.0.bias f4 [128]
0.004254389 -0.0039416025 0.016696962 0.020199519 -0.017085114 -0.015606643 -0.04205271 -0.088675454
-0.086534016 -0.00504563 -0.0027657172 -0.09233403 -0.006890471 -0.01484548 -0.05034476 0.0021676926
-0.017089201 0.015717503 -0.0016578467 -0.0027460582 -0.014695466 0.0006313535 -0.020619458 -0.060872693
0.10138436 -0.11928779 -0.023013711 -0.0028216725 -0.036311828 -0.027358554 -0.055869047 -0.07082572
-0.0043033445 -0.010941851 -0.049688272 -0.08906151 -0.03809236 -0.0386354 -0.05082488 -0.077325605
-0.10939452 -0.08013529 -0.015379396 0.09065018 -0.07380915 -0.044085808 -0.015586705 -0.047214154
-0.027854063 0.0018236071 -0.046004966 -0.059949912 0.009318982 -0.092812456 -0.026121404 -0.058013793
-0.0845328 -0.10974175 0.029586118 0.1495799 -0.06622104 0.0007734023 -0.010839623 -0.051908933
-0.088158995 -0.0293407 -0.009218178 -0.058829315 -0.05168286 -0.046406377 -0.074194625 -0.012583527
0.004366773 -0.06596039 -0.016131531 0.08107558 0.0043470683 -0.017359773 -0.0012743467 -0.026191646
-0.05130686 0.009986099 0.008594628 -0.08798793 -0.025056418 -0.04249134 -0.018571397 -0.075589426
-0.0036967548 -0.035765335 -0.059031345 -0.06396598 -0.087007396 -0.04114616 -0.022417566 0.01933199
-0.05279554 0.010339343 0.0120566925 -0.05949807 -0.0039059075 -0.06647391 -0.059920497 0.024511166
-0.047651317 -0.07924691 -0.07033495 0.003910935 -0.07106597 -0.089189924 0.010746207 -0.0058884867
0.008959899 0.014009651 -0.03690479 -0.054680455 -0.079970494 0.057041712 0.0049855644 0.005997111
0.015879449 -0.0100388015 -0.020939643 0.10207825 -0.056279503 -0.027413694 0.014106487 0.09539081
00000000: 6768 8b3b 8f28 81bb 11c8 883c 7679 a53c
00000010: 15f6 8bbc 01b3 7fbc 763f 2cbd 7a9b b5bd
00000020: bf38 b1bd d055 a5bb 0941 35bb a019 bdbd
00000030: 76c9 e1bb 753a 73bc 4f36 4ebd d90f 0e3b
00000040: a7fe 8bbc fec1 803c 1b4c d9ba 36f7 33bb
00000050: 40c5 70bc 6b81 253a 23ea a8bc a555 79bd
00000060: 9aa2 cf3d 284d f4bd 4087 bcbc cfeb 38bb
00000070: b6bb 14bd 0c1f e0bc f1d6 64bd 130d 91bd
00000080: 1203 8dbb 7345 33bc ee85 4bbd e265 b6bd
00000090: bc06 1cbd 2740 1ebd c02d 50bd e35c 9ebd
000000a0: 3c0a e0bd f91d a4bd ddf9 7bbc cda6 b93d
000000b0: 4029 97bd 5293 34bd 615f 7fbc a163 41bd
000000c0: 342e e4bc 1a06 ef3a b46f 3cbd 0a8e 75bd
000000d0: a5ae 183c 7514 bebd 8efc d5bc df9f 6dbd
000000e0: 881f adbd 48c0 e0bd 965e f23c 792b 193e
000000f0: e69e 87bd 26be 4a3a ad98 31bc 769e 54bd
00000100: b48c b4bd e85b f0bc d707 17bc 02f7 70bd
00000110: 68b1 53bd 9d14 3ebd 5af3 97bd 232b 4ebc
00000120: 2617 8f3b 3e16 87bd 4626 84bc f40a a63d
00000130: da71 8e3b 1536 8ebc fb07 a7ba dd8f d6bc
00000140: 2427 52bd bc9c 233c 7cd0 0c3c 0433 b4bd
00000150: 1e43 cdbc 660b 2ebd 0b23 98bc a1ce 9abd
00000160: 4145 72bb ac7e 12bd daca 71bd 9900 83bd
00000170: ef30 b2bd e088 28bd 0ba5 b7bc 1f5e 9e3c
00000180: 2340 58bd 5966 293c 6f89 453c 40b4 73bd
00000190: 41fa 7fbb 7923 88bd 326f 75bd a4cb c83c
000001a0: 072e 43bd 344c a2bd c50b 90bd 4d27 803b
000001b0: 098b 91bd 35a9 b6bd dc10 303c 35f4 c0bb
000001c0: 8acc 123c bc88 653c 7a29 17bd 9df8 5fbd
000001d0: 92c7 a3bd 92a4 693d f25d a33b 6a83 c43b
000001e0: 9e15 823c c979 24bc 9d89 abbc 670e d13d
000001f0: 5685 66bd af92 e0bc e51e 673c 425c c33d

MLP.2.weight f4 [128, 128]
-0.113230176 0.09729994 -0.14257997 -0.23945677 -0.09396858 -0.09009991 0.04106101 -0.020131188
0.046696126 0.12602885 -0.04556909 0.08430908 -0.13075653 -0.28679565 -0.048930757 -0.17260762
0.26338577 0.14045003 -0.06826446 0.111071676 -0.058010492 0.017545484 0.13236828 0.13094988
0.087467864 -0.13565923 -0.11667817 -0.0022258554 0.0823864 0.03587564 -0.119869225 -0.08679478
0.11196436 -0.04296331 -0.15504763 -0.17526035 -0.09085652 -0.06854966 -0.09854808 -0.0036615338
-0.11542116 -0.13275559 0.005342337 -0.120820425 0.019429201 -0.06875772 0.10599435 0.16067678
0.021867212 -0.05519552 0.2059712 0.0031845146 0.05410548 -0.050958626 0.11329406 0.11006006
-0.058361508 -0.18154289 -0.30054152 -0.29200223 0.021913232 0.008166634 0.037903603 -0.08777563
0.0044588563 0.12814885 0.030453337 0.1848841 0.028454794 0.09528741 0.12838699 0.14945254
0.06995252 -0.073598966 0.08260558 -0.13314272 0.10623149 -0.014602972 -0.0021019073 0.057025682
0.004717017 -0.065908685 0.040770605 -0.21988551 -0.13411947 0.046866063 -0.018272761 -0.073759854
0.12549873 -0.10356575 0.12977546 0.03778489 0.061769698 -0.013238699 -0.19590777 -0.04670551
0.018751277 -0.1708831 -0.13518937 0.013525798 0.033439837 0.13413057 0.13526738 0.013865642
0.063307844 -0.06426442 0.096823 -0.25380126 0.0748873 0.05065974 -0.2210647 -0.21065007
0.104689896 0.14789993 -0.20456001 -0.015570939 0.15274352 0.13956816 -0.3124003 -0.12913662
0.21364243 -0.23101369 0.08318536 0.017136382 0.043121994 -0.19483662 0.08355101 -0.026515432
0.053093575 0.06357007 -0.0089230435 -0.1519284 -0.08428249 -0.3477501 0.17902865 -0.07095064
0.0019208137 0.063507885 0.028748346 -0.06811492 -0.09414927 0.007940226 0.01620542 0.014686618
-0.15626504 0.0071204645 0.058475543 0.13799283 -0.034610312 -0.019393655 0.05932315 -0.073692136
0.057429597 -0.022144767 -0.023444094 0.10030539 -0.0701136 0.2940836 -0.18218058 -0.03590971
-0.10343457 0.043709625 -0.051236734 -0.16120432 -0.080496885 0.0023738523 -0.02902969 -0.08264991
-0.16086358 0.025405815 0.085267715 -0.11330999 0.016053142 -0.15465882 -0.06756151 -0.07214867
-0.08829519 -0.11213007 -0.050535582 -0.0804175 -0.037239842 -0.021300452 0.12201467 -0.09158321
0.054954663 -0.10865475 -0.055108044 -0.18595755 -0.16961133 -0.043278355 0.131992 -0.11600085
-0.17635861 -0.053154808 0.070541106 -0.11941472 -0.002011742 0.035689484 -0.20325872 -0.14469714
-0.031333033 -0.059528336 0.0024292239 -0.10904039 -0.11905646 0.006947885 -0.00094790314 0.033861846
-0.11313837 -0.024143424 -0.23104392 -0.08118068 -0.067255124 -0.08616916 0.051490955 -0.10845765
0.024740955 -0.12886499 0.2132305 -0.19299394 -0.031400718 -0.07498932 0.099626094 0.02578595
0.12875752 0.0037576857 0.042553723 0.034208156 0.1319328 -0.12175106 0.04793802 0.028320912
-0.027660651 0.11409723 0.02347031 -0.057177033 -0.03664344 -0.04212701 0.03836893 -0.14053954
-0.13807829 0.067087814 -0.21281442 -0.084198296 0.06820878 -0.08578728 -0.0083776815 -0.10027277
0.09049517 0.20377049 -0.14753972 0.16488896 -0.05019337 0.19946912 -0.16717562 0.07418055
00000000: 39e5 e7bd 3145 c73d 7c00 12be 2834 75be
00000010: 9972 c0bd 4d86 b8bd 972f 283d 29ea a4bc
00000020: 7044 3f3d b50d 013e a7a6 3abd 3daa ac3d
00000030: 0ae5 05be e1d6 92be 9e6b 48bd 0dc0 30be
00000040: 80da 863e 22d2 0f3e 3dce 8bbd 8c79 e33d
00000050: 699c 6dbd 8cbb 8f3c 8d8b 073e ba17 063e
00000060: 5a22 b33d 41ea 0abe f7f4 eebd a8df 11bb
00000070: 33ba a83d 56f2 123d ff7d f5bd 76c1 b1bd
00000080: 924d e53d 4cfa 2fbd cec4 1ebe 7377 33be
00000090: fc12 babd c463 8cbd 93d3 c9bd 58f6 6fbb
000000a0: ee61 ecbd 15f1 07be c50e af3b b370 f7bd
000000b0: fd29 9f3c d9d0 8cbd 9113 d93d 7488 243e
000000c0: de22 b33c b314 62bd 1dea 523e 4ab3 503b
000000d0: b59d 5d3d feb9 50bd b706 e83d 2b67 e13d
000000e0: 7a0c 6fbd 61e6 39be 94e0 99be 5181 95be
000000f0: 6183 b33c 58cd 053c cf40 1b3d b6c3 b3bd
00000100: 991b 923b 7439 033e 4779 f93c 4252 3d3e
00000110: 071a e93c 0c26 c33d e177 033e 160a 193e
00000120: 4443 8f3d 0ebb 96bd 1d2d a93d 9156 08be
00000130: e58f d93d 4e41 6fbc 27c0 09bb c393 693d
00000140: 3591 9a3b 22fb 86bd 14ff 263d ab29 61be
00000150: 9d56 09be a1f6 3f3d c2b0 95bc 680f 97bd
00000160: bd82 003e 481a d4bd dce3 043e 54c4 1a3d
00000170: 3902 7d3d 21e7 58bc 0c9c 48be 474e 3fbd
00000180: 479c 993c fbfb 2ebe 156f 0abe 4f9b 5d3c
00000190: 36f8 083d 8659 093e 8883 0a3e b82c 633c
000001a0: 8ba7 813d 109d 83bd 234b c63d 3df2 81be
000001b0: 835e 993d 9680 4f3d c95e 62be a7b4 57be
000001c0: a867 d63d 1473 173e 2e78 51be 401d 7fbc
000001d0: cc68 1c3e f5ea 0e3e eff2 9fbe 643c 04be
000001e0: 15c5 5a3e da8e 6cbe 165d aa3d 9961 8c3c
000001f0: b0a0 303d 4083 47be cb1c ab3d e436 d9bc
00000200: a678 593d 0631 823d f531 12bc 1e93 1bbe
00000210: 4c9c acbd 4d0c b2be 4953 373e 924e 91bd
00000220: d0c3 fb3a 6c10 823d a781 eb3c d67f 8bbd
00000230: 55d1 c0bd b917 023c 3bc1 843c 24a0 703c
00000240: f103 20be c952 e93b 0d84 6f3d fe4d 0d3e
00000250: 8bc3 0dbd 71df 9ebc d5fc 723d e7eb 96bd
00000260: 4c3b 6b3d f168 b5bc d40d c0bc ea6c cd3d
00000270: b897 8fbd 2092 963e 8c8d 3abe 0f16 13bd
00000280: 81d5 d3bd dd08 333d 9cdd 51bd bf12 25be
00000290: 8ddb a4bd a292 1b3b accf edbc 5b44 a9bd
000002a0: 6cb9 24be db1f d03c d7a0 ae3d 110f e8bd
000002b0: e181 833c e25e 1ebe b05d 8abd afc2 93bd
000002c0: 1cd4 b4bd 73a4 e5bd 66fe 4ebd eeb1 a4bd
000002d0: ce88 18bd 497e aebc d4e2 f93d fa8f bbbd
000002e0: 2418 613d 6286 debd f9b8 61bd a86b 3ebe
000002f0: 98ae 2dbe a544 31bd e928 073e db91 edbd
00000300: 5a97 34be dbb8 59bd db77 903d b48f f4bd
00000310: 6ed7 03bb 232f 123d 0e23 50be 7d2b 14be
00000320: 1157 00bd fcd3 73bd 9d33 1f3b 9150 dfbd
00000330: e0d3 f3bd 15ab e33b b47c 78ba b8b2 0a3d
00000340: 17b5 e7bd 6ec8 c5bc c796 6cbe 0e42 a6bd
00000350: 0ebd 89bd 7579 b0bd 2ee8 523d 0b1f debd
00000360: 8bad ca3c 2ff5 03be 1959 5a3e 34a0 45be
00000370: 0a9e 00bd 0094 99bd c408 cc3d 0e3d d33c
00000380: 03d9 033e 8143 763b d04c 2e3d da1d 0c3d
00000390: 6419 073e 9f58 f9bd a85a 443d 4201 e83c
000003a0: 9798 e2bc cfab e93d cf44 c03c 7732 6abd
000003b0: 6f17 16bd 5f8d 2cbd bd28 1d3d 99e9 0fbe
000003c0: 6564 0dbe 5665 893d 06ec 59be 2870 acbd
000003d0: 0bb1 8b3d 3eb1 afbd 8b42 09bc cf5b cdbd
000003e0: 8855 b93d 36a9 503e a714 17be a7d8 283e
000003f0: 9097 4dbd a241 4c3e 1630 2bbe f9eb 973d

MLP.2.bias f4 [128]
-0.051423356 -0.058742706 -0.057899907 -0.06008554 0.033626582 -0.02069329 -0.060101423 -0.007945655
0.0046098013 -0.04912938 -0.059991904 -0.021294344 0.009764083 -0.060079165 0.015287076 -0.058659162
-0.059507176 0.027152518 -0.080137655 -0.01633507 -0.054706328 -0.051600337 0.036627676 -0.057464372
-0.06883091 -0.060032103 0.03836596 0.03755996 0.016470002 -0.07230389 0.03425006 0.038071875
-0.055836603 -0.05881398 -0.06008234 -0.059890836 0.020360786 -0.034403373 -0.055557918 -0.05391868
-0.07544925 -0.057194147 -0.02947506 -0.06002922 0.038247027 -0.026158767 -0.0052104075 -0.07824632
0.029699117 -0.06931625 0.03698019 -0.006608319 0.011981664 -0.07823735 -0.07454108 -0.06436914
-0.0346197 0.013552165 0.035258703 -0.06300455 -0.01794507 -0.034697752 -0.059710424 -0.06306144
-0.059911996 -0.05973749 -0.013606955 -0.062773 -0.0060723303 -0.057420112 -0.023568727 0.028456515
-0.035038643 -0.060066525 -0.017494865 0.023174807 0.03137334 0.03806124 -0.055428635 -0.06979579
-0.0052685873 -0.060033355 0.029691404 0.03426493 0.02615254 0.039463677 0.03253522 -0.060008768
0.004082005 0.010355795 -0.007973967 -0.051931832 0.02703575 -0.07224504 0.028014377 0.039502177
0.02141966 0.005295276 0.03274149 0.0067666415 -0.052903377 0.011798146 -0.058844212 -0.025216362
-0.07753601 -0.06072372 -0.03411117 -0.02534034 -0.060077947 -0.07514552 -0.048694108 -0.053554405
0.04040478 -0.057205185 0.03548488 -0.059496354 -0.058390778 -0.059721105 -0.068205774 0.012074971
-0.07707245 0.03779088 0.032160178 0.029669562 -0.009969409 -0.062045224 -0.05977402 0.027072947
00000000: 4ca1 52bd 319c 70bd 7428 6dbd 411c 76bd
00000010: 07bc 093d f984 a9bc e92c 76bd 7e2e 02bc
00000020: d10d 973b e43b 49bd 12ba 75bd 7a71 aebc
00000030: 88f9 1f3c 9215 76bd a576 7a3c 9744 70bd
00000040: ccbd 73bd f56e de3c 361f a4bd 20d1 85bc
00000050: be13 60bd e05a 53bd e706 163d c35f 6bbd
00000060: 38f7 8cbd 39e4 75bd a025 1d3d 79d8 193d
00000070: 19ec 863c 1014 94bd ca49 0c3d 41f1 1b3d
00000080: ecb4 64bd eee6 70bd e618 76bd 1850 75bd
00000090: aacb a63c 8dea 0cbd b390 63bd d5d9 5cbd
000000a0: 2385 9abd 6944 6abd ae75 f1bc 33e1 75bd
000000b0: eaa8 1c3d e94a d6bc 11bc aabb 9b3f a0bd
000000c0: 904b f33c aef5 8dbd 8a78 173d 998a d8bb
000000d0: be4e 443c e73a a0bd fea8 98bd f8d3 83bd
000000e0: 63cd 0dbd e609 5e3c 6e6b 103d 8808 81bd
000000f0: 8a01 93bc 3b1f 0ebd eb92 74bd 5b26 81bd
00000100: 4866 75bd 4caf 74bd b5ef 5ebc 218f 80bd
00000110: 66fa c6bb 5a31 6bbd 3413 c1bc a31d e93c
00000120: ae84 0fbd 5108 76bd 6451 8fbc 18d9 bd3c
00000130: 5581 003d 1ae6 1b3d 2309 63bd 18f1 8ebd
00000140: 1da4 acbb 89e5 75bd 633b f33c 6259 0c3d
00000150: da3d d63c aaa4 213d a743 053d c1cb 75bd
00000160: 57c2 853b 5aab 293c 3ea5 02bc 79b6 54bd
00000170: 147a dd3c 35f5 93bd 687e e53c 09cd 213d
00000180: 4878 af3c ff83 ad3b f11b 063d b4ba dd3b
00000190: 36b1 58bd 034d 413c a106 71bd 8b92 cebc
000001a0: 33cb 9ebd 6fb9 78bd 27b8 0bbd 8b96 cfbc
000001b0: 4b14 76bd e5e5 99bd 7973 47bd dd5b 5bbd
000001c0: 7c7f 253d fc4f 6abd 9858 113d 73b2 73bd
000001d0: 2b2b 6fbd 1e9e 74bd 78af 8bbd 19d6 453c
000001e0: 29d8 9dbd 9cca 1a3d 64ba 033d 950d f33c
000001f0: bb56 23bc 2223 7ebd 9ad5 74bd 16c8 dd3c

MLP.4.weight f4 [1, 128]
-0.027809896 0.045897115 -0.03190233 -0.15953359 0.07656271 -0.05947444 -0.020060925 -0.04592547
0.011987014 -0.002120392 0.039865304 -0.047149975 0.07641224 -0.07699079 0.05538294 -0.28359476
-0.102643885 0.06028085 -0.107745685 0.021951173 -0.012186367 -0.053765126 0.11825495 0.0012840882
-0.004585624 -0.09252046 0.11340984 0.12880467 0.06182008 0.042870123 0.10937154 0.07922496
-0.17745149 0.031593997 -0.08867856 0.044845782 0.04854396 -0.101145685 0.04455552 -0.065460995
-0.18377882 -0.0641721 -0.0058474657 -0.08433025 0.14606746 -0.019735904 0.011405715 0.043533538
0.07129574 0.040348064 0.14297207 0.038367156 0.059718154 -0.092551574 -0.07824403 0.059429742
-0.07232505 0.029920027 0.1309856 -0.15898097 -0.013850133 -0.105463326 -0.039060347 -0.0636255
-0.0032280122 -0.025658043 0.03774906 0.05963977 0.11083328 -0.0337224 -0.06984615 0.0687088
0.009876199 -0.009038493 0.025051072 -0.075251594 0.08950936 0.12669802 -0.030742213 -0.07458433
0.024806323 -0.0063267434 0.070533134 0.10704764 0.1268229 0.14562327 0.12295418 -0.09218045
0.037439317 0.03593259 0.09351974 0.0016621356 0.08740938 -0.08448338 0.06937096 0.1609362
0.18651962 -0.023245126 0.084097035 0.020350672 -0.088058844 0.04220499 -0.06688839 0.020123947
0.025081864 -0.07489419 0.012773158 -0.058058985 -0.09856899 0.06312586 0.013672238 0.043784108
0.22386394 0.031093512 0.20393558 -0.08860678 0.017718628 -0.023511004 0.034828085 0.017037267
0.056161534 0.14033413 0.08195748 0.08132253 -0.0034175527 0.0336968 0.01629976 0.081965834
00000000: 94d1 e3bc 9dfe 3b3d 05ac 02bd c65c 23be
00000010: e9cc 9c3d 789b 73bd cf56 a4bc 581c 3cbd
00000020: 2e65 443c 46f6 0abb cd49 233d 5520 41bd
00000030: 057e 9c3d 59ad 9dbd 39d9 623d 5533 91be
00000040: f536 d2bd 0de9 763d c5a9 dcbd f2d2 b33c
00000050: 54a9 47bc d238 5cbd a72f f23d da4e a83a
00000060: 0143 96bb 5e7b bdbd 6b43 e83d 5fe5 033e
00000070: 0d37 7d3d 9598 2f3d 30fe df3d b240 a23d
00000080: d8b5 35be b568 013d 1b9d b5bd 36b0 373d
00000090: 08d6 463d 7825 cfbd d97f 363d 6a10 86bd
000000a0: 8430 3cbe a96c 83bd 199c bfbb 57b5 acbd
000000b0: b592 153e 31ad a1bc 09df 3a3c 3950 323d
000000c0: 8003 923d 0344 253d 4567 123e e126 1d3d
000000d0: 069b 743d ae8b bdbd 683e a0bd 9a6c 733d
000000e0: 281f 94bd d81a f53c 1721 063e e8cb 22be
000000f0: abeb 62bc 28fd d7bd befd 1fbd 164e 82bd
00000100: 0f8d 53bb d130 d2bc c29e 1a3d d548 743d
00000110: 8ffc e23d 8020 0abd 800b 8fbd 33b7 8c3d
00000120: c8cf 213c 3016 14bc e837 cd3c 821d 9abd
00000130: af50 b73d 20bd 013e 18d7 fbbc abbf 98bd
00000140: a136 cb3c 9250 cfbb ad73 903d cb3b db3d
00000150: dddd 013e 441e 153e 67cf fb3d 1bc9 bcbd
00000160: f859 193d 0d2e 133d 4787 bf3d 04dc d93a
00000170: b003 b33d 9f05 adbd 5d12 8e3d 76cc 243e
00000180: 00ff 3e3e 906c bebc 113b ac3d 74b6 a63c
00000190: 3258 b4bd 24df 2c3d c8fc 88bd fada a43c
000001a0: 7b78 cd3c 2062 99bd 8246 513c 42cf 6dbd
000001b0: 8ade c9bd 2248 813d 8601 603c f756 333d
000001c0: 973c 653e d2b7 fe3c 7dd4 503e 7977 b5bd
000001d0: a826 913c 269a c0bc e5a7 0e3d bd91 8b3c
000001e0: a309 663d c0b3 0f3e 53d9 a73d 6d8c a63d
000001f0: 05f9 5fbb a805 0a3d 1387 853c b4dd a73d
