new_ver1/model_parameter/batch256_epoch10000.pth (torch, 7744 bytes, 5 tensors)

MLP.0.weight f4 [32, 3]
000000 36 46 01 be 8e 77 e4 3d c6 96 26 3e 91 b4 91 be
       -0.1262444 0.11155616 0.16268453 -0.28458074
000010 0d a8 9a bd 6a d9 ea bd bb ff 6b 3e f7 ae b0 be
       -0.075515844 -0.1146725 0.23046772 -0.34508488
000020 7f b1 0b 3e 8e 5f 05 3e f9 40 81 be df 9f c6 3d
       0.13641928 0.13024732 -0.25244883 0.09698462
000030 9c 2b 39 bd 65 30 4c 3d 5a 6e c6 3c ad bd 80 3e
       -0.045207605 0.04985084 0.024222542 0.2514471
000040 8d 35 d9 be f5 47 03 3e 58 d3 91 be 2d 89 86 bd
       -0.42423669 0.12820418 -0.28481555 -0.06569133
000050 5c 0a 66 be fc 42 3d 3e d0 89 9c 3d 94 ee 6c 3e
       -0.2246489 0.18482584 0.07643473 0.23137885
000060 70 27 3a be 0c 13 ce bd 14 80 70 be 27 17 a8 3e
       -0.18179107 -0.10062227 -0.23486358 0.32830164
000070 dd af aa bd 3a 73 08 3e f8 9d 9a be 2e 02 0f bd
       -0.083343245 0.13325205 -0.30198646 -0.034914188
000080 aa 4b 60 be fb 43 58 bd 85 a5 8d 3e dc b8 ef bd
       -0.21903864 -0.052799206 0.27665344 -0.11705181
000090 50 1b 31 3e d7 e3 bb be f5 d5 74 3e 60 3b a2 3e
       0.17295575 -0.36697266 0.23909743 0.31685925
0000a0 bc ee 3b 3a 85 88 43 3d f7 8e d8 bd 68 25 02 3e
       0.0007169058 0.047737617 -0.105741434 0.12709582
0000b0 27 41 37 3d e5 f7 d9 3e b3 20 1d 3e d7 54 f6 3d
       0.04473987 0.4257194 0.15344505 0.12027901
0000c0 9e 2e 49 3e a2 14 8c be dd a9 3c 3e df 09 31 3e
       0.1964669 -0.27359492 0.18424173 0.17288922
0000d0 7f 51 63 be b3 55 16 3e 16 01 09 bf 30 7d 1e bf
       -0.22199057 0.14681129 -0.5351728 -0.6190977
0000e0 da 1c ba 3e 07 b4 79 3e 54 f4 39 3e bf 3b 8b 3e
       0.36350137 0.24385081 0.1815961 0.2719402
0000f0 b2 a6 da 3d 76 33 88 3e 90 99 db be 57 a1 07 be
       0.10676326 0.26601762 -0.42890596 -0.1324514
000100 a2 09 ef 3c 9e b5 ed bd 13 bf 6d 3e 59 b2 ae be
       0.029179398 -0.11606906 0.2321742 -0.34120443
000110 2c 81 25 3e 46 7e 2f 3e 93 3f 9f be 33 d9 92 3e
       0.16162556 0.17138013 -0.3110319 0.28681335
000120 8d 91 82 3e c0 84 1c 3d 1b eb 2d 3e ba 9d 28 3e
       0.2550167 0.038212538 0.16984217 0.16466418
000130 06 fd 18 3e 30 b4 78 3e 2f 09 96 3e f5 3c ad 3c
       0.14940271 0.24287486 0.29303882 0.02114723
000140 73 f9 63 3e c0 26 2e 3e 2c 44 0e 3e bb 30 00 3e
       0.22263126 0.1700697 0.13893193 0.12518589
000150 eb e8 b3 be db 60 8c 3c 57 ce 86 be e6 55 cc be
       -0.3513864 0.017136028 -0.263293 -0.39909285
000160 47 f1 e0 3c 1d ed 1a be 5c b8 61 be af f7 02 be
       0.0274588 -0.15129514 -0.22042984 -0.12789796
000170 de 7a 3d be 68 57 00 3e 1d ca a1 3d 1b 6f 2e 3e
       -0.18503901 0.12533343 0.07899878 0.17034571

MLP.0.bias f4 [32]
000000 0b 67 92 3e 66 35 50 3d 2f eb 4f be ed 5e e2 bd
       0.2859424 0.050832175 -0.20304559 -0.11053262
000010 40 16 1d bd 4d af 68 be 3f c9 0b 3d 8d d8 87 bc
       -0.038351297 -0.22723122 0.03412747 -0.016582752
000020 fd ea 3f 3d 2c d4 2a be eb d4 df 3c d5 a4 2f 3e
       0.04685496 -0.166825 0.027323207 0.17152722
000030 84 55 f3 bd 52 90 d0 bd 18 6c 82 3e ef b8 1e bd
       -0.11881545 -0.10183777 0.25473094 -0.038750585
000040 7c bf d3 bd e2 f4 4b be 8a 62 a5 3e 33 a6 8e bc
       -0.10339257 -0.19917634 0.32301742 -0.017413234
000050 cd d6 f2 3d 54 a8 4c bc ba 85 4e be cf c5 06 be
       0.11857376 -0.012491304 -0.201682 -0.13161395
000060 77 0e e8 bc 1c 45 0c bd 73 0b 0e bd ca 09 9e bd
       -0.02832721 -0.034245595 -0.034678888 -0.07716711
000070 fa b3 c4 3c 67 74 87 3c dc 41 e4 3c 75 c8 be bc
       0.0240116 0.016534997 0.027863435 -0.023288945

MLP.2.weight f4 [32, 32]
000000 d9 99 f5 be 23 73 4a be 16 d5 60 3e 82 dd b1 bc
       -0.4796894 -0.19770484 0.21956286 -0.021712068
000010 57 8a a3 bc 0d 33 29 3e 4e 67 f9 bd 79 a5 ae 3e
       -0.019963427 0.1652338 -0.12177907 0.3411062
000020 b5 91 d3 bc ba 63 58 3e 12 ce 89 be 7e 88 18 be
       -0.025826314 0.21131793 -0.26915032 -0.14895818
000030 fc a6 ab 3e 3f 59 80 3d 60 46 9e be b0 b7 ae 3e
       0.33525836 0.06267022 -0.30913067 0.34124517
000040 b2 27 31 3e 7d 8f de bc 7c 60 05 bf ef 83 07 3e
       0.17300299 -0.02716803 -0.5210035 0.13233922
000050 1a 7e 66 bd 7e 93 34 be 5f d5 c1 3e 6e 5c 53 3e
       -0.056272604 -0.17634389 0.37858102 0.20640728
000060 eb 0c 59 3e 86 ca 08 3e 8b 55 8d 3e 39 b7 70 3d
       0.21196334 0.13358507 0.27604327 0.058768485
000070 e0 40 c5 3c dc fe 31 be 01 a3 c6 bd 5e b6 0b 3e
       0.024078786 -0.17382377 -0.09699059 0.13643786
000080 43 de 24 bf 68 f4 f0 bd f5 9b ce 3e 44 51 80 3e
       -0.64401644 -0.11765367 0.4035336 0.25062
000090 e7 ff a5 bd e9 20 8a 3e 6a dd 30 be 55 1a fe 3d
       -0.0810545 0.26978233 -0.17271963 0.12407366
0000a0 8c a9 80 bd 2b 9c b5 3e a6 14 21 be 15 a0 c3 be
       -0.062823385 0.3547071 -0.15730533 -0.3820807
0000b0 d3 46 94 3e ab f1 b3 3d d9 68 9d be 1a 12 7a 3e
       0.28960285 0.08786329 -0.30744055 0.24420968
0000c0 2c 6e d6 3e a5 d8 96 3e dd ee 15 bf ed dd 2a bd
       0.4188093 0.29462162 -0.585676 -0.04171555
0000d0 82 30 b8 be 71 de 1b be 84 ea c6 3e 9b 4e b3 3e
       -0.3597451 -0.15221573 0.38850796 0.3502091
0000e0 82 91 29 3c 7a 21 02 3e 7d 7f c4 3d 7f de aa bd
       0.010349633 0.12708083 0.09594629 -0.08343219
0000f0 09 37 bb be 9d cc 1e be f1 60 ed bc e2 cd 30 bd
       -0.36565426 -0.15507741 -0.02897689 -0.043165095
000100 cc db f2 be 82 74 c1 be 53 8d e9 3e 73 97 a1 3d
       -0.47433317 -0.377842 0.45615634 0.07890215
000110 a1 81 72 be 79 1d 16 3f d7 33 a2 be cd d3 97 3d
       -0.23682262 0.5863872 -0.31680176 0.07413445
000120 f7 e3 0e be 46 97 a9 3e 4a dd 2b be 17 bd 74 be
       -0.13954149 0.33123225 -0.16783634 -0.23900257
000130 6a 78 82 3e ef 2c 9a 3d 1e b8 e2 be 82 09 64 3e
       0.25482494 0.07528102 -0.44281095 0.22269252
000140 c7 26 55 3e 2f 2e 90 3d ea 20 35 bf fb 2a 06 3e
       0.20815574 0.07040059 -0.7075335 0.13102333
000150 24 aa c6 be 2b 7d 64 be c1 6f 96 3e bb 9d 88 3e
       -0.38801682 -0.22313373 0.29382136 0.2668284
000160 84 ea 09 3e c9 67 3b 3e d8 7a bf 3d 75 62 10 3d
       0.13468367 0.1830131 0.093496025 0.035250146
000170 ff 93 af be 35 d0 06 be 5c 5e b4 3d 35 d3 0a 3e
       -0.342926 -0.13165362 0.0880706 0.13557132
000180 64 b7 e7 3c 44 aa 65 3e 1f c2 04 bf 87 25 c1 be
       0.02828569 0.22428232 -0.51858705 -0.37723944
000190 05 41 a1 bd 9e 7f 00 bf 38 0c a6 3e bd 2f e1 be
       -0.078737296 -0.5019473 0.32431197 -0.43981734
0001a0 56 e6 03 3e ed f9 2c be 2e 3e ee 3d 2b a2 85 bc
       0.12880835 -0.16892214 0.116329536 -0.01631268
0001b0 cb d6 bd be 4c 44 3f be 61 01 57 3d 74 78 92 be
       -0.37077937 -0.18678397 0.05249155 -0.28607523
0001c0 0a b3 83 be c8 47 c9 be 09 4b 06 3f 4e dc 6c be
       -0.25722533 -0.39312577 0.52458245 -0.23130915
0001d0 bb a6 a3 be 8c d0 21 bd 4c da ad be 27 80 14 be
       -0.31963143 -0.039505526 -0.3395561 -0.14502011
0001e0 77 42 85 bd 27 46 05 be 71 97 c5 bd b5 cf fa bd
       -0.06506818 -0.13015042 -0.09648026 -0.12246648
0001f0 b4 0b 1a 3e ca 6c 06 3e e0 e4 9e 3e 6c 88 ce bc
       0.15043527 0.13127437 0.31033993 -0.025211535
000200 cc c8 61 3c ab db 82 3e ec 29 e3 be 84 b3 79 be
       0.013780784 0.25558218 -0.4436792 -0.24384886
000210 53 5d 45 bb 78 96 87 be 3b 33 6d 3e 1c 32 2a be
       -0.003011544 -0.26481986 0.23164074 -0.16620678
000220 52 5e f7 3b a7 b2 3d be cb 39 b4 3d 57 0a 43 bd
       0.0075490857 -0.18525182 0.08800086 -0.047617283
000230 91 38 99 be c9 4e 36 be 4d d8 49 bd c1 84 95 be
       -0.2992597 -0.17803492 -0.049278546 -0.29202846
000240 23 4b f7 bd a7 ae 26 be 14 12 f3 3e 7c db 7c be
       -0.12074878 -0.16277562 0.4747473 -0.24693102
000250 fb 21 83 be 21 17 78 3e c5 16 8c be d2 d7 b4 be
       -0.25611863 0.24227573 -0.27361122 -0.35320908
000260 07 5e e9 bd 0d da b0 be 32 c1 4e be e5 ea 84 be
       -0.113948874 -0.3454136 -0.20190886 -0.2596046
000270 db 8b 08 3e 15 a8 fa 3c 03 9c 96 3e ce 41 50 be
       0.133346 0.030597726 0.29415902 -0.20337602
000280 be 2d 15 bf d5 a9 41 bd ff b6 bc 3e 9f 48 cc 3e
       -0.5827292 -0.047281105 0.36858365 0.39899155
000290 de 42 55 3e c5 c1 98 3e d0 25 09 3c 4f fa 46 3d
       0.20826289 0.29835334 0.008370832 0.048578557
0002a0 fd 8a 6a be df 1c 34 3e 1a 1b e6 bc 7a bf b2 be
       -0.22904582 0.17589138 -0.028089095 -0.3491171
0002b0 7e b3 b2 3e 2b a7 25 3e d2 8e 8a be b2 da 00 bd
       0.34902567 0.16177051 -0.27062088 -0.031458564
0002c0 31 67 99 3e ea 0f de 3e e4 59 3a bf 6a de 3b 3e
       0.2996154 0.43371516 -0.7279341 0.18346563
0002d0 36 3a dd be 6e 4c 2b bd 23 34 26 3f e1 f4 b8 3e
       -0.43208474 -0.041820936 0.64923304 0.36124328
0002e0 ea 35 02 3d 5e b5 60 3e 87 94 33 3d 07 5b 49 3e
       0.031789698 0.21944186 0.04384282 0.1966363
0002f0 12 8b d7 bd 1b 0d f2 be 84 0b 23 be e4 ce de 3d
       -0.105245724 -0.47275624 -0.15922362 0.10879305
000300 43 53 ae be 49 8e 81 be 2f b1 d0 3e 28 e3 10 3f
       -0.340479 -0.25303867 0.4076018 0.5659661
000310 65 ce a9 bd 8e 75 fd 3e e6 73 1b be 32 65 8e 3d
       -0.0829132 0.4950375 -0.1518093 0.06952895
000320 e7 70 12 be 85 67 81 3e c9 9d 0a be 84 01 e0 be
       -0.14300881 0.25274292 -0.13536753 -0.43751156
000330 31 d1 65 3d 7a 4c e1 3d 71 40 be be f0 25 07 3e
       0.056107704 0.11000915 -0.3715854 0.13198066
000340 f9 1b e3 3e 8d f2 b4 3e ef c5 4a bf 71 bc 32 3d
       0.4435728 0.35341302 -0.7920827 0.043636743
000350 10 b7 14 be 33 29 3b be 98 a9 1b 3f 57 0f cd 3e
       -0.14522958 -0.18277435 0.60805655 0.40050766
000360 fa 5f 59 3e 9c 46 60 3e a7 ce 93 3c ce 05 7b 3d
       0.21228018 0.21901935 0.018042875 0.061284833
000370 38 16 4b bd 36 ce 30 be 04 67 36 be b0 03 73 3e
       -0.049581736 -0.17266163 -0.17812735 0.23731875
000380 c5 85 8d be 32 e5 ae be aa cc 96 3e 81 ca 27 3e
       -0.2764112 -0.34159237 0.2945302 0.16385843
000390 03 d4 9e bc bd 7d 90 3e c0 57 cb be ff ab 25 3d
       -0.019388204 0.2822093 -0.39715385 0.04044723
0003a0 94 4f 1a be 53 ca cf 3d aa 0f 37 be ed 50 5c be
       -0.15069419 0.10146012 -0.17877069 -0.21515246
0003b0 13 0f ac 3e 3c 17 65 3e 16 24 9a be cb ae 3c 3e
       0.3360525 0.22372144 -0.30105656 0.18426053
0003c0 83 34 e2 3e 13 de 98 3e 41 3b 45 bf 9b ea ff 3c
       0.44180688 0.2985693 -0.7704354 0.031239798
0003d0 6a ff 26 be dd 19 8a be b7 6f dd 3e 11 b4 f5 3e
       -0.1630837 -0.26972857 0.43249294 0.47988942
0003e0 87 08 f3 3e 08 e1 13 3e 59 a8 9f 3d d1 24 bd 3d
       0.47467443 0.14441311 0.07795782 0.09235538
0003f0 2e d8 68 bd e5 4e e9 bd d1 b5 18 be f4 4e 47 3e
       -0.05684679 -0.11392001 -0.14913107 0.19463712

MLP.2.bias f4 [32]
000000 7c d6 00 3c a9 ef 51 bd 31 ce 5b bd 12 49 0a be
       0.007863637 -0.05125395 -0.053663436 -0.13504437
000010 14 7a ca bd a0 38 a8 bd a0 79 39 be 70 07 0c bc
       -0.09886566 -0.08213925 -0.18112803 -0.008546695
000020 65 7f 80 3c 87 eb 54 bd 79 89 1e bd 95 c3 8d 3d
       0.015685746 -0.05198243 -0.038705323 0.0692207
000030 3d b8 12 bd d1 cc 92 bb 83 76 4b bd bf 26 4e bd
       -0.035820235 -0.0044799824 -0.04967357 -0.05032992
000040 c2 5b 05 3c bb 31 8c bc c9 21 05 be a9 68 a5 3d
       0.008139553 -0.017113557 -0.1300117 0.08076603
000050 a1 df e8 bc 36 18 39 bc 3b dd 64 bb e7 cd 89 3d
       -0.028426947 -0.011297276 -0.0034921903 0.06728726
000060 b7 b0 0f bd 2e e4 42 3d f4 b8 8b 3d d8 7b 0d be
       -0.035080638 0.04758089 0.068223864 -0.13816774
000070 32 89 ef bc ce d3 36 bb 1a 75 17 bd d8 92 cc 3c
       -0.029240225 -0.0027897242 -0.03697691 0.024972364

MLP.4.weight f4 [1, 32]
000000 c5 74 91 3e af 9f cd 3e f2 70 aa 3e bd 0f 9d be
       0.284094 0.4016089 0.33289295 -0.3067607
000010 c0 8e 7c be 01 5b b9 3e 8e b2 aa 3e bb 85 96 3e
       -0.2466383 0.36202243 0.3333935 0.29398903
000020 aa 8f c2 3e 01 44 97 3e 60 5a 0f be f4 4c 9f 3e
       0.38000232 0.2954407 -0.13999319 0.31113398
000030 48 26 21 be e2 07 ed 3e a4 89 66 be 52 2c d8 3e
       -0.1573726 0.46295077 -0.22513443 0.42221314
000040 d0 b8 86 3e 97 0e 9d bd ba 48 8d be c4 f1 82 be
       0.26312876 -0.076687984 -0.27594548 -0.25575078
000050 3e 8b 00 be cf 5a d4 3e 65 0d 82 3e 8f 4c 8d 3e
       -0.12553117 0.4147553 0.25400844 0.27597472
000060 bd 12 44 be 8b 16 08 be 8a 4e 7f 3e 8c 9c aa 3e
       -0.19147773 -0.1328985 0.24932304 0.3332256
000070 67 d3 85 be 88 56 c2 3e 12 8a a2 be 45 b7 bc 3e
       -0.2613785 0.37956643 -0.31745964 0.36858574
