new_ver1/model_parameter/batch128_epoch10000_Mynetwork_2_64.pth (torch, 21014 bytes, 5 tensors)

MLP.0.weight f4 [64, 3]
000000 49 56 ae bd fd a1 45 3c c4 4c 39 bd d1 84 a9 3c
       -0.08512551 0.012062547 -0.045239225 0.020693215
000010 e3 11 08 3e 57 98 86 bd da 2f 14 be f3 4e 84 3d
       0.13288073 -0.06572025 -0.14471379 0.06460371
000020 96 ad 92 bd 50 60 e2 bd 63 25 1d 3e a1 82 94 3b
       -0.07162015 -0.110535264 0.15346293 0.0045321737
000030 4c 89 94 bc 44 0f c0 bd f8 bc cb 3c be 35 30 3e
       -0.018131875 -0.09377912 0.02487038 0.17208001
000040 7b d8 0a be ff df 29 3d 42 4a 06 be b5 31 a0 3c
       -0.13559143 0.041473385 -0.13114265 0.019554952
000050 0d 7c 81 bd 10 a6 38 bc dd 6c f0 3c e5 58 0c be
       -0.06322489 -0.011270061 0.029348785 -0.13705786
000060 1e 7f 47 be 02 cc 0d 3e d2 73 00 3e 5d 87 a3 3d
       -0.19482085 0.13847354 0.12544182 0.07984803
000070 99 92 17 3e 86 70 3c 3e a1 aa f2 3d 8b 8d 15 be
       0.14802016 0.184023 0.11848951 -0.14604776
000080 4d 96 07 3e b5 18 d6 3d 9a 4c ec bd ef 1d 8b 3d
       0.13240929 0.10453931 -0.11538048 0.06792819
000090 03 39 84 be 57 69 3a bd 22 c4 14 bc a6 da b2 bd
       -0.25824746 -0.045510616 -0.009079965 -0.0873311
0000a0 af f3 17 3e 51 5d ba b8 fe 13 db 3c cb ac 45 3d
       0.14839052 -8.886553e-05 0.026742931 0.04826049
0000b0 e0 99 16 bb 54 86 1e 3e fc ab 0b 3a 6e 98 0d 3c
       -0.00229799 0.1548093 0.0005328057 0.008642299
0000c0 3f c0 3e 3e 18 d2 e1 3d e0 1a b3 3c d3 07 49 3e
       0.18628024 0.110264 0.021863401 0.19631891
0000d0 7c 35 33 bd 7a 09 44 3e f4 c2 c1 bd d4 15 18 be
       -0.04375218 0.1914424 -0.094610125 -0.14852077
0000e0 f0 b6 23 be 1e 0d da bd 56 50 2b 3b 89 42 c0 bd
       -0.15987754 -0.10647033 0.0026140413 -0.093876906
0000f0 93 97 39 3d b4 16 33 3e c1 a5 11 3e 64 7a a4 bd
       0.045310568 0.1748913 0.14223386 -0.08031157
000100 f2 6a b8 bc fc 60 65 be fe c8 19 be 0c ed be bc
       -0.022511933 -0.22400278 -0.15018079 -0.023306392
000110 bc d8 ca bd 2f af 1a 3e ed 32 97 be fe 9d ee 3d
       -0.0990462 0.1510589 -0.2953104 0.11651228
000120 ff 23 6c 3e 3d d0 09 be b8 8c 73 3c 42 3e 90 bd
       0.23060606 -0.13458343 0.014865093 -0.07043125
000130 37 41 cd 3b 8e 02 5b 3b f3 36 0f bd 56 07 8b 3d
       0.0062638777 0.003341827 -0.034964513 0.067885086
000140 f2 55 5e be 58 ec 50 bc a0 45 80 bb f3 25 e7 ba
       -0.21712473 -0.012751661 -0.00391455 -0.0017635211
000150 90 8e ed 3c 22 10 8a bd 23 32 81 bd b7 1a 1d 3e
       0.028998643 -0.06741358 -0.06308391 0.15342222
000160 3d c2 f7 3d fd 19 34 3c 4c 4f cb 3d 4f 64 cc bd
       0.12097595 0.010992524 0.09927234 -0.0998007
000170 d5 03 2b 3e cd ca da 3d 1e 66 e8 bd 5b e1 a3 3d
       0.1670068 0.106832124 -0.11347602 0.080019675
000180 1a 97 87 3c 3e 73 64 be b2 09 bb bd 7c 4b 8a 3d
       0.016551543 -0.22309586 -0.091327086 0.06752679
000190 1d d7 9b 3c 14 fa 47 be 68 7e 7f 3e 0a 09 07 bd
       0.019023472 -0.19528991 0.24950564 -0.032967605
0001a0 30 12 95 3d ca 99 34 bc 92 64 94 ba c7 dd 3b be
       0.072788596 -0.011022994 -0.0011321476 -0.1834632
0001b0 89 5c 14 3e ea ec 52 be fc a7 27 3e 8a d9 a6 3e
       0.14488424 -0.20598188 0.16372675 0.32587844
0001c0 6e 17 0a 3c 00 a9 06 bd c5 2a c4 3c a9 0c e7 3d
       0.008428438 -0.032876015 0.023946175 0.112817116
0001d0 9c 50 12 3e 62 47 4b 3d f0 f7 8e bd 24 e1 10 3e
       0.14288563 0.049628623 -0.06980884 0.14148384
0001e0 4c 1b 13 3e f9 9e 02 3e 86 cf 1f 3d 3f f3 d1 bd
       0.14365882 0.12755956 0.03901627 -0.10251474
0001f0 9a fc 21 3c aa 94 46 bd 81 d3 26 be 2b 31 b6 bd
       0.009886885 -0.04848162 -0.1629162 -0.08896097
000200 2d 09 c4 3d 51 27 8f be af 67 86 be f5 e7 43 bd
       0.09572063 -0.27959684 -0.2625098 -0.047828633
000210 83 21 88 be 4e c1 db 3d bd ba f6 bc 45 ca 0a 3e
       -0.26588067 0.10730229 -0.03011834 0.13553722
000220 97 14 2b bc 1d 26 d6 3d 25 2c ec bc de 40 34 be
       -0.010441921 0.10456488 -0.028829644 -0.1760287
000230 3e 32 3d 3e 10 76 03 3e b2 78 53 3d ea e6 d4 ba
       0.18476197 0.12838006 0.051628776 -0.0016243134
000240 46 44 c5 3d 69 88 6c be 90 e8 18 3d 00 81 d6 bd
       0.09632163 -0.23098911 0.037331164 -0.104738235
000250 79 e5 4b 3e 94 2b 93 bd dd 52 66 3d 84 f1 1d 3b
       0.19911756 -0.07186046 0.05623137 0.0024100253
000260 ff f6 33 3e 41 47 3d 3e 93 8a 36 be 8b 08 46 3d
       0.1757469 0.18484212 -0.178263 0.04834799
000270 1e 37 ba be 59 b0 17 be 47 83 41 3e 52 2e e0 bc
       -0.36370176 -0.14813365 0.18897735 -0.027365837
000280 a8 77 9c bd 19 86 c8 3d 0d 34 00 be 07 19 8e 3d
       -0.0764001 0.09791202 -0.12519856 0.06938367
000290 4d 37 9d bd 6b 90 ef be bb e8 6e bd 2f 7e a6 3a
       -0.076765634 -0.4678987 -0.058327418 0.00127024
0002a0 b3 41 11 bd f7 00 b9 bc 1d ac af bd 8d 94 32 3e
       -0.035463046 -0.022583468 -0.0857775 0.1743948
0002b0 fb 9c 76 3c 60 0e f5 3b 6b a2 ba bd 2e 22 26 3d
       0.0150520755 0.0074785203 -0.0911301 0.04055994
0002c0 08 4e 25 be 65 18 81 3e cf e1 05 3d 4c 5d f2 3c
       -0.16143048 0.25213924 0.03268605 0.029585503
0002d0 00 89 87 bb 47 99 96 3d dc 12 9f bd c8 31 15 3e
       -0.0041362047 0.07353454 -0.07767269 0.14569771
0002e0 1c 01 35 bd a3 5b 25 3e 41 ed 59 bc 12 fa da 3d
       -0.04419051 0.16148238 -0.013301195 0.106922284
0002f0 af 17 a3 3e ec cb 95 3e e1 65 50 bc d9 4e 58 3e
       0.31854007 0.29257143 -0.012719602 0.21123828

MLP.0.bias f4 [64]
000000 35 d3 5a 3a a8 5b 84 bd 5c b4 be bd 94 9d b6 bd
       0.00083475123 -0.064627945 -0.093117446 -0.089167744
000010 cd 82 10 bc 3f 61 8a bc 57 14 95 bd 03 49 38 bd
       -0.008820248 -0.016892074 -0.0727927 -0.044991504
000020 1c d8 09 3e b4 b0 1b bd c4 f0 a0 bd a5 cf 6f bd
       0.13461345 -0.038010314 -0.078584224 -0.058547635
000030 4d 36 13 bc b0 0a 03 3e 43 ff cc 3b e9 9c 05 3c
       -0.008985114 0.12797046 0.0062560155 0.008155086
000040 7b e3 1e 3c 37 3b cb 3b 73 36 86 3a e0 0b 10 bd
       0.00969779 0.0062021273 0.0010239616 -0.035167575
000050 43 c9 ec bb 65 19 cf bb ae b0 a1 bc e0 93 9a bd
       -0.0072261407 -0.006320166 -0.019737568 -0.07547736
000060 65 b2 5f 3c ec 0f a7 bd f4 13 5f bc cb 68 c3 bc
       0.013653372 -0.08157334 -0.013615597 -0.02385368
000070 68 1d 4a bc 1a c1 64 3c ec 4d de bc 65 db d8 bd
       -0.012336113 0.013962055 -0.027136765 -0.10588721
000080 20 d6 68 bd 24 63 2e bd 90 88 45 bd 5f fd 79 bd
       -0.05684483 -0.042575017 -0.04822594 -0.06103265
000090 ff 83 35 be b9 68 f8 3c 01 e0 bd bd ee 53 dd bd
       -0.17726134 0.030323373 -0.09271241 -0.10807024
0000a0 df 6c 8c 3c 27 3f 4b bb e4 ab f4 3d fb 18 f8 3b
       0.017141758 -0.0031012984 0.11946848 0.0075713373
0000b0 30 b7 07 3c ae b7 1f 3b 76 e0 36 bc 64 6f 9b 3c
       0.008283421 0.0024370956 -0.011161914 0.018974014
0000c0 91 a7 45 bc 21 1a a1 bd 57 6a 47 bd 75 75 fb bc
       -0.012063877 -0.07866312 -0.048685398 -0.030695656
0000d0 ef b9 09 3e 24 6b 0c be 65 c5 7f bb f7 34 8a bc
       0.13449834 -0.13712746 -0.0039027568 -0.016870959
0000e0 eb 1f 68 bd 6b 72 83 3c fa 63 83 bd 39 2b 82 3c
       -0.056671064 0.01604577 -0.064155534 0.01588975
0000f0 b9 20 99 bc 47 83 15 3b 2d 0c 87 3b ca 0e 35 bd
       -0.018692361 0.0022813843 0.0041213245 -0.044203557

MLP.2.weight f4 [64, 64]
000000 4f 1b ae 3d 19 a3 b6 3d cc c9 50 3b 4a 73 ea 3d
       0.085013025 0.08917827 0.0031858562 0.11447771
000010 dd 9a c1 bc 1a 11 d2 bc 9b b6 24 be 57 82 04 be
       -0.023633415 -0.02564292 -0.16085283 -0.12940346
000020 a7 2d aa bd 26 02 db 3d 3d 9a e3 3d 00 5a e3 3c
       -0.08309489 0.10693769 0.11113403 0.027752876
000030 78 52 e3 bd c2 9b 53 bd fa 64 0b 3e 4a 93 40 bc
       -0.11099714 -0.051662214 0.13612738 -0.011753866
000040 c4 c0 6d 3e 1b f7 31 be 0f de 88 be 61 2c fa 3b
       0.23218066 -0.1737942 -0.26731917 0.007634685
000050 65 0f 1a 3e 27 b2 19 bd ac b3 44 bd ff 2e 51 3e
       0.15044935 -0.037523415 -0.04802291 0.20428084
000060 9d c6 22 3e f6 c7 a8 3b 36 f1 1f 3d a2 6b 95 bd
       0.15896077 0.0051507903 0.039048396 -0.0729592
000070 22 f5 b0 bd db e1 e6 3d 8a fe 04 3e 80 2d f0 3d
       -0.086405054 0.11273547 0.12987724 0.117274284
000080 61 d9 e3 3d c4 9e 2e 3e 69 8f 88 3d 75 85 c0 bb
       0.11125446 0.17052752 0.06667978 -0.0058752843
000090 85 23 00 3e 93 29 9b 3c 8a a2 93 bd 95 44 f5 bd
       0.1251355 0.018940723 -0.07208736 -0.119759716
0000a0 ca 34 6b 3e 9b 90 76 bd 45 86 1f be 7c c0 04 bd
       0.22969356 -0.0601965 -0.15578564 -0.03241013
0000b0 f9 37 ec bc 26 b5 af 3d 69 80 51 be b5 a8 af 3d
       -0.028835284 0.08579473 -0.20459141 0.085771
0000c0 17 87 97 3d 64 64 b4 3d 07 79 eb bd ca 51 f0 3b
       0.07398813 0.088082105 -0.114976935 0.0073339688
0000d0 9c 82 1b be 1d e1 47 bd c9 9d 1f bd a7 85 08 be
       -0.15186542 -0.04879867 -0.038968835 -0.13332234
0000e0 91 3d 34 3d 49 6b 13 3e 90 3a fe 3c 59 e2 02 3e
       0.044004027 0.14396395 0.031033784 0.12781657
0000f0 f5 5e d9 3d b2 6d 9f bd d5 fc 96 3d b8 d0 86 3a
       0.10613815 -0.077845946 0.07372443 0.0010285592
000100 b7 fe 16 be 41 f5 67 bd 88 7f c1 3c af 5d 86 bd
       -0.14745604 -0.056630377 0.023620382 -0.065608375
000110 88 e7 2e 3c de 5e 28 be ef 79 9e bd 3a 82 85 bd
       0.010675319 -0.16442439 -0.07738101 -0.06518979
000120 78 77 a1 be 55 22 fb bd c0 88 3b 3d 17 ca 94 3d
       -0.3153646 -0.12262408 0.04578471 0.07265108
000130 6e 66 a9 3c b7 57 84 be 99 c3 91 3d e5 41 d8 3c
       0.020678725 -0.2584817 0.071173854 0.026398608
000140 a1 d4 22 3d c4 a3 81 3e d7 a9 30 3d 78 f9 19 3d
       0.03975356 0.25320256 0.043130722 0.037591428
000150 68 4e cc 3c a0 ac c7 3c f1 02 ef bc b1 44 1a 3e
       0.02493973 0.024374306 -0.029176207 0.15065266
000160 ea 9a 47 3e c7 4c ae bc 8e 37 8d bd 0f 80 00 3c
       0.19492689 -0.021276845 -0.06895362 0.007843032
000170 e7 b0 0e 3d c4 86 36 be 0b 12 1a 3c 22 28 10 3e
       0.034836676 -0.17824847 0.009403716 0.1407781
000180 d6 e3 9b 3e fa d8 93 bd ea 1e b0 3d de 96 14 bd
       0.30447263 -0.07219119 0.085996464 -0.03627669
000190 a7 9d 9c 3d a4 2d a3 3c be 1e d6 3d 51 7d 03 3e
       0.07647257 0.019919224 0.10455082 0.12840773
0001a0 90 ad e2 bd c6 f4 20 be 54 41 58 be d1 e2 7d bd
       -0.11068261 -0.15718374 -0.2111867 -0.061983887
0001b0 4c 9e 4f bd 8d 95 00 bd 3f 4d 18 be 3d 33 b4 bd
       -0.050688073 -0.031392623 -0.14873217 -0.087988354
0001c0 23 82 21 3d df f8 84 bd 18 3e 98 3e c7 e2 ae 3d
       0.03943075 -0.06492781 0.29734874 0.08539348
0001d0 20 98 86 be 75 35 f1 3d 5e 93 ff bd a1 0d 3f be
       -0.26287937 0.11777774 -0.1247928 -0.18657543
0001e0 e8 82 00 3e a3 a1 87 3e cf ed 23 be b4 73 26 3e
       0.12549937 0.26490507 -0.16008686 0.16255075
0001f0 85 a7 e3 3d c9 ac 6a bd f3 19 27 3e 94 f6 86 bd
       0.11115936 -0.057293687 0.16318493 -0.0659
000200 f8 7a 93 3d 61 2d 04 bd 7c 85 c9 3d a5 98 22 3d
       0.07201189 -0.03226984 0.09839913 0.039696354
000210 39 d7 9e 3d 57 05 51 3e 0f 90 4b 3d 8b ba d4 3d
       0.07755894 0.20412193 0.04969793 0.10387143
000220 05 4a 27 be 4f b6 16 3d 7a be 18 3e 7f 8d de 3d
       -0.1633683 0.036794957 0.14916411 0.10866832
000230 0a 58 a3 3d 30 d4 cd bd e8 b5 b5 3d 74 65 64 bd
       0.079757765 -0.10050237 0.088725865 -0.055760816
000240 15 47 9f 3d 6e da a1 3e 02 49 b9 bd f0 dd 93 bd
       0.0777723 0.3161196 -0.09047128 -0.072200656
000250 64 a6 1e 3e 0e f0 86 bd b5 9f 01 be 5f b5 b0 3e
       0.1549316 -0.065887555 -0.1265858 0.34513375
000260 ed 8d d3 3d 0d fe e6 3d cd f0 36 bd d9 b6 c1 bc
       0.103298046 0.11278925 -0.04466324 -0.023646759
000270 79 a3 b0 3d fb 58 47 bd ff f7 d7 bd 7b 1b 96 3d
       0.0862493 -0.048668843 -0.105453484 0.0732946
000280 1b 3a 87 3d 8b a2 b2 bd 63 fb 12 3e 65 60 96 be
       0.066028796 -0.08722409 0.14353709 -0.29370418
000290 06 52 ff 3d 89 b6 a0 bd 6c fc 12 3d 6d cd 1d 3d
       0.124668166 -0.07847316 0.03588526 0.038525987
0002a0 1a e3 e8 bd 2f 5b 03 3e 0f c9 2c be 80 aa b6 3d
       -0.11371441 0.12827753 -0.16873573 0.08919239
0002b0 47 fd c6 3d d0 37 21 bc a7 7e e4 bd 62 3b a8 3e
       0.097162776 -0.009839967 -0.111569695 0.32857805
0002c0 4a 4e 95 3c 4e b3 59 be e1 46 24 3e 14 24 81 3e
       0.018225808 -0.21259806 0.16042663 0.25222838
0002d0 f6 53 12 be ae 88 42 3d a1 1e 66 be 90 8b 8e be
       -0.14289841 0.04749363 -0.22472622 -0.27840853
0002e0 b8 f1 b1 bc f7 ae 80 bb 1a bb f6 3d 02 59 83 3d
       -0.021721706 -0.0039271074 0.120474055 0.06413461
0002f0 06 65 0e 3d bd 54 d8 3d a7 3e b0 ba 9a 4a 03 3e
       0.034764312 0.105630375 -0.0013446406 0.12821427
000300 51 22 fb 3d 85 95 39 3c 5d a6 14 be a6 54 70 bd
       0.12262405 0.011327152 -0.14516588 -0.058674477
000310 6e 3c 8c 3d 7b 4a e0 bc 06 a7 d7 bd 1f d6 c0 bc
       0.068474635 -0.027379265 -0.10529904 -0.0235396
000320 27 6e 34 3e b0 a5 a0 bc cf 6f ee bc 31 76 37 3e
       0.17620145 -0.019610256 -0.029106049 0.1791618
000330 db 07 05 be ad 8a 52 3d 38 35 4f 3b ba 3d dd bd
       -0.12991278 0.051401783 0.0031617414 -0.10802789
000340 3c 69 1a be 66 85 34 bd b5 0e 34 3d 18 c1 86 3e
       -0.15079206 -0.04407253 0.04395934 0.26319194
000350 41 1e 0a be f5 68 a3 3c 2e cf 5c 3d 7c ce 6b 3e
       -0.13488103 0.019947508 0.05390852 0.23027986
000360 48 36 b2 3d 06 30 a1 bd 74 24 58 be cf 4a 24 3d
       0.087017596 -0.07870488 -0.21107656 0.040110406
000370 65 71 86 bd b0 d3 c8 bd c4 51 51 be 0a dd 4d be
       -0.06564597 -0.09806001 -0.20441347 -0.20103851
000380 0f 3c e6 3d 01 ac 8a 3d e4 6b eb bd 41 e0 21 be
       0.11241924 0.067710884 -0.11495188 -0.15808202
000390 be 11 d7 bd 23 ea 55 be 8e 54 91 3c 9e 38 25 be
       -0.10501431 -0.20890097 0.017740514 -0.16134879
0003a0 91 4b 28 3e 18 3c 87 3b 36 fc 7a 3d 95 0d 71 3d
       0.16435076 0.004127037 0.061275683 0.058850843
0003b0 1a 35 21 be a9 e9 3a be 20 e4 d7 bd d3 84 12 be
       -0.15742913 -0.18253197 -0.10541558 -0.14308481
0003c0 76 67 5f be 0a 91 05 be 25 61 ca ba 27 52 04 be
       -0.21816811 -0.1304361 -0.0015440328 -0.12921964
0003d0 1d a7 f5 3d 8a 7d eb bc 0d 2f 41 3d cd da 1c 3e
       0.11994765 -0.028746385 0.04716401 0.15317841
0003e0 91 85 0e be e3 0f fe bd 52 57 c6 bc cd c8 ef 3d
       -0.13918139 -0.12405374 -0.02421156 0.117082216
0003f0 5c 8a 88 bd 5d 54 ab 3c a6 76 25 be d5 a6 e4 3c
       -0.06667015 0.020914251 -0.16158542 0.027911583

MLP.2.bias f4 [64]
000000 30 c8 11 3d 76 8b b9 3c ee fc 42 3d 81 d8 77 bd
       0.035591304 0.022649508 0.047604494 -0.06050921
000010 d4 57 60 bd 91 59 d7 bd a5 ac ef 3b b3 03 a0 bd
       -0.05477126 -0.1051513 0.007314282 -0.078132056
000020 17 4a 48 3d fd e5 b9 3d 2c e7 8f bd ae 4e 79 bd
       0.048898783 0.0907707 -0.070265144 -0.06086605
000030 fc 48 79 bd 13 13 85 bd d3 11 92 3b 19 91 58 3d
       -0.06086062 -0.06497779 0.004457691 0.05287275
000040 db e1 3f 3d ab 79 85 bd 8c 73 e6 3c f1 13 b5 bd
       0.046846252 -0.06517347 0.028131269 -0.08841694
000050 f8 90 4d 3b cf 8e 73 3d 96 54 ed bc 9e cc 77 bd
       0.0031366926 0.059462365 -0.028970998 -0.060497873
000060 be 39 79 bd 76 fb 66 3d 71 21 78 bd c5 41 95 bd
       -0.060846083 0.056392156 -0.060578767 -0.07287935
000070 a3 6d 3d 3d 36 b1 9c bd aa 08 93 bd ef cc 09 3d
       0.046247136 -0.07650988 -0.07179387 0.033642706
000080 0a 3c 5e ba 4b cc 4f 3d 81 44 26 bd 5c 3f 3b 3d
       -0.00084775744 0.05073194 -0.040592674 0.04571472
000090 d6 89 03 3d 61 29 78 bd 1e 52 49 bd f5 5d 79 bd
       0.032113872 -0.060586337 -0.04915058 -0.06088062
0000a0 e9 92 06 3d 61 e0 9b bd 1a 6d 79 bd 5d 06 54 bd
       0.03285495 -0.07611156 -0.060895063 -0.05176388
0000b0 59 12 9b bd c3 1c 7a bd ef f9 4e 3d 3d d4 fe 3c
       -0.07571859 -0.061062586 0.050531324 0.031107062
0000c0 93 46 98 3c e5 a4 18 3d ca 3a c8 bd db 26 0f bd
       0.01858834 0.03726663 -0.09776838 -0.034949165
0000d0 de 91 a6 bd c1 ff fc 3c ee aa 16 3d 9d 8d 22 3d
       -0.08133291 0.030883672 0.036784105 0.039685834
0000e0 f8 cd 10 bc d1 30 48 3d 6d 04 07 3d c5 c5 63 3d
       -0.008838169 0.04887468 0.032963205 0.05560853
0000f0 ab b2 5a bd 35 8c 19 3c 3e ff 55 3d ec 53 0d 3c
       -0.053393047 0.009371807 0.05224537 0.008625966

MLP.4.weight f4 [1, 64]
000000 28 a0 b0 3d 35 2f 93 3d fb 40 11 3e c6 2d ae bd
       0.086242974 0.071867384 0.14184944 -0.08504824
000010 21 0b 56 be 73 9b 6d 3b 01 84 da 3d 7a cb 1e 3d
       -0.20902683 0.0036255985 0.10669709 0.03876827
000020 55 d4 dd 3d 50 ca ed bd 04 1b b3 3c 40 56 e2 bd
       0.10831515 -0.11610854 0.021863468 -0.11051607
000030 f5 8b 52 bd 08 27 e9 bd 0a b1 b5 3b 3f ad 36 3e
       -0.051403005 -0.11384398 0.0055447863 0.17839526
000040 a8 11 e8 3d 40 03 07 be 5d c4 7a 3d 22 e7 5e be
       0.11331493 -0.13184834 0.061222423 -0.21767858
000050 c1 e9 14 3d c0 36 81 3e cf cb ad bc ba 5b a0 bd
       0.036355738 0.25237083 -0.021215348 -0.078299955
000060 f3 77 34 bd 05 90 f7 bc dd 20 dd bd 77 e6 08 be
       -0.044059705 -0.030220041 -0.10797284 -0.13369165
000070 0b 67 da 3d 09 72 df 3c 73 c5 04 be d9 b1 86 3d
       0.10664185 0.027276056 -0.12965946 0.065768905
000080 6a b2 3a 3d 40 2a 49 3e 7f 9e 32 bd 46 14 d4 3d
       0.045580305 0.19645023 -0.043608185 0.10355429
000090 44 67 b3 3d 8d 2f ba bd cc d7 76 3d 78 c0 d5 bd
       0.08759931 -0.09091101 0.060264394 -0.10437101
0000a0 75 7d 76 3d 81 60 65 bd b3 9e c3 bd cf 8a 15 be
       0.06017824 -0.056000236 -0.09551754 -0.14603733
0000b0 da bf ba bc 6c 51 e8 bb d0 d5 03 3e 94 65 4c 3e
       -0.02279656 -0.0070897844 0.12874532 0.19960624
0000c0 1e 0e 50 3d f5 a5 21 3e 49 c4 3e be dc ad 07 bd
       0.050794713 0.15785964 -0.18629564 -0.03312479
0000d0 88 20 b8 3c e6 f8 86 3d f6 eb b4 3d 09 f7 a3 3d
       0.02247645 0.06590442 0.088340685 0.080061026
0000e0 f9 ef c4 bc 4e 04 46 3e 0f 9c df 3d 03 9f 3d 3e
       -0.02404021 0.1933758 0.10918438 0.1851769
0000f0 f0 ab f1 bd 27 14 51 3d c6 cd 10 3e 1e a5 ad 3c
       -0.118003726 0.05104461 0.14140996 0.021196898
